Raspberry_Pi_scripts/Real-time_detection/V3/model/yolo-fastestv2-opt_person.onnx (onnx, 971919 bytes, 152 tensors)

output_reg_layers.weight f4 [12, 72, 1, 1]
-0.0968791 0.07307922 0.06482434 0.064719416 -0.11208822 -0.12448847 -0.091765694 -0.03316516
-0.0048417817 0.1749585 -0.0177245 0.09992168 -0.02399266 0.06433377 -0.34660906 -0.061993483
-0.16791384 -0.05702947 -0.08243469 0.021020511 -0.030949531 0.06803832 0.13986544 -0.061910722
0.12814844 -0.025057625 -0.16501708 0.23118863 -0.06480536 -0.0831183 -0.062139682 0.104337074
0.18918169 -0.13564083 0.028935194 -0.060949806 0.08149819 -0.14543158 -0.08285762 0.044493753
-0.10509329 -0.09968095 0.16749072 -0.03616845 0.0020958136 0.04994547 0.015496676 -0.06729492
-0.047161996 0.041063126 0.006290462 -0.01609087 -0.072258085 -0.13603953 -0.19041358 0.05455171
-0.027146172 0.007839848 -0.016117563 -0.0018128731 0.015320243 -0.056175206 -0.110759586 0.05349668
0.17067948 0.3016778 0.062208798 -0.017037183 0.10770579 0.03768611 0.19337316 0.051575664
-0.08947447 -0.1785949 -0.005239394 0.0047842674 0.12966295 -0.24529986 0.20518145 -0.019957824
-0.12572312 -0.027242916 0.059223287 -0.05039276 0.25208747 0.0119026825 -0.07822649 -0.0956928
-0.04959135 0.013243104 -0.020551471 0.019936273 0.036423475 0.034079097 -0.047949944 0.025066812
0.19812888 0.17678997 0.12998071 -0.13528863 -0.018330501 -0.07533971 -0.019713115 -0.17010434
-0.20343758 0.08311168 -0.16066518 -0.08790199 -0.18138668 -0.11618708 -0.13829523 0.123493135
-0.004633861 -0.033642903 0.055845473 -0.15639576 -0.31596342 -0.16754518 -0.04316073 -0.02744276
0.14617416 0.10197237 0.004061927 0.053933576 -0.072703645 -0.19083197 -0.069656156 0.019868074
0.07169409 -0.17477399 0.066715874 0.06035809 -0.016909057 -0.23539764 0.03021248 -0.084931836
-0.15975766 0.05457811 0.010516232 0.052371234 -0.081815 -0.16258352 0.04959994 0.07899688
-0.0006625482 0.030468507 0.020537382 -0.033770997 0.0036933462 0.004797336 -0.043816797 -0.25524944
0.0017071724 -0.002258396 0.051378354 -0.0025004668 0.02142306 0.003917315 -0.0017032134 -0.023368819
-0.0023557986 0.04473167 -0.04023834 -0.012688905 0.0019212207 -0.029698383 -0.020099312 -0.12215098
-0.009148618 -0.002437749 -0.0025423418 0.071991056 -0.052620497 -0.1223792 -0.016452689 -0.043061223
0.018117998 0.004983067 0.036226943 -0.0012751587 0.0070132534 0.00062335224 -0.019721193 0.043584496
-0.03879182 0.24099141 -0.13185078 0.0009070871 -0.0036861286 0.025877845 -0.093533546 -0.096459545
0.010801875 0.010407616 0.101412095 -0.13801447 0.08500387 -0.00340708 -0.021487953 -0.15712725
0.09096111 0.00089776784 0.051703066 -0.018240258 0.0071495515 0.00650956 0.06784945 0.0030596587
-0.013729605 0.015022182 0.07892404 -0.19387406 -0.060187727 -0.0154943215 -0.02263495 -0.024181463
0.011769534 0.0058557508 -0.111360125 -0.013516909 -0.007706402 0.017138032 0.045624137 -0.100673296
0.007138113 -0.005192059 0.07639614 -0.007983673 -0.0040220683 -0.012555608 -0.00406722 0.02382228
-0.0036793305 -0.07440573 0.13588281 -0.04863762 -0.045579877 0.009150719 -0.0020072092 -0.3272421
0.009572423 -0.001144537 0.0046693063 0.05163247 -0.04724166 -0.020175604 0.016397906 -0.023873717
0.010746272 -0.013419372 -0.027386632 -0.0024637438 -0.003978267 -0.018787611 0.04928936 0.04936122
00000000: 8d68 c6bd 8faa 953d a0c2 843d 9d8b 843d
00000010: 828e e5bd d0f3 febd a7ef bbbd 31d8 07bd
00000020: cfa7 9ebb 5228 333e f832 91bc bda3 cc3d
00000030: 418c c4bc 6cc1 833d be76 b1be e1ec 7dbd
00000040: 9bf1 2bbe bc97 69bd 85d3 a8bd 3533 ac3c
00000050: df89 fdbc ad57 8b3d e338 0f3e 1996 7dbd
00000060: 5839 033e a645 cdbc 3dfa 28be b6bc 6c3e
00000070: acb8 84bd ed39 aabd 2e86 7ebd adae d53d
00000080: d8b8 413e 6ee5 0abe 8009 ed3c 81a6 79bd
00000090: 86e8 a63d 04ec 14be 42b1 a9bd 153f 363d
000000a0: 273b d7bd 8725 ccbd b082 2b3e 5e25 14bd
000000b0: eb59 093b 9f93 4c3d c5e5 7d3c ebd1 89bd
000000c0: f02c 41bd cf31 283d 3820 ce3b 00d1 83bc
000000d0: 0cfc 93bd f24d 0bbe c7fb 42be 9d71 5f3d
000000e0: a661 debc b572 003c fb08 84bc ed9d edba
000000f0: c201 7b3c f917 66bd ecd5 e2bd 561f 5b3d
00000100: 9ac6 2e3e 8375 9a3e a7ce 7e3d 9091 8bbc
00000110: da94 dc3d c05c 1a3d 9d03 463e 0141 533d
00000120: 643e b7bd 95e1 36be 39af abbb 58c5 9c3b
00000130: 5dc6 043e e32f 7bbe 161b 523e 977e a3bc
00000140: 90bd 00be 892c dfbc 1e94 723d a468 4ebd
00000150: 9c11 813e 7803 433c 3635 a0bd 96fa c3bd
00000160: 4d20 4bbd 9bf9 583c 8f5b a8bc 6551 a33c
00000170: c830 153d 8696 0b3d 2967 44bd ea58 cd3c
00000180: 4ce2 4a3e 6e08 353e aa19 053e 1a89 0abe
00000190: d929 96bc b54b 9abd 667d a1bc d52f 2ebe
000001a0: f151 50be 7536 aa3d 6a85 24be f505 b4bd
000001b0: 6ebd 39be 7ef3 edbd 449d 0dbe f8e9 fc3d
000001c0: a5d7 97bb 24cd 09bd 39be 643d 3626 20be
000001d0: f5c5 a1be f790 2bbe 4ec9 30bd a4cf e0bc
000001e0: aeae 153e e4d6 d03d ea19 853b 74e9 5c3d
000001f0: a6e5 94bd 7569 43be e3a7 8ebd 5fc2 a23c
00000200: 5ad4 923d f4f7 32be 55a2 883d 0b3a 773d
00000210: dd84 8abc 140c 71be 2a80 f73c bef0 adbd
00000220: 8397 23be 4c8d 5f3d 464c 2c3c 3883 563d
00000230: 9f8e a7bd 4b7c 26be 4f29 4b3d 1ec9 a13d
00000240: dbae 2dba 1799 f93c 033e a83c 7553 0abd
00000250: 110c 723b f932 9d3b 3e79 33bd 0eb0 82be
00000260: 33c3 df3a 9901 14bb 1c72 523d dfde 23bb
00000270: 6a7f af3c d25c 803b 5c3e dfba f76f bfbc
00000280: be63 1abb 8e38 373d f5d0 24bd 20e5 4fbc
00000290: 78d1 fb3a 064a f3bc 50a7 a4bc 4b2a fabd
000002a0: 16e4 15bc a4c2 1fbb 6b9d 26bb 0c70 933d
000002b0: 9788 57bd f2a1 fabd cac7 86bc f760 30bd
000002c0: 326c 943c ff48 a33b b462 143d 3a23 a7ba
000002d0: 6fcf e53b 7668 233a 578e a1bc a885 323d
000002e0: 2ce4 1ebd 74c6 763e e403 07be 96c9 6d3a
000002f0: fa92 71bb c6fd d33c 848e bfbd 958c c5bd
00000300: 59fa 303c b584 2a3c 25b1 cf3d aa53 0dbe
00000310: 8216 ae3d 5149 5fbb 8107 b0bc f7e5 20be
00000320: d249 ba3d 2e58 6b3a 98c6 533d 986c 95bc
00000330: c946 ea3b 264e d53b a7f4 8a3d 8e84 483b
00000340: 23f2 60bc 991f 763c eda2 a13d ec86 46be
00000350: 6887 76bd e5db 7dbc ee6c b9bc 3418 c6bc
00000360: 01d5 403c 99e1 bf3b c710 e4bd 0776 5dbc
00000370: fc85 fcbb 0f65 8c3c 60e0 3a3d cd2d cebd
00000380: d5e6 e93b 2622 aabb 9475 9c3d f4cd 02bc
00000390: 8ecb 83bb 09b6 4dbc 5046 85bb f126 c33c
000003a0: ec20 71bb 0862 98bd dd24 0b3e 3e38 47bd
000003b0: f7b1 3abd e6ec 153c 628b 03bb 478c a7be
000003c0: a7d5 1c3c 4a04 96ba fb00 993b 927c 533d
000003d0: 7980 41bd 4f47 a5bc e754 863c d092 c3bc
000003e0: 2211 303c eddc 5bbc ee59 e0bc c376 21bb
000003f0: 1f5c 82bb 7ae8 99bc a4e3 493d fe2e 4a3d

output_reg_layers.bias f4 [12]
0.011927275 -0.023658562 0.20769791 -0.039218795 -0.026988093 -0.03452006 -0.01876256 0.20074782
0.02922376 0.01650333 -0.14818706 -0.16692221
00000000: 9e6a 433c 9acf c1bc c3ae 543e e3a3 20bd
00000010: 2216 ddbc e864 0dbd f1b3 99bc d690 4d3e
00000020: ab66 ef3c fe31 873c 59be 17be a8ed 2abe

output_obj_layers.weight f4 [3, 72, 1, 1]
0.32033244 -0.26641864 0.30097583 -0.03470567 -0.2442748 0.5387855 -0.1407904 0.450394
-0.58000875 -0.26035437 0.3131663 0.3101411 0.115309596 -0.25651485 -0.18551974 -0.05661323
-0.050448403 0.2853661 0.04332847 0.04444131 0.39949885 -0.41185203 -0.27071878 -0.43559626
0.20423007 0.08537247 -0.21597594 0.26244417 0.4031489 0.24681844 -0.6315814 -0.38771096
-0.37393335 0.38632405 -0.08992695 0.2926533 0.23288694 -0.028913375 0.15615228 0.72456837
0.08525371 -0.32058123 0.3210005 0.10046885 -0.13143197 -0.08704236 -0.18025178 0.38819495
0.9260076 0.11011926 0.10330738 -0.41335088 -0.22370012 0.45637727 0.60289294 0.19674133
0.18545386 0.64645386 -0.0013452319 -0.29028812 -0.22391057 -0.10481808 0.35389867 -0.14359117
0.07101637 0.4280392 0.14564036 -0.3807091 0.04114495 -0.15386096 0.79010904 -0.12590349
-0.23285767 -0.31719193 -0.030430323 0.32821572 -0.108780526 0.46423134 -0.21192184 0.23334837
-0.54251766 -0.36743078 -0.02445019 0.27573523 -0.100951046 -0.17882739 -0.033249017 -0.18158798
0.01983244 0.2986725 0.10050592 -0.31853926 0.3976768 -0.4091963 -0.16625246 -0.46606568
0.5067245 -0.09718799 0.11398649 0.22473307 0.462744 0.14845444 -0.50667626 -0.27204433
-0.23872817 0.54727054 0.3090177 0.29058746 0.07181388 -0.17685883 -0.37736988 0.6195528
-0.10464524 0.0138434945 0.15394855 -0.07424181 -0.16339792 0.39716977 -0.16487111 0.02551158
0.7048654 0.2598192 0.29559577 -0.40525258 -0.15487216 0.50942606 0.612328 0.58668214
0.31124106 0.6770542 0.30039933 -0.35052544 -0.16374858 0.20242472 0.43767595 0.1267212
0.03348975 -0.017330103 -0.046660416 -0.29122445 -0.124551766 0.0490883 0.7238314 -0.03877004
-0.05796291 -0.49188682 -0.010506018 -0.07608183 -0.22135274 0.57384855 -0.14264177 0.3600089
-0.56982505 -0.40200013 -0.081716046 0.12405445 -0.49580622 0.14644207 -0.2584692 0.16773564
0.4309035 0.26307073 -0.017505199 0.24942566 0.45604977 -0.36596707 -0.037527088 -0.61645824
0.24072209 -0.18504208 0.13020068 0.31069958 0.5116617 0.38036752 -0.63058424 -0.4778864
-0.41634506 0.24989738 0.2977798 0.27697358 0.37536478 -0.22891356 -0.044576094 0.6849559
0.107775055 0.03356944 0.21490964 0.02866015 0.16649005 -0.08494539 -0.107071444 -0.019940967
0.55320054 0.007285234 0.088284895 -0.3729641 0.12586813 0.5953823 0.72910947 0.5452302
0.31364375 0.6912825 0.11689786 -0.24814461 -0.1838152 0.3221565 0.33650413 0.20257862
-0.2511935 -0.10674357 0.3143572 0.19594741 0.36652192 0.11129652 0.7602327 0.07538215
00000000: 9d02 a43e 0668 88be 8119 9a3e 8827 0ebd
00000010: 2c23 7abe d9ed 093f 5c2b 10be 0b9a e63e
00000020: 747b 14bf 2b4d 85be 5557 a03e d0ca 9e3e
00000030: 7027 ec3d ea55 83be e3f8 3dbe 46e3 67bd
00000040: fca2 4ebd 811b 923e 3279 313d 1708 363d
00000050: 1d8b cc3e 45de d2be a79b 8abe 7906 dfbe
00000060: b021 513e c3d7 ae3d cc28 5dbe 155f 863e
00000070: 8869 ce3e f9bd 7c3e 52af 21bf 0d82 c6be
00000080: 3174 bfbe 44cc c53e 9f2b b8bd a7d6 953e
00000090: ea79 6e3e bedb ecbc 62e6 1f3e 507d 393f
000000a0: 7f99 ae3d 3923 a4be 2d5a a43e 9dc2 cd3d
000000b0: 1a96 06be 4443 b2bd ec93 38be 7dc1 c63e
000000c0: d60e 6d3f 3586 e13d d292 d33d baa2 d3be
000000d0: a511 65be 48aa e93e 3157 1a3f 8f76 493e
000000e0: 9ee7 3d3e 007e 253f 7e52 b0ba a5a0 94be
000000f0: d048 65be ddaa d6bd 3532 b53e 9009 13be
00000100: 0871 913d f427 db3e bf22 153e 4eec c2be
00000110: 9b87 283d ba8d 1dbe 9644 4a3f d8ec 00be
00000120: 3e72 6ebe fb66 a2be 0349 f9bc e40b a83e
00000130: 53c8 debd bbaf ed3e 0a02 59be e0f2 6e3e
00000140: 70e2 0abf e31f bcbe c44b c8bc 2b2d 8d3e
00000150: 6cbf cebd 871e 37be 1f30 08bd 33f2 39be
00000160: a477 a23c 9aeb 983e 0cd6 cd3d 9417 a3be
00000170: 4b9c cb3e 2d82 d1be 163e 2abe 29a0 eebe
00000180: b2b8 013f 7f0a c7bd c071 e93d 6d20 663e
00000190: c8ec ec3e 7104 183e 89b5 01bf 6549 8bbe
000001a0: 2875 74be ec19 0c3f 9137 9e3e e1c7 943e
000001b0: 2813 933d 7b1a 35be a036 c1be 039b 1e3f
000001c0: 3e50 d6bd d3cf 623c b0a4 1d3e 170c 98bd
000001d0: c951 27be d659 cb3e f9d3 28be a9fd d03c
000001e0: 0f72 343f 0607 853e 5458 973e 447d cfbe
000001f0: cf96 1ebe bf69 023f 87c1 1c3f cd30 163f
00000200: fd5a 9f3e 6d53 2d3f f1cd 993e 1278 b3be
00000210: b5ad 27be 6d48 4f3e 1017 e03e 34c3 013e
00000220: 8c2c 093d dcf7 8dbc fe1e 3fbd 5f1b 95be
00000230: ff14 ffbd d010 493d 044d 393f 55cd 1ebd
00000240: 846a 6dbd 97d8 fbbe 6f21 2cbc cad0 9bbd
00000250: 4baa 62be bde7 123f af10 12be 1653 b83e
00000260: 0ee0 11bf f6d2 cdbe be5a a7bd 4210 fe3d
00000270: 50da fdbe e9f4 153e 1356 84be e4c2 2b3e
00000280: 629f dc3e 35b1 863e 1067 8fbc 7169 7f3e
00000290: 5b7f e93e 0960 bbbe 01b6 19bd 35d0 1dbf
000002a0: da7f 763e ac7b 3dbe 5453 053e 0414 9f3e
000002b0: 43fc 023f 88bf c23e f86d 21bf 87ad f4be
000002c0: 2e2b d5be 19e5 7f3e 9876 983e 7bcf 8d3e
000002d0: d02f c03e 5168 6abe 6c95 36bd 4559 2f3f
000002e0: 2bb9 dc3d 1c80 093d 4611 5c3e b1c8 ea3c
000002f0: 5e7c 2a3e d9f7 adbd 4648 dbbd 3d5b a3bc
00000300: 8d9e 0d3f f9b8 ee3b b6ce b43d 27f5 bebe
00000310: 93e3 003e f96a 183f eba6 3a3f 3594 0b3f
00000320: ea95 a03e e4f7 303f 2568 ef3d 9f19 7ebe
00000330: 0d3a 3cbe b2f1 a43e 454a ac3e c570 4f3e
00000340: 6f9c 80be 5f9c dabd 6df3 a03e 70a6 483e
00000350: c3a8 bb3e 6eef e33d 9c9e 423f f561 9a3d

output_obj_layers.bias f4 [3]
-1.1852148 -1.168677 -1.2419546
00000000: 1eb5 97bf 3597 95bf 5ef8 9ebf

output_cls_layers.weight f4 [1, 72, 1, 1]
0.022281162 0.025447689 0.09291922 0.11305871 -0.035665125 -0.053682677 0.031522147 0.07656876
0.08334892 0.058772363 0.09451907 0.10959204 0.091439985 0.05103161 0.04987011 -0.11748646
-0.018357523 -0.02896133 -0.06715621 0.038551785 0.07006889 0.07459622 0.06503605 0.05325801
-0.09531711 0.10694321 0.056622945 -0.016782857 -0.0728803 -0.08186025 -0.107819155 -0.011697002
0.022416018 0.024894781 -0.029856957 -0.0032913908 -0.04692325 0.10346679 0.01609648 -0.07863374
-0.04897981 0.059747882 -0.013425991 -0.012760617 -0.032080777 0.076725386 0.00997711 0.11273127
-0.0041675344 0.085870944 -0.10507606 0.075323515 -0.03666853 0.05418638 -0.06567669 -0.08124556
0.098135 0.07808373 0.06954787 0.074082024 0.07522305 0.042897828 -0.10635526 -0.09796807
0.07052726 0.005006075 0.022006609 0.03529466 -0.03523287 0.0082316175 -0.08055766 -0.052365392
00000000: fc86 b63c ac77 d03c 6f4c be3d 538b e73d
00000010: 9815 12bd 5ee2 5bbd 5e1d 013d 15d0 9c3d
00000020: d7b2 aa3d 4abb 703d 3793 c13d cb71 e03d
00000030: e344 bb3d 8606 513d 9a44 4c3d be9c f0bd
00000040: 8462 96bc 5040 edbc 3289 89bd 7ae8 1d3d
00000050: 4780 8f3d e7c5 983d 9f31 853d 1225 5a3d
00000060: 9e35 c3bd 0b05 db3d 76ed 673d 347c 89bc
00000070: 4442 95bd 59a6 a7bd 4ad0 dcbd c8a4 3fbc
00000080: cca1 b73c 24f0 cb3c 9496 f4bc 60b4 57bb
00000090: 9832 40bd 65e6 d33d c4dc 833c ba0a a1bd
000000a0: 0e9f 48bd 32ba 743d b0f8 5bbc e811 51bc
000000b0: 2267 03bd 3322 9d3d 0877 233c a7df e63d
000000c0: d08f 88bb 1bdd af3d 1e32 d7bd 3743 9a3d
000000d0: be31 16bd 8af2 5d3d 8081 86bd 1264 a6bd
000000e0: 01fb c83d 5dea 9f3d 1d6f 8e3d 51b8 973d
000000f0: 8b0e 9a3d a2b5 2f3d c9d0 d9bd 7ca3 c8bd
00000100: 9970 903d 000a a43b 3447 b43c 2291 103d
00000110: 5850 10bd e8dd 063c 6afb a4bd 187d 56bd

onnx::Conv_798 f4 [24, 3, 3, 3]
-0.018193116 -0.0034386322 -0.027672015 -0.034802187 -0.018245826 0.0057957866 -0.008161669 -0.048461568
-0.001957313 -0.083306074 -0.101481214 -0.09513656 -0.0711813 -0.08308298 -0.113611065 -0.10871629
-0.10505846 -0.10626361 0.103006154 0.09820366 0.10949425 0.09515576 0.10794587 0.10719926
0.109316714 0.13508692 0.096809156 0.29243433 -0.25305685 -0.07210747 -0.09388286 -0.38536754
0.1751294 -0.0954832 0.061292503 0.21504831 0.4090291 -0.22165981 -0.18587635 -0.07245498
-0.6259845 0.042381488 -0.14215785 -0.06525063 0.4415298 0.27423757 0.04682129 -0.07076567
0.10369902 -0.4481431 -0.09802146 -0.13614504 -0.19744523 0.35706148 0.08825794 0.08416509
0.09746642 0.09169133 -0.012060533 0.04591833 0.10969952 0.06489053 0.073784366 -0.12049742
-0.1588213 -0.075556986 -0.153458 -0.2677006 -0.1180102 -0.08912476 -0.14228058 -0.06202689
0.017756931 0.0792976 -0.016559143 0.056986175 0.24916533 0.05428077 -0.032934092 0.061139055
-0.023153316 -0.117731206 -0.15272847 -0.059649087 -0.18030341 -0.24074261 -0.12037941 -0.09312093
-0.12369458 -0.045028474 0.18962604 0.1883718 0.120424464 0.1954395 0.20218635 0.11330694
0.15938336 0.13620497 0.08638126 -0.07987383 -0.050567683 -0.053172957 -0.020061849 0.01089387
-0.01830009 -0.07363205 -0.019984946 -0.04190141 0.22921202 -0.2328505 -0.15640362 0.37999886
-0.011829617 -0.29851037 0.17169866 0.12063875 -0.24583589 0.35030004 -0.34772682 -0.23351738
0.48448327 -0.04233214 -0.41017246 0.27329016 0.16994818 -0.2644817 0.48339275 -0.38647282
-0.25887394 0.4764004 -0.07229028 -0.4017123 0.3679854 0.20036076 -0.38875082 0.027559519
0.053717658 -0.033047173 0.068758935 0.10884481 0.071341984 0.04331876 0.058529615 0.04734838
0.053437706 0.062355243 0.038134485 0.05350438 0.035364512 0.024798587 0.011671881 0.015083357
0.025392072 0.052138023 0.10403461 0.050737094 0.057049267 0.112179615 0.062323987 -0.008171463
0.04804813 0.017240046 -0.26236758 0.14619035 0.3018054 -0.42146304 0.0056012296 0.41833308
-0.3439515 -0.2643266 0.4050709 -0.3265219 0.11387477 0.3562508 -0.43544766 -0.020399237
0.5202629 -0.2402896 -0.36707905 0.38237482 -0.22196974 0.06660711 0.30096963 -0.28032768
-0.0965125 0.3541836 -0.10884013 -0.3606995 0.2761112 0.26299024 -0.11145099 -0.049541485
-0.025401715 0.03992073 0.06723665 -0.2518345 0.074535035 0.14840151 0.084278524 0.13968615
-0.27340522 0.09191497 0.10643101 -0.0020379042 0.10573698 0.099328555 0.13546087 -0.15760086
0.17585048 0.27995053 0.010883285 -0.1300687 0.07791811 0.3434269 -0.09919766 0.011643734
-0.10238539 -0.2323957 -0.12903973 7.575309e-05 -0.07715308 -0.33934546 0.16578175 0.41893536
0.23700841 -0.1674922 -0.45722836 -0.27535293 0.09465744 -0.13541628 -0.25998974 0.2581735
0.48187667 0.35697973 -0.2773352 -0.64828634 -0.54163843 0.20220777 -0.09546854 -0.3585056
0.45142516 0.7512273 0.5426154 -0.4375489 -0.031723745 0.22045702 -0.05108734 0.40413767
0.07841666 0.13679215 0.21193387 -0.2657524 -0.5618324 0.016433513 0.19994058 -0.026506683
00000000: bb09 95bc ad5a 61bb 6cb0 e2bc bd8c 0ebd
00000010: 4578 95bc 95ea bd3b 85b8 05bc a37f 46bd
00000020: 4346 00bb 609c aabd 62d5 cfbd f5d6 c2bd
00000030: 80c7 91bd 6927 aabd ebac e8bd a5a6 debd
00000040: e428 d7bd bca0 d9bd e4f4 d23d 001f c93d
00000050: 853e e03d 06e1 c23d b912 dd3d 498b db3d
00000060: 71e1 df3d 3a54 0a3e e143 c63d f4b9 953e
00000070: ab90 81be 15ad 93bd a845 c0bd e54e c5be
00000080: 1f55 333e b28c c3bd d90d 7b3d a035 5c3e
00000090: 436c d13e cafa 62be 5f56 3ebe 4763 94bd
000000a0: 8540 20bf 3698 2d3d d491 11be 1fa2 85bd
000000b0: 3210 e23e de68 8c3e aec7 3f3d 97ed 90bd
000000c0: 2760 d43d 0373 e5be 7abf c8bd 9b69 0bbe
000000d0: 152f 4abe c3d0 b63e 94c0 b43d bf5e ac3d
000000e0: 799c c73d aac8 bb3d 8b99 45bc dc14 3c3d
000000f0: 24aa e03d 54e5 843d 421c 973d 5ac7 f6bd
00000100: 0da2 22be 9fbd 9abd 1824 1dbe 0e10 89be
00000110: 55af f1bd 0b87 b6bd 00b2 11be e90f 7ebd
00000120: fc76 913c c866 a23d 0aa7 87bc 566a 693d
00000130: 3225 7f3e 8355 5e3d e6e5 06bd f26c 7a3d
00000140: 06ac bdbc 0f1d f1bd da64 1cbe 9a52 74bd
00000150: 75a1 38be 3b85 76be 7b89 f6bd 30b6 bebd
00000160: 9553 fdbd c76f 38bd 542d 423e 8ae4 403e
00000170: 1aa1 f63d 4b21 483e f009 4f3e 780d e83d
00000180: 6435 233e 5179 0b3e a8e8 b03d e494 a3bd
00000190: 0f20 4fbd e3cb 59bd bf58 a4bc 347c 323c
000001a0: 12ea 95bc 66cc 96bd 78b7 a3bc d0a0 2bbd
000001b0: 8eb6 6a3e 5d70 6ebe 4528 20be 368f c23e
000001c0: 03d1 41bc 5ad6 98be c6d1 2f3e 7311 f73d
000001d0: 67bc 7bbe 875a b33e 4009 b2be 2e1f 6fbe
000001e0: 310e f83e 7764 2dbd 2002 d2be b0ec 8b3e
000001f0: e506 2e3e 256a 87be 417f f73e c4df c5be
00000200: 208b 84be c1ea f33e ed0c 94bd 3cad cdbe
00000210: 9568 bc3e 5f2b 4d3e 590a c7be 80c4 e13c
00000220: 0c07 5c3d 795c 07bd 7cd1 8c3d 07ea de3d
00000230: bf1b 923d 036f 313d c0bc 6f3d 60f0 413d
00000240: 7fe1 5a3d 3668 7f3d e832 1c3d 6927 5b3d
00000250: 61da 103d 6826 cb3c 6b3b 3f3c 2f20 773c
00000260: 0903 d03c ae8e 553d 1910 d53d b3d1 4f3d
00000270: 7eac 693d 6dbe e53d 7047 7f3d 9ae1 05bc
00000280: 1ece 443d ff3a 8d3c 0b55 86be ecb2 153e
00000290: 3d86 9a3e 01ca d7be 858a b73b c12f d63e
000002a0: 691a b0be d155 87be 7465 cf3e e12d a7be
000002b0: 2d37 e93d 8166 b63e fff2 debe 4d1c a7bc
000002c0: f32f 053f 7a0e 76be c9f1 bbbe a2c6 c33e
000002d0: 094c 63be 4f69 883d b118 9a3e 1c87 8fbe
000002e0: 58a8 c5bd 8e57 b53e 93e7 debd 9bad b8be
000002f0: 725e 8d3e a8a6 863e 6b40 e4bd 03ec 4abd
00000300: 4217 d0bc eb83 233d 5eb3 893d 74f0 80be
00000310: d3a5 983d 91f6 173e 389a ac3d e309 0f3e
00000320: c5fb 8bbe ea3d bc3d 80f8 d93d 5c8e 05bb
00000330: a18c d83d c56c cb3d 41b6 0a3e 1f62 21be
00000340: 2612 343e ad55 8f3e ce4f 323c bb30 05be
00000350: 8893 9f3d a7d5 af3e 2528 cbbd 5cc5 3e3c
00000360: 6eaf d1bd 23f9 6dbe fe22 04be a1dd 9e38
00000370: 6f02 9ebd b0be adbe b1c2 293e b27e d63e
00000380: 55b2 723e 1383 2bbe d619 eabe 0ffb 8cbe
00000390: c3db c13d 91aa 0abe 601d 85be 512f 843e
000003a0: 8ab8 f63e 0cc6 b63e e1fe 8dbe 18f6 25bf
000003b0: d1a8 0abf 8e0f 4f3e 0385 c3bd 0c8e b7be
000003c0: 3321 e73e 6f50 403f d8e8 0a3f 6906 e0be
000003d0: c2f0 01bd 7cbf 613e f540 51bd 22eb ce3e
000003e0: ea98 a03d 3e13 0c3e 3105 593e b310 88be
000003f0: 40d4 0fbf 939f 863c 39bd 4c3e 8b24 d9bc

onnx::Conv_799 f4 [24]
0.3932313 0.7156452 0.25920048 0.47524422 0.02898153 0.06972742 0.078283034 -1.0433754
0.1329948 0.012849137 0.06637845 -0.00023827981 0.30257004 0.7316793 0.024115272 -0.00051527406
0.5327491 0.1707772 0.036386333 0.007035151 0.025527779 1.3502569 0.0061872452 0.17984787
00000000: 9d55 c93e 8634 373f edb5 843e 3653 f33e
00000010: ac6a ed3c 40cd 8e3d db52 a03d 538d 85bf
00000020: ca2f 083e 3085 523c 6df1 873d c0da 79b9
00000030: 76ea 9a3e 564f 3b3f 648d c53c 7513 07ba
00000040: 3f62 083f 38e0 2e3e d609 153d 2087 e63b
00000050: a21f d13c 38d5 ac3f 60be ca3b 0a2a 383e

onnx::Conv_801 f4 [24, 1, 3, 3]
0.070698075 -0.11979038 0.052662104 -1.1899738 -0.27287403 1.2374694 -1.2309304 -0.6040878
1.6379741 -0.01229154 -0.045671135 0.006404195 0.091014355 0.08382505 0.07299408 0.17072687
0.17471464 0.016257893 0.07530895 -0.030141545 -0.30474216 -0.18719165 0.14843778 0.6313015
-0.5234424 0.13791996 2.5510035 0.09618856 -0.03800184 -0.13308528 0.5946009 0.17904146
-0.14795387 1.2578658 0.2513948 -0.44381317 -0.0012565416 0.058118843 0.030766701 0.043718405
0.040306494 -0.063873984 0.0067410083 -0.0319833 -0.30971238 -0.07327071 0.033564046 0.051384274
-0.49394077 0.064730085 0.4659392 -0.6172543 -0.11060225 0.6320683 -0.008132917 0.03188847
-0.009146137 -0.0004166006 0.01687044 -0.08291435 -0.016963808 -0.104207255 -0.22945727 -0.0676496
0.17856039 0.29682463 -0.05766846 0.31561387 0.8628441 0.04078132 0.75392896 1.1009175
0.003508349 -0.05632443 0.0043082032 -0.028411638 -0.0534458 0.11879004 -0.021805456 0.025852183
0.31436634 -0.047841873 -0.080158025 -0.07604975 0.057672903 -0.11372902 0.004529388 -0.075785056
-0.039007876 -0.0583725 -0.033814613 0.1428261 0.110746376 -0.027313286 -0.29460397 -0.098137654
0.14375086 -1.0659894 -1.7019874 -1.3718412e-14 -1.8147071e-14 -2.0845174e-14 -9.914181e-15 -8.092309e-15
1.353701e-14 -1.399158e-14 1.7303067e-14 1.9356541e-14 0.037767783 0.1577654 0.0128872385 0.0031030995
-0.30693045 -0.21592192 -0.23406136 -0.31236604 -0.16535114 -0.024031041 -0.073580146 -0.015389126
0.029482622 -0.020295858 -0.18083096 0.08056104 0.07320131 -0.23331073 0.01399492 0.02577803
0.0035238503 0.03623253 0.06034936 -0.09626491 0.0054582357 -0.013593643 -0.29797828 2.3276076e-14
1.1759099e-15 -1.4687385e-14 -9.384843e-15 -2.0971221e-14 7.826196e-16 -2.7386032e-14 1.7524856e-14 -4.2995625e-15
-0.02671926 0.043157436 0.056933705 0.2313011 -0.21031314 -0.5395509 0.40900695 -0.36487877
-0.99562377 -0.22910063 0.057764973 0.2692698 -0.9345623 0.28298557 1.1527317 -0.5418452
0.067802 1.2078286 -0.043483984 -0.054091472 -0.092108086 -0.02309296 -0.17645904 -0.28171512
-0.08481894 -0.21292275 -0.11674854 0.017007604 0.108725965 -0.005795927 0.05322854 0.050462645
-0.13191429 0.024085399 0.012412667 -0.40540937 0.11138983 0.0011327282 -0.021279598 0.067755595
0.06567643 -0.032924686 0.080426514 0.052971248 0.005323957 0.09190785 -0.021222115 -0.08201282
0.64137816 -0.10573447 -0.64290714 0.48714474 -0.011590171 -0.48375022 -0.007944583 0.076323465
0.094993286 0.07350444 0.052425046 -0.14817621 0.039333653 -0.062201463 -0.40972298 0.004136523
0.0014851227 0.06938717 0.009841942 0.114853635 0.10785454 0.023814486 0.1133805 0.068592906
00000000: 27ca 903d a954 f5bd 38b4 573d 1051 98bf
00000010: 25b6 8bbe 6665 9e3f 218f 9dbf 80a5 1abf
00000020: 23a9 d13f 7562 49bc a811 3bbd 48da d13b
00000030: bc65 ba3d 78ac ab3d ec7d 953d 06d3 2e3e
00000040: 65e8 323e 462f 853c 943b 9a3d 67eb f6bc
00000050: 2a07 9cbe 2baf 3fbe 1300 183e fa9c 213f
00000060: 5200 06bf e43a 0d3e a443 2340 82fe c43d
00000070: d1a7 1bbd 8247 08be c437 183f a556 373e
00000080: 3881 17be bf01 a13f d2b6 803e 7b3b e3be
00000090: 8ab2 a4ba 060e 6e3d 730a fc3c 1212 333d
000000a0: 6c18 253d 5dd0 82bd ade3 dc3b ec00 03bd
000000b0: 9f92 9ebe f40e 96bd 747a 093d 5178 523d
000000c0: cee5 fcbe 3591 843d 958f ee3e 6104 1ebf
000000d0: 6f83 e2bd 3acf 213f ed3f 05bc 7c9d 023d
000000e0: aed9 15bc 306b dab9 e133 8a3c 00cf a9bd
000000f0: aff7 8abc 9d6a d5bd d9f6 6abe e08b 8abd
00000100: 89d8 363e 66f9 973e c335 6cbd 2498 a13e
00000110: 5ae3 5c3f 500a 273d 7d01 413f ddea 8c3f
00000120: 54ec 653b 72b4 66bd d42b 8d3b 86bf e8bc
00000130: fce9 5abd 3148 f33d 5ba1 b2bc f5c7 d33c
00000140: a0f4 a03e d7f5 43bd e429 a4bd f9bf 9bbd
00000150: 6c3a 6c3d c3ea e8bd 436b 943b 3235 9bbd
00000160: b9c6 1fbd 0118 6fbd 3181 0abd 0141 123e
00000170: ffce e23d 1dc0 dfbc 55d6 96be 65fc c8bd
00000180: 6d33 133e 5772 88bf b9da d9bf 0221 77a8
00000190: 4c74 a3a8 b3c1 bba8 1799 32a8 30c7 11a8
000001a0: 71dc 7328 c60c 7ca8 28da 9b28 2559 ae28
000001b0: 64b2 1a3d 418d 213e ff24 533c 5f5d 4b3b
000001c0: fd25 9dbe a31a 5dbe c8ad 6fbe 71ee 9fbe
000001d0: cf51 29be bfdc c4bc 30b1 96bd ac22 7cbc
000001e0: 8a85 f13c 8043 a6bc c02b 39be 30fd a43d
000001f0: 92ea 953d 02e9 6ebe f34a 653c 722c d33c
00000200: 66f0 663b 9068 143d e430 773d 8a26 c5bd
00000210: 00db b23b dfb7 5ebc 9c90 98be faa6 d128
00000220: 6b77 a926 ce4a 84a8 f30f 29a8 58e4 bca8
00000230: 2293 6126 e4ab f6a8 91d9 9d28 77e8 9aa7
00000240: 59e2 dabc dac5 303d 5133 693d 32da 6c3e
00000250: 545c 57be 0220 0abf 5c69 d13e 64d1 babe
00000260: 33e1 7ebf 5b99 6abe f79a 6c3d bbdd 893e
00000270: 7a3f 6fbf 7ce3 903e b68c 933f 5eb6 0abf
00000280: c6db 8a3d 219a 9a3f 431c 32bd 058f 5dbd
00000290: 2aa3 bcbd 722d bdbc aeb1 34be f73c 90be
000002a0: 8db5 adbd 6c08 5abe dc19 efbd 8853 8b3c
000002b0: b8ab de3d c2eb bdbb 2b06 5a3d ebb1 4e3d
000002c0: 8a14 07be be4e c53c 805e 4b3c d191 cfbe
000002d0: 5a20 e43d 0d78 943a 8d52 aebc 72c3 8a3d
000002e0: 5d81 863d 09dc 06bd a8b6 a43d 61f8 583d
000002f0: 9774 ae3b 2f3a bc3d 00da adbc 56f6 a7bd
00000300: 5c31 243f 508b d8bd 9095 24bf 096b f93e
00000310: b3e4 3dbc 1cae f7be ff29 02bc 7a4f 9c3d
00000320: d78b c23d 7f89 963d a5bb 563d 81bb 17be
00000330: 531c 213d f6c6 7ebd 36c7 d1be ac8b 873b
00000340: 73a8 c23a dc1a 8e3d 1940 213c 6238 eb3d
00000350: d7e2 dc3d 9916 c33c 0934 e83d 707a 8c3d

onnx::Conv_802 f4 [24]
0.15236725 -0.30285156 -0.59854025 -0.7695557 0.053406063 0.012789731 0.105123565 -0.04299422
-0.097845726 0.15058549 0.27722293 2.2096536e-08 0.10066492 0.20718034 0.067459896 2.1736819e-08
0.76916623 -0.028956866 0.14931186 0.09214569 -0.08051898 0.14300436 0.08442268 -0.16983327
00000000: 2906 1c3e 5c0f 9bbe ef39 19bf 9a01 45bf
00000010: 51c0 5a3d 058c 513c 064b d73d b51a 30bd
00000020: 5763 c8bd 1533 1a3e 2af0 8d3e ccce bd32
00000030: 6929 ce3d 1527 543e 6a28 8a3d c5b7 ba32
00000040: 14e8 443f f336 edbc 35e5 183e e1b6 bc3d
00000050: 23e7 a4bd bc6f 123e cce5 ac3d c6e8 2dbe

onnx::Conv_804 f4 [24, 24, 1, 1]
-0.009085995 0.147111 0.00089555135 0.010259561 0.00022075837 0.0058485284 0.018397275 -0.037721943
0.022088028 0.10739846 -0.004112828 -3.1648113e-13 -0.36296943 -0.09596277 -0.008574515 -2.9064777e-13
-0.008642101 0.23917839 -0.03464618 0.026997047 0.028557364 -0.083258666 -0.024506386 -0.029188635
-0.074158095 0.18658516 0.22474557 -0.018923456 -0.00907249 -0.013659429 -0.034251306 -0.06420656
0.019447349 0.043446396 1.4500774 1.0594298e-12 -0.015245182 -0.060199432 0.018066762 4.3134436e-13
-0.16175614 -0.05522348 0.020791475 0.036780596 -0.031475224 0.00016836823 -0.037737455 0.023497999
0.053873777 -0.056849625 0.3748877 0.03909817 0.05121229 -0.06605585 0.03312889 0.028430883
-0.03038277 -0.04854101 -0.23854506 -2.928363e-13 0.097880535 -0.099615015 0.026092062 -1.1926107e-13
-0.52761805 -0.040354174 -0.016646013 0.025200382 0.027551394 0.07927377 -0.004021719 -0.082595564
0.015748058 -0.17813623 -0.6771182 0.07776144 0.011623266 0.06994328 0.112044744 0.0061752233
0.01229496 -0.1631921 -0.08409617 -4.279038e-13 0.09391688 0.25047866 -0.06944207 3.860607e-13
-0.05485054 0.06408817 -0.40959546 0.029210687 0.0162863 -0.123275794 0.0070853652 -0.36258507
0.0867036 -0.10183965 0.038093816 0.9016539 -0.0068456884 0.006802251 0.01015594 0.007818362
0.0006695112 -0.050875064 0.12805666 2.4712835e-14 0.023887334 0.022890843 -0.0026879546 -1.6323236e-13
0.0032270823 0.0073556253 -0.04130599 0.014859029 0.024038851 -0.039897755 0.012432775 -0.012572564
0.20175783 0.23191656 0.0013008541 -0.044316243 0.24253851 0.42845702 -0.1793106 0.18887469
0.07261558 0.14611526 -0.017576056 -8.388845e-13 -0.03351522 -0.022107182 0.029533233 -4.5208225e-13
-0.011912445 -0.18092363 0.65648174 0.054714188 -0.0067635626 0.60136074 -0.036940455 0.36967546
0.0005522615 -0.05138701 0.022379335 0.0071332064 0.11631575 0.7421089 -0.000121912584 0.083093956
-0.0760386 -0.094448514 0.010205729 -2.4903582e-13 0.10737382 0.02152852 -0.08882534 2.6608018e-13
-0.011556293 -0.012073175 -0.08371499 -0.04944742 -0.46004584 -0.020091517 0.012421753 0.035172846
-0.017473254 0.19312629 -0.08997114 -0.07245913 -0.027057828 -0.039917864 0.06201765 0.28224367
0.05137529 -0.1980694 0.0734498 2.5165235e-13 -0.24491432 -0.11336512 0.07396487 5.3931707e-13
-0.057963002 -0.16136152 -0.44321972 -0.03753524 0.066354424 0.0359656 -0.08916957 -0.037306067
-0.026105264 -0.061684515 0.3741079 -0.04504118 0.0011110927 -0.0075027393 -0.003894639 0.052434046
0.014648588 -0.027608065 -0.020243272 -7.856365e-14 -0.00547326 0.028900757 0.013994959 -1.9666576e-13
0.023552323 0.006092954 -0.02170273 0.012800425 -0.031344928 0.031919785 -0.007478439 0.012857919
0.39900878 -0.024914296 0.05239983 -0.08891038 -0.122812316 -0.050556708 -0.13366884 -0.004690978
-0.0040523284 -0.07225373 0.8546613 7.689145e-13 0.04254239 -0.11521489 0.024701526 -1.07159676e-13
0.7043843 -0.0800387 0.04788002 -0.054393336 0.14604422 0.11817899 0.023083586 0.27179605
0.040069275 0.23116611 0.06816874 -0.0038318506 -0.017093029 -0.13941744 0.2099519 -0.1039761
-0.047614936 0.021378223 0.010686492 -3.1612167e-13 -0.14047457 0.102242485 8.266899e-05 -1.5684638e-13
00000000: 6ddd 14bc 44a4 163e 6fc3 6a3a b817 283c
00000010: 607b 6739 03a5 bf3b e2b5 963c 5382 1abd
00000020: f4f1 b43c b9f3 db3d e7c4 86bb bd29 b2aa
00000030: 21d7 b9be 2188 c4bd 1f7c 0cbc c29e a3aa
00000040: 9997 0dbc 2eeb 743e 27e9 0dbd e928 dd3c
00000050: 22f1 e93c 8583 aabd 9ec1 c8bc 011d efbc
00000060: 33e0 97bd 2e10 3f3e b423 663e 5d05 9bbc
00000070: c8a4 14bc cccb 5fbc 194b 0cbd bb7e 83bd
00000080: 0c50 9f3c d9f4 313d 239c b93f fb19 952b
00000090: eec6 79bc ae93 76bd bf00 943c 46d3 f22a
000000a0: 67a3 25be 0432 62bd e252 aa3c 40a7 163d
000000b0: 2aec 00bd 018c 3039 9792 1abd e07e c03c
000000c0: c0aa 5c3d 27db 68bd 48f1 bf3e 6725 203d
000000d0: fac3 513d 4a48 87bd 29b2 073d e2e7 e83c
000000e0: 49e5 f8bc f0d2 46bd 2845 74be 29da a4aa
000000f0: 9775 c83d f502 ccbd 05bf d53c aa46 06aa
00000100: fa11 07bf 6b4a 25bd 385d 88bc 0871 ce3c
00000110: 76b3 e13c 495a a23d a0c8 83bb dd27 a9bd
00000120: 1202 813c 5869 36be 9e57 2dbf 6441 9f3d
00000130: 836f 3e3c 6c3e 8f3d b777 e53d 8759 ca3b
00000140: cd70 493c d41b 27be 9d3a acbd 70e3 f0aa
00000150: 7e57 c03d bd3e 803e a537 8ebd 3655 d92a
00000160: f6aa 60bd a940 833d 7fb6 d1be 404b ef3c
00000170: d96a 853c 0578 fcbd 5a2c e83b c0a4 b9be
00000180: a891 b13d 4e91 d0bd 4308 1c3d cad2 663f
00000190: cc51 e0bb 6be5 de3b 1a65 263c 9618 003c
000001a0: 2382 2f3a 5f62 50bd 4921 033e eb97 de28
000001b0: 5faf c33c 9485 bb3c 6528 30bb 86c8 37aa
000001c0: 757d 533b 7507 f13b 7830 29bd 4973 733c
000001d0: 20ed c43c d46b 23bd d7b2 4b3c 28fd 4dbc
000001e0: 9b99 4e3e 897b 6d3e 6c81 aa3a f384 35bd
000001f0: 045c 783e b85e db3e 339d 37be 5e68 413e
00000200: 7ab7 943d 3d9f 153e a9fb 8fbc 0020 6cab
00000210: 4147 09bd 1f1a b5bc aeef f13c eb7f feaa
00000220: 6a2c 43bc 0b44 39be 300f 283f fc1b 603d
00000230: e0a0 ddbb c7f2 193f e04e 17bd 1a46 bd3e
00000240: a4c5 103a 2f7b 52bd de54 b73c acbd e93b
00000250: f436 ee3d d9fa 3d3f 52ab ffb8 2a2d aa3d
00000260: 20ba 9bbd 396e c1bd ee35 273c d831 8caa
00000270: cee6 db3d 945c b03c 0fea b5bd 32ca 952a
00000280: 9b56 3dbc 91ce 45bc c472 abbd 6189 4abd
00000290: 218b ebbe f796 a4bc 9c84 4b3c 6711 103d
000002a0: 1224 8fbc e6c2 453e ca42 b8bd 7465 94bd
000002b0: 61a8 ddbc ea80 23bd 3806 7e3d 3e82 903e
000002c0: e56e 523d b4d2 4abe d96c 963d edaa 8d2a
000002d0: d2ca 7abe f92b e8bd e57a 973d e4cd 172b
000002e0: 9d6a 6dbd f43b 25be b2ed e2be 8dbe 19bd
000002f0: d4e4 873d aa50 133d 899e b6bd 3fce 18bd
00000300: b5da d5bc e7a8 7cbd 128b bf3e 1a7d 38bd
00000310: 16a2 913a 8ad9 f5bb 333d 7fbb 15c5 563d
00000320: a200 703c 4f2a e2bc 38d5 a5bc dce8 b0a9
00000330: 0859 b3bb 48c1 ec3c 1d4b 653c 0c6d 5daa
00000340: cdf0 c03c 67a7 c73b ecc9 b1bc e0b8 513c
00000350: 8a63 00bd 52be 023d b10d f5bb 05aa 523c
00000360: e14a cc3e 1119 ccbc 34a1 563d a516 b6bd
00000370: 0685 fbbd 8d14 4fbd 7ce0 08be c7b6 99bb
00000380: 65c9 84bb c3f9 93bd 15cb 5a3f 216e 582b
00000390: ee40 2e3d c9f5 ebbd db5a ca3c 594d f1a9
000003a0: 8852 343f 54eb a3bd d71d 443d 8ccb 5ebd
000003b0: 9e8c 153e d407 f23d ca19 bd3c da28 8b3e
000003c0: ae1f 243d cfb6 6c3e 0d9c 8b3d c91f 7bbb
000003d0: ae06 8cbc 72c3 0ebe a2fd 563e 6cf1 d4bd
000003e0: e107 43bd 6221 af3c 6516 2f3c eff5 b1aa
000003f0: 91d8 0fbe 8264 d13d 935e ad38 e497 30aa

onnx::Conv_805 f4 [24]
0.13476661 -0.060672157 0.096135 0.19120751 0.082908176 0.002029629 0.018442472 0.14854795
0.024952875 0.038719036 -0.015544752 0.023335202 0.12357249 0.10473837 -0.028607445 0.06329169
0.14894918 0.033326317 0.018451894 0.03602251 0.13756034 -0.035065647 0.018653195 0.076483145
00000000: 4200 0a3e 5e83 78bd 6de2 c43d e7cb 433e
00000010: c3cb a93d 8603 053b ab14 973c f41c 183e
00000020: f969 cc3c da97 1e3d 6aaf 7ebc 7729 bf3c
00000030: 9313 fd3d 1281 d63d 295a eabc 139f 813d
00000040: 2286 183e 2d81 083d 6d28 973c 578c 133d
00000050: 9edc 0c3e ffa0 0fbd 96ce 983c 32a3 9c3d

onnx::Conv_807 f4 [24, 24, 1, 1]
0.20632617 -0.002180509 0.21722665 0.29794556 0.019491872 0.08149626 0.023107054 0.11202036
0.01702044 0.0051006367 0.087574214 2.55118e-13 0.18990031 0.031808864 0.0075970134 -3.0464973e-14
0.32757738 0.21112141 0.02236143 0.00882077 0.007488334 0.058975797 0.031019798 -0.010405679
0.053824667 0.058499973 0.027391268 0.074266456 0.17513712 0.3553501 0.14014167 0.008781822
-0.2774177 -0.051889293 0.016062243 -3.1314258e-13 -0.051110227 0.08231317 -0.2776523 1.3685484e-14
0.021960948 -0.032249972 0.018297292 -0.3606219 -0.09275911 0.11009788 0.14459033 -0.15491928
0.03521465 -0.10348983 0.08486294 0.102642335 0.15151097 -0.13812704 -0.6862368 -0.056747127
0.0034506712 -0.16223712 0.0022180022 3.4628848e-13 -0.022926165 -0.015874857 0.10892882 6.3116674e-14
0.08027288 -0.11714365 0.035911392 0.08637163 0.0111460015 -0.12214707 0.08336864 0.026577232
0.15256229 -0.45126998 0.0956488 0.103392325 0.03883913 0.2961408 0.16057739 -0.3304328
0.026732668 -0.48840347 -0.0826021 2.1056701e-13 0.05153049 0.30631995 -0.14753048 -2.5627758e-13
0.1031234 0.049521275 -0.30888742 -0.2126596 -0.38567913 0.3488185 0.16719817 -0.50486445
-0.30551773 -0.067270584 -0.049684025 -0.3080255 -0.27435145 0.04684165 -0.22451775 -0.21944231
0.12065794 -0.11910001 -0.17346942 3.2188146e-13 -0.09519093 -0.04489373 0.1538549 4.9059704e-13
-0.49217978 -0.097741336 -0.16833246 0.12933303 -0.13356037 0.036374602 -0.32586208 -0.0005225696
-0.26363078 -0.016519256 -0.2748098 -0.29361686 -0.02407347 -0.08107358 -0.01762459 -0.12163441
-0.006016605 -0.00808365 -0.066822186 6.321355e-14 -0.22310303 -0.029531678 -0.0011412075 4.8692848e-14
-0.38617548 -0.30529636 -0.024716944 -0.01447702 -0.0074784914 -0.08007793 -0.02582828 0.0011963608
0.057187404 0.3115272 0.024154393 0.054215632 -0.31684574 0.25651646 -0.32950708 -0.033694595
-0.26754406 0.30210572 0.07329935 2.0414261e-13 -0.118280366 -0.68127286 -0.15202498 4.887908e-13
0.10626052 0.033651557 0.1742752 -0.12765229 0.35047564 0.29607615 -0.43969655 0.28879026
0.10292424 0.3636245 -0.001698048 0.042173523 -0.18056479 0.11490036 -0.1873007 0.15163203
-0.39276725 0.3382317 -0.021641105 -3.4367054e-13 0.15517224 -0.33200783 -0.29733968 2.9893286e-13
0.10818195 0.041950136 0.1516555 -0.32469758 0.35625947 0.20396523 -0.12227794 0.26406422
0.055468496 -0.054203153 0.035735082 0.019379988 -0.636411 -0.19244944 0.22190252 -0.0663321
0.06835853 -0.119547375 0.027933676 -2.513619e-13 -0.15294313 -0.15665132 0.0842182 -1.881932e-15
-0.007167626 0.13984445 0.04267884 0.121913746 -0.1348644 -0.108672924 0.012893089 0.05649522
0.055232722 0.10081818 0.07546188 0.11705204 -0.34722826 0.21629198 -0.36456195 0.14397556
0.15533993 -5.2105817e-05 0.010766037 -2.7358026e-13 0.05908746 0.012849971 0.16827656 -1.272823e-13
0.041819647 0.062360674 -0.093139715 0.1753023 -0.10193157 0.18705522 -0.3010297 0.0067546517
0.08099314 0.08996823 -0.08541132 0.0074799634 0.2693339 0.085555635 -0.17638728 -0.0013700025
0.11981287 0.25503823 0.0126915155 9.1441476e-14 0.036305983 0.0057581305 -0.20370373 -4.669154e-13
00000000: 2b47 533e dfe6 0ebb aa70 5e3e 528c 983e
00000010: 6bad 9f3c 83e7 a63d 014b bd3c ee6a e53d
00000020: 736e 8b3c 3e23 a73b 1c5a b33d 619e 8f2a
00000030: 3a75 423e 034a 023d 5ef0 f83b b933 09a9
00000040: 39b8 a73e 3630 583e 512f b73c fe84 103c
00000050: b360 f53b 9b90 713d 3b1d fe3c 957c 2abc
00000060: 4177 5c3d ab9d 6f3d a763 e03c 0319 983d
00000070: 2557 333e 73f0 b53e 4c81 0f3e a2e1 0f3c
00000080: b109 8ebe de89 54bd f794 833c 9a48 b0aa
00000090: f558 51bd cf93 a83d 7128 8ebe 2889 7628
000000a0: 72e7 b33c 8c18 04bd 34e4 953c 6fa3 b8be
000000b0: 7df8 bdbd ff7a e13d 7d0f 143e 29a3 1ebe
000000c0: 3d3d 103d 7af2 d3bd 9fcc ad3d 2536 d23d
000000d0: b125 1b3e 2d71 0dbe 37ad 2fbf ad6f 68bd
000000e0: a824 623b 7d21 26be e75b 113b 6ef1 c22a
000000f0: a7cf bbbc fd0b 82bc 1316 df3d 4920 8e29
00000100: 1c66 a43d 03e9 efbd d317 133d 9ce3 b03d
00000110: b89d 363c 3e28 fabd 2dbd aa3d 7fb8 d93c
00000120: 4a39 1c3e dc0c e7be 85e3 c33d 5bbf d33d
00000130: c815 1f3d c49f 973e 666e 243e 7d2e a9be
00000140: 78fe da3c 0510 fabe 4a2b a9bd cf13 6d2a
00000150: a311 533d f8d5 9c3e 3b12 17be 7e45 90aa
00000160: 5c32 d33d d2d6 4a3d 7e26 9ebe 70c3 59be
00000170: bc77 c5be 5798 b23e ff35 2b3e cc3e 01bf
00000180: d26c 9cbe 29c5 89bd 7a81 4bbd 85b5 9dbe
00000190: cb77 8cbe 08dd 3f3d fbe7 65be 7cb5 60be
000001a0: 831b f73d b5ea f3bd f8a1 31be 0234 b52a
000001b0: 76f3 c2bd 7de2 37bd 248c 1d3e 3e17 0a2b
000001c0: fdfe fbbe 9c2c c8bd 585f 2cbe e16f 043e
000001d0: 0dc4 08be 89fd 143d 65d7 a6be 0dfd 08ba
000001e0: 9dfa 86be 6453 87bc dfb3 8cbe f354 96be
000001f0: ba35 c5bc e809 a6bd 7261 90bc 761b f9bd
00000200: f126 c5bb 4971 04bc 12da 88bd 2158 8e29
00000210: 1f75 64be 6bec f1bc 9294 95ba 084b 5b29
00000220: cbb8 c5be ce4f 9cbe 307b cabc 0631 6dbc
00000230: 220e f5bb e6ff a3bd d495 d3bc 35cf 9c3a
00000240: 573d 6a3d 7e80 9f3e 6fdf c53c 3611 5e3d
00000250: 9b39 a2be 2056 833e 27b5 a8be 5803 0abd
00000260: 89fb 88be 9aad 9a3e f81d 963d 1ad8 652a
00000270: fa3c f2bd e667 2ebf 70ac 1bbe 1795 092b
00000280: 1e9f d93d 37d6 093d 3375 323e 48b7 02be
00000290: 8b71 b33e 4b97 973e e81f e1be 51dc 933e
000002a0: f2c9 d23d fe2c ba3e 0991 deba 25be 2c3d
000002b0: fae5 38be e150 eb3d c1cb 3fbe 6d45 1b3e
000002c0: ca18 c9be b52c ad3e b048 b1bc 2578 c1aa
000002d0: 79e5 1e3e eefc a9be e83c 98be c448 a82a
000002e0: 808e dd3d e8d3 2b3d 944b 1b3e c33e a6be
000002f0: a467 b63e 43dc 503e db6c fabd 6d33 873e
00000300: ef32 633d 2004 5ebd f35e 123d c8c2 9e3c
00000310: d5eb 22bf 7711 45be 6a3a 633e 20d9 87bd
00000320: 8fff 8b3d 41d5 f4bd 2ad5 e43c 1181 8daa
00000330: 209d 1cbe 3469 20be 977a ac3d 859b 07a7
00000340: 68de eabb 6233 0f3e 02d0 2e3d eaad f93d
00000350: e519 0abe e98f debd 893d 533c 8867 673d
00000360: b53b 623d c379 ce3d c28b 9a3d fbb8 ef3d
00000370: e7c7 b1be a57b 5d3e dda7 babe 546e 133e
00000380: 6e11 1f3e 328c 5ab8 0864 303c 1203 9aaa
00000390: b105 723d af88 523c b150 2c3e a04e 0faa
000003a0: 144b 2b3d e86d 7f3d 09c0 bebd 7282 333e
000003b0: 80c1 d0bd 678b 3f3e 9120 9abe 2056 dd3b
000003c0: bbdf a53d 4341 b83d 21ec aebd 7b1a f53b
000003d0: 22e6 893e cb37 af3d de9e 34be a891 b3ba
000003e0: 7360 f53d 5f94 823e 13f0 4f3c 6ce8 cd29
000003f0: 95b5 143d b3ae bc3b b697 50be cd6c 03ab

onnx::Conv_808 f4 [24]
-0.56451935 -0.17837954 0.22878782 -0.34963614 0.7478847 1.0592605 -0.17448366 -0.19276291
0.33786166 -0.28884777 -0.34265262 0.2010825 0.16805935 -0.31775844 -1.2515389 1.5019361
-0.19631767 -0.3368985 -0.38799757 0.006629981 -0.1761538 1.992902 0.36148685 -0.350632
00000000: 5784 10bf 20a9 36be 5b47 6a3e 8203 b3be
00000010: 5f75 3f3f d995 873f d8ab 32be a463 45be
00000020: 34fc ac3e dbe3 93be 2a70 afbe 92e8 4d3e
00000030: c017 2c3e 3cb1 a2be 6d32 a0bf 713f c03f
00000040: 8007 49be f67d acbe 9ea7 c6be 5040 d93b
00000050: a961 34be 6a17 ff3f ce14 b93e 0a86 b3be

onnx::Conv_810 f4 [24, 1, 3, 3]
-0.13383466 1.4728777 -0.2983339 -0.9614387 0.5632378 -4.332372 -0.21184961 1.9579753
1.0941807 -0.039741274 -0.48837036 -0.25118622 -0.19729947 -0.8079632 -0.64410335 0.004792088
-0.41431087 -0.30579188 0.15433088 0.1474239 0.23283093 0.24089447 0.6851376 0.8825007
0.010165771 0.7775091 0.9925035 0.29571077 0.58082676 0.50278 0.4415635 1.1227669
0.951529 0.35334554 0.9146454 0.7868531 -0.4788368 1.4432951 -0.98909307 -0.78644735
2.564226 -1.7910752 -0.6342961 1.8834362 -1.650663 0.5119305 -1.0763022 1.1672293
0.8462603 -3.478405 -0.47259703 0.5238806 -0.7097925 2.278703 -0.0040855273 -0.20281656
-0.20711161 -0.08600312 -0.5373362 -0.77405244 -0.16462326 -0.41373864 -0.667275 -0.11898771
-0.31784937 -0.1587197 -0.16578713 -0.58781505 -0.4727415 -0.08063232 -0.36776337 -0.42949092
-0.030203678 -0.110671654 -0.29908338 -0.30174905 -0.7580986 -0.874057 -0.3234942 -0.8856297
-0.69371784 0.07328667 0.4193956 0.22250925 0.1927543 0.7262436 0.534812 0.023239702
0.40963945 0.27779517 -0.010523481 -0.3346635 -0.28291816 -0.14289528 -0.7025203 -0.4816321
-0.099501476 -0.312783 -0.30189118 0.20296024 0.5118224 0.648191 0.25442326 1.1670798
1.558338 0.31346315 1.0809824 1.3098017 0.16774595 1.145989 -0.35014287 0.48512873
1.2997366 -0.7198336 0.062048092 0.16948241 -1.0020406 -0.03050797 -0.25703856 -0.5239546
-0.26570544 -1.0750624 -1.320488 -0.136597 -0.9984147 -1.3185331 -0.03376808 -0.32831213
-0.21678875 -0.07464724 -0.6039254 -0.7421633 -0.060956724 -0.79407644 -0.8232223 0.7085311
0.74494565 0.60167414 -0.48355985 -2.8028135 -3.752062 0.59287703 1.8717953 2.7593033
0.11011946 0.21004237 0.18833606 0.1837401 0.5165789 0.49763077 0.16261469 0.4619586
0.52635646 -0.18753481 -0.6226746 -0.41943276 -0.47234586 -1.0530577 -0.95183986 -0.34441802
-0.85650533 -0.9207097 0.11270941 -0.22692926 -0.016405238 -0.0646902 -0.76916414 -1.2392235
0.3872576 -1.6847101 -2.6773214 -0.23626302 -0.27972117 -0.19788688 -0.27090457 -1.3812617
-1.3233812 -0.23335747 -1.251281 -1.5026699 -0.022155168 -0.32429016 -0.3014019 -0.079815514
-0.59342045 -0.6825735 -0.0030268016 -0.4430381 -0.55556387 -0.14134891 -0.22120966 -0.17289756
-0.1448496 -0.48678574 -0.6306608 -0.14836392 -0.47976476 -0.65912133 -0.4485208 -3.0764775
-2.1307955 -0.17537364 -0.53280294 -0.07897536 0.7341507 3.5911183 2.304072 -0.16558401
0.12967077 0.11622458 0.17803653 1.4487882 1.6834455 0.41962612 1.8897479 1.9885187
00000000: f40b 09be 4287 bc3f 39bf 98be d920 76bf
00000010: 5a30 103f cba2 8ac0 1bef 58be ef9e fa3f
00000020: 1d0e 8c3f bfc7 22bd ae0b fabe 7b9b 80be
00000030: df08 4abe add6 4ebf f5e3 24bf f306 9d3b
00000040: 8e20 d4be c190 9cbe ea08 1e3e 4af6 163e
00000050: 3b6b 6e3e 0aad 763e 2e65 2f3f 91eb 613f
00000060: 558e 263c d60a 473f b614 7e3f 6767 973e
00000070: 10b1 143f 31b6 003f 9c14 e23e d3b6 8f3f
00000080: 6897 733f b5e9 b43e 3326 6a3f 346f 493f
00000090: 192a f5be e5bd b83f 3435 7dbf 9d54 49bf
000000a0: 471c 2440 f441 e5bf 3b61 22bf 7014 f13f
000000b0: ed48 d3bf e10d 033f 45c4 89bf c567 953f
000000c0: 84a4 583f 309e 5ec0 3df8 f1be 0a1d 063f
000000d0: f6b4 35bf 45d6 1140 e3df 85bb 25af 4fbe
000000e0: 1115 54be 6722 b0bd dd8e 09bf 4d28 46bf
000000f0: 0093 28be 8dd5 d3be 89d2 2abf d4af f3bd
00000100: 27bd a2be 6b87 22be 1ac4 29be 0c7b 16bf
00000110: 2d0b f2be 8f22 a5bd 7b4b bcbe 3ce6 dbbe
00000120: b46d f7bc d2a7 e2bd 7521 99be da7e 9abe
00000130: c012 42bf 33c2 5fbf 08a1 a5be a1b8 62bf
00000140: 7e97 31bf 5217 963d 05bb d63e 77d9 633e
00000150: 6261 453e 1aeb 393f 70e9 083f 3061 be3c
00000160: 43bc d13e 2b3b 8e3e ae6a 2cbc 0459 abbe
00000170: a6da 90be 2453 12be 5fd8 33bf 7c98 f6be
00000180: 6ec7 cbbd 1825 a0be 7b91 9abe cfd4 4f3e
00000190: cb06 033f d8ef 253f c443 823e df62 953f
000001a0: 9f77 c73f 3e7e a03e a25d 8a3f 95a7 a73f
000001b0: 98c5 2b3e c4af 923f ed45 b3be cb62 f83e
000001c0: c55d a63f 0447 38bf 2426 7e3d cc8c 2d3e
000001d0: de42 80bf daeb f9bc 8f9a 83be e321 06bf
000001e0: 8b0a 88be a59b 89bf c005 a9bf 15e0 0bbe
000001f0: 1b98 7fbf b1c5 a8bf 6650 0abd 8718 a8be
00000200: dffd 5dbe a7e0 98bd db9a 1abf 6afe 3dbf
00000210: c2ad 79bd 9848 4bbf b2be 52bf 4b62 353f
00000220: c2b4 3e3f 5107 1a3f 2895 f7be 4c61 33c0
00000230: c921 70c0 cac6 173f fd96 ef3f 6d98 3040
00000240: 5086 e13d 5915 573e 2bdb 403e 5d26 3c3e
00000250: 843e 043f 76c9 fe3e 7784 263e d685 ec3e
00000260: 4cbf 063f 2009 40be 9a67 1fbf e4bf d6be
00000270: 51d7 f1be 98ca 86bf c7ab 73bf 8f57 b0be
00000280: ef43 5bbf a2b3 6bbf 31d4 e63d 2560 68be
00000290: 4764 86bc 4c7c 84bd f1e7 44bf e09e 9ebf
000002a0: a146 c63e 95a4 d7bf 3c59 2bc0 efee 71be
000002b0: 9d37 8fbe dca2 4abe 01b4 8abe 2fcd b0bf
000002c0: 8e64 a9bf 43f5 6ebe fa29 a0bf 7d57 c0bf
000002d0: c17e b5bc 5c09 a6be 5a51 9abe 5176 a3bd
000002e0: 67ea 17bf 23bd 2ebf 4e5d 46bb e4d5 e2be
000002f0: 6f39 0ebf c5bd 10be c984 62be 0f0c 31be
00000300: 7453 14be fb3b f9be fc72 21bf b6ec 17be
00000310: baa3 f5be 2dbc 28bf 85a4 e5be 02e5 44c0
00000320: f45e 08c0 2695 33be c665 08bf d5bd a1bd
00000330: 4df1 3b3f e2d4 6540 ea75 1340 db8e 29be
00000340: 6ac8 043e 2707 ee3d 354f 363e e471 b93f
00000350: 247b d73f 3cd9 d63e 42e3 f13f c887 fe3f

onnx::Conv_811 f4 [24]
0.072655424 0.33841646 -0.23330557 -0.13816902 0.034137126 0.13670905 0.24896646 0.3625403
0.22969463 -0.3293069 0.122167036 -0.12979613 -0.18901363 0.14756484 0.18306465 -0.016665513
-0.3349457 0.14845893 0.42242238 0.17578448 0.27340138 0.34549347 -0.061047908 -0.1627805
00000000: 5ecc 943d ec44 ad3e a8e7 6ebe 2e7c 0dbe
00000010: 5fd3 0b3d 75fd 0b3e 10f1 7e3e e29e b93e
00000020: 1235 6b3e ea9a a8be b632 fa3d 47e9 04be
00000030: ca8c 41be 3d1b 173e 4d75 3b3e 1d86 88bc
00000040: 017e abbe 9e05 183e bf47 d83e d900 343e
00000050: 44fb 8b3e 85e4 b03e 5f0d 7abd eeaf 26be
