Raspberry_Pi_scripts/Real-time_detection/V3/model/yolo-fastestv2-opt_camera.onnx (onnx, 971919 bytes, 152 tensors)

output_reg_layers.weight f4 [12, 72, 1, 1]
0.046006747 0.08709494 -0.032962665 -0.044242904 0.01880123 0.06346 0.13006015 -0.06030556
-0.00066842564 0.109441064 0.06767142 -0.13055775 0.03889564 -0.10407593 0.17561078 -0.0256295
0.059682023 0.11363442 -0.20735152 0.020392323 -0.07312043 -0.0466103 -0.022818074 0.09691781
0.02535351 0.04022608 -0.15821177 0.0686884 -0.011844374 -0.014445342 -0.058040164 -0.2618868
-0.11724254 0.04272667 -0.03790803 -0.09297378 -0.06321006 0.12014685 -0.07530172 -0.032667406
0.012703115 -0.026769085 0.14523417 -0.017106073 -0.027079329 -0.07875901 -0.028086668 -0.14347067
0.06265543 0.043441627 0.062196106 0.08558292 -0.1507736 0.08657837 0.13569826 -0.007885745
0.10454936 -0.11048259 -0.16237627 -0.048974097 -0.104404986 0.11310355 -0.11130833 0.03464811
0.07458188 0.0057541123 -0.15370858 -0.1524034 0.067840695 -0.10620281 0.10236812 -0.1048117
0.121593624 -0.08361125 -0.20868465 -0.17376022 0.1978621 -0.030400766 -0.047850627 -0.12574445
-0.06536973 -0.064005375 0.12280968 0.0846892 -0.08025896 0.17315209 0.002061168 -0.039708696
-0.06555469 -0.030092131 -0.16883202 -0.1429426 -0.009344197 0.050757617 -0.019037304 0.15595128
0.106366105 -0.011806535 0.06313525 0.0049725664 0.056270637 -0.13623393 0.015444867 0.032126445
0.16503128 0.08665743 0.0083246855 -0.04078994 -0.03529461 0.19777155 -0.051206354 -0.17604066
-0.10838479 -0.02545705 0.06924694 -0.18528257 0.04703599 -0.20069005 0.07879942 0.059669133
0.0977147 -0.011747719 0.11953433 -0.06287231 0.0646104 0.028741421 -0.12350512 -0.09730685
-0.052877266 -0.1370458 0.12024913 0.06827877 0.041326888 0.020352032 0.09526657 0.100241564
-0.17108645 -0.03433474 -0.08434237 0.10485658 0.051415414 0.0044973865 0.046091024 0.030963896
-0.03110926 -0.03973255 -0.08905373 -0.069335766 0.023815373 -0.09275693 -0.0037204293 0.1346267
0.0052432106 0.056209408 -0.12825646 0.04600979 0.06284945 0.013456958 0.032430027 -0.06711031
0.0019770174 -0.16528964 -0.067064546 0.038945302 -0.040916286 0.0064392956 -0.042660113 0.0016951928
0.047171533 -0.0023036662 -0.054776907 0.021104647 -0.07388439 0.048241284 -0.047224753 0.061871774
-0.03352544 -0.12235331 0.019460876 0.002902359 0.05857533 0.077219516 0.016267406 -0.034309708
0.035729986 -0.04889897 0.0033791848 0.16223706 0.05876262 0.038659777 -0.054647587 -0.035931844
-0.105355516 -0.06352276 -0.0012356126 -0.027958775 -0.07793129 0.04781852 -0.14577453 -0.008425681
0.017900283 -0.0050037885 0.034287572 0.016363503 -0.020829773 -0.09467523 0.07042814 -0.042633492
0.031733498 0.073820785 -0.120004475 -0.03844241 0.06699677 0.0041714436 -0.0014839944 0.056121007
-0.09749787 0.00030335298 0.048184797 0.0026851106 0.020336252 -0.044284813 -0.05316257 0.111153215
0.010029623 -0.08684126 -0.07194027 0.047276642 -0.03164613 -0.06818555 0.035278827 -0.013461226
0.0125039965 -0.09740933 0.020970764 0.04967889 0.01763926 0.047135368 0.012287276 -0.00089009677
0.049541898 -0.052486785 -0.099775344 -0.086363986 -0.0970512 -0.06983276 0.06916892 -0.04640738
0.00047752907 -0.12799019 0.02237574 -0.0023039829 0.07423806 0.15216988 0.09738169 -0.016297884
00000000: 9271 3c3d d55e b23d dc03 07bd 0c38 35bd
00000010: 0905 9a3c 51f7 813d 7d2e 053e f602 77bd
00000020: 4939 2fba a322 e03d 5097 8a3d eeb0 05be
00000030: 0951 1f3d c325 d5bd 50d3 333e f5f4 d1bc
00000040: 2375 743d 2ab9 e83d f553 54be cd0d a73c
00000050: 2ac0 95bd 71ea 3ebd f8ec babc d87c c63d
00000060: 2ab2 cf3c 1ac4 243d 4402 22be 81ac 8c3d
00000070: e80e 42bc 28ac 6cbc 86bb 6dbd 0716 86be
00000080: db1c f0bd 2902 2f3d 7345 1bbd 0a69 bebd
00000090: 4774 81bd 8d0f f63d ca37 9abd 42ce 05bd
000000a0: ba20 503c d74a dbbc 44b8 143e 0922 8cbc
000000b0: 78d5 ddbc 674c a1bd 0316 e6bc fae9 12be
000000c0: 7d51 803d d9ef 313d 58c1 7e3d 1946 af3d
000000d0: 6564 1abe 0050 b13d 7cf4 0a3e 3633 01bc
000000e0: fa1d d63d b244 e2bd f745 26be 1099 48bd
000000f0: 48d2 d5bd d6a2 e73d 9ff5 e3bd 2deb 0d3d
00000100: 62be 983d fe8c bc3b c865 1dbe a30f 1cbe
00000110: 10f0 8a3d dc80 d9bd 60a6 d13d 84a7 d6bd
00000120: 1406 f93d 603c abbd 6eb1 55be 33ee 31be
00000130: 5d9c 4a3e 070b f9bc 05ff 43bd 27c3 00be
00000140: 91e0 85bd 4015 83bd a483 fb3d 8871 ad3d
00000150: cf5e a4bd c84e 313e a914 073b 96a5 22bd
00000160: 8a41 86bd c683 f6bc 4de2 2cbe 8c5f 12be
00000170: 6718 19bc 38e7 4f3d 1ff4 9bbc b1b1 1f3e
00000180: 79d6 d93d 3270 41bc 0e4d 813d e9f0 a23b
00000190: 0a7c 663d e880 0bbe 780c 7d3c 0597 033d
000001a0: f6fd 283e 7379 b13d 4364 083c 5a13 27bd
000001b0: 1591 10bd a084 4a3e c1bd 51bd 0144 34be
000001c0: d8f8 ddbd 4e8b d0bc 57d1 8d3d b7ba 3dbe
000001d0: cfa8 403d b181 4dbe 9761 a13d 9f67 743d
000001e0: a51e c83d 8179 40bc 6ace f43d 33c3 80bd
000001f0: 7552 843d 2173 eb3c 41f0 fcbd d048 c7bd
00000200: d595 58bd bc55 0cbe 2d45 f63d bdd5 8b3d
00000210: 6246 293d 4eb9 a63c 1f1b c33d 734b cd3d
00000220: 4931 2fbe 96a2 0cbd b1bb acbd 0cbf d63d
00000230: f898 523d d05e 933b f1c9 3c3d ffa7 fd3c
00000240: d9d8 febc 99be 22bd cd61 b6bd e9ff 8dbd
00000250: 7518 c33c 58f7 bdbd 72d2 73bb 95db 093e
00000260: 3dcf ab3b d63b 663d a955 03be c374 3c3d
00000270: 36b7 803d 937a 5c3c 59d5 043d 2171 89bd
00000280: d990 013b b041 29be 2359 89bd 1c85 1f3d
00000290: d697 27bd ba00 d33b 5fbc 2ebd 3b31 de3a
000002a0: f036 413d 1bf9 16bb c05d 60bd a7e3 ac3c
000002b0: b350 97bd a798 453d be6e 41bd 426d 7d3d
000002c0: f951 09bd 5f94 fabd 6a6c 9f3c 8135 3e3b
000002d0: afec 6f3d 4425 9e3d 3943 853c 5688 0cbd
000002e0: 9b59 123d 494a 48bd 5075 5d3b 7921 263e
000002f0: 13b1 703d b759 1e3d 26d6 5fbd 452d 13bd
00000300: a2c4 d7bd 3918 82bd 47f4 a1ba cd09 e5bc
00000310: 719a 9fbd 5add 433d eb45 15be de0b 0abc
00000320: 9da3 923c d2f6 a3bb 2071 0c3d c10c 863c
00000330: 33a3 aabc 16e5 c1bd a13c 903d 75a0 2ebd
00000340: fcfa 013d 5a2f 973d e8c4 f5bd ca75 1dbd
00000350: 9a35 893d 9bb0 883b 9782 c2ba 24df 653d
00000360: f7ac c7bd 590b 9f39 6c5d 453d aef8 2f3b
00000370: 3698 a63c fe63 35bd ffc0 59bd 4ca4 e33d
00000380: 4a53 243c d5d9 b1bd 6c55 93bd 27a5 413d
00000390: 5f9f 01bd dea4 8bbd 8880 103d 798c 5cbc
000003a0: 90dd 4c3c 8b7e c7bd e1ca ab3c 177c 4b3d
000003b0: 3680 903c 0411 413d 9250 493c 6255 69ba
000003c0: 72ec 4a3d 62fc 56bd 0457 ccbd 9adf b0bd
000003d0: c8c2 c6bd 7a04 8fbd 6fa8 8d3d aa15 3ebd
000003e0: de5c fa39 dc0f 03be 544d b73c 6bfe 16bb
000003f0: 200a 983d 6cd2 1b3e 0d70 c73d 2483 85bc

output_reg_layers.bias f4 [12]
0.023403864 0.007996508 0.08682039 0.2179466 0.0016064245 -0.004885374 -0.16351978 -0.34305406
0.02073406 -0.01054844 -0.32020572 -0.07687995
00000000: 76b9 bf3c c903 033c e3ce b13d 652d 5f3e
00000010: a98e d23a 7d15 a0bb bb71 27be c8a4 afbe
00000020: 7ada a93c 5dd3 2cbc 01f2 a3be 3c73 9dbd

output_obj_layers.weight f4 [3, 72, 1, 1]
-0.08055887 -0.42588025 -0.14650914 -0.33513686 -0.4082164 -0.3001105 0.3529569 0.023845436
-0.07110247 -0.21588282 -0.38750857 -0.4704594 -0.30408177 -0.5644299 0.4132088 0.17303431
-0.18173347 0.082230106 0.581638 -0.45806542 0.602772 -0.6181473 0.14153773 0.040828794
0.29365432 0.3529743 0.31631196 0.4623269 0.29462343 -0.49117556 0.12608996 -0.3677924
0.43043298 0.08784273 -0.18243393 -0.16412486 0.23800793 -0.004942398 0.28289315 0.26483086
-0.3092054 0.26138157 -0.10061308 -0.54977626 -0.023030082 -0.41717836 0.734069 0.3413848
-0.44021568 0.39635995 0.3531518 -0.086372614 -0.08953827 -0.19597636 0.34458166 0.14582372
-0.21475598 0.40921503 -0.003918595 0.45676383 -0.15511061 0.035885666 0.16750379 0.31397066
-0.114787295 0.029933317 0.979831 0.19192319 -0.23107809 0.612703 -0.27885655 0.2235777
-0.4524637 -0.37452573 -0.4314827 -0.21617912 -0.4959329 -0.38941383 0.15854631 0.039773542
-0.068682 -0.047116816 -0.12516977 -0.627231 -0.022456622 -0.55014014 0.3474568 0.23400581
0.076307744 -0.0770093 0.5216484 -0.3776136 0.4625765 -0.76875114 0.33983895 0.1125634
0.3894632 0.48602083 0.5653813 0.37094152 0.6196424 -0.5591015 -0.17216964 -0.4997913
0.21052898 0.21502596 -0.14398374 0.10280003 0.091646954 0.17548558 0.29039973 0.33359843
-0.23495655 0.40143093 -0.18108481 -0.57038426 -0.050651304 -0.2715047 0.6537598 0.32811117
-0.6251273 -0.05599374 0.41171727 0.07335023 0.02464924 -0.17073989 0.11582409 0.23069665
-0.25525412 0.2262652 0.048051253 0.48049542 -0.05156125 0.020506328 -0.13986212 0.31434086
-0.043274824 -0.13308933 0.5349791 0.2938989 0.027984744 0.6312812 -0.059730396 0.11923232
-0.19187963 -0.12023028 -0.24552266 -0.23451914 -0.64809656 -0.4758121 0.2215852 -0.054241754
-0.026532872 -0.11463077 -0.18808249 -0.59903395 -0.14853601 -0.39905497 0.6658096 0.44315377
-0.25449654 -0.4679112 0.5160694 -0.49963954 0.52424693 -0.5322824 0.3529998 0.25453335
0.31477162 0.43179822 0.44714585 0.23897825 0.6411246 -0.30737308 0.13075428 -0.4122654
0.1469201 0.07636618 -0.11784232 0.110210806 -0.08008408 0.3903957 0.22293788 0.55404305
-0.022754146 0.3376181 0.083259486 -0.42024758 -0.23372465 -0.3987502 0.5192187 0.36445776
-0.4797626 0.12860654 0.31330708 -0.07126857 0.10951581 -0.08924608 0.00022215527 0.2881331
-0.37674722 0.47429547 0.0134686325 0.44232637 -0.10797532 0.24295838 0.13104726 0.3036696
-0.18016222 -0.4615357 0.7720132 0.093263164 -0.14038023 0.4354022 -0.0017733634 -0.06194396
00000000: 0dfc a4bd fa0c dabe 7e06 16be 0f97 abbe
00000010: bd01 d1be 15a8 99be c4b6 b43e 8157 c33c
00000020: 2c9e 91bd 6310 5dbe 8667 c6be 0ee0 f0be
00000030: 9bb0 9bbe 7a7e 10bf 1b90 d33e e82f 313e
00000040: 5718 3abe 4268 a83d 3ae6 143f 8d87 eabe
00000050: 444f 1a3f e73e 1ebf 44ef 103e 183c 273d
00000060: dc59 963e 0cb9 b43e a4f3 a13e 1db6 ec3e
00000070: e2d8 963e 5d7b fbbe ba1d 013e 494f bcbe
00000080: b661 dc3e e4e6 b33d f6cf 3abe 5910 28be
00000090: 5ab8 733e d7f3 a1bb 5fd7 903e e997 873e
000000a0: 2c50 9ebe ced3 853e 3b0e cebd 23be 0cbf
000000b0: 95a9 bcbc 6798 d5be f2eb 3b3f fdc9 ae3e
000000c0: f363 e1be b1ef ca3e 50d0 b43e 20e4 b0bd
000000d0: d75f b7bd 07ae 48be 026d b03e d052 153e
000000e0: fee8 5bbe a284 d13e 8f67 80bb f3dc e93e
000000f0: 51d5 1ebe d9fc 123d 1d86 2b3e c3c0 a03e
00000100: 9a15 ebbd b736 f53c 34d6 7a3f 8387 443e
00000110: bc9f 6cbe 1bda 1c3f 49c6 8ebe 8df1 643e
00000120: 52a9 e7be d6c1 bfbe 4deb dcbe 0f5e 5dbe
00000130: ebea fdbe 4061 c7be f759 223e 95e9 223d
00000140: 26a9 8cbd 90fd 40bd 812c 00be 3692 20bf
00000150: f3f6 b7bc fcd5 0cbf dce5 b13e 389f 6f3e
00000160: 3c47 9c3d 0db7 9dbd c08a 053f 9256 c1be
00000170: d4d6 ec3e e0cc 44bf 5fff ad3e a487 e63d
00000180: b867 c73e b9d7 f83e d4bc 103f 0cec bd3e
00000190: e2a0 1e3f 4721 0fbf 3d4d 30be a5e4 ffbe
000001a0: e994 573e c42f 5c3e 7970 13be d288 d23d
000001b0: 66b1 bb3d 7eb2 333e 46af 943e 6acd aa3e
000001c0: 7398 70be 5b88 cd3e 4c6e 39be b404 12bf
000001d0: be77 4fbd aa02 8bbe cd5c 273f 30fe a73e
000001e0: 5808 20bf b159 65bd 9bcc d23e a538 963d
000001f0: 34ed c93c 70d6 2ebe 2e35 ed3d be3b 6c3e
00000200: abb0 82be 11b2 673e 64d1 443d 7f03 f63e
00000210: e431 53bd e3fc a73c 0438 0fbe 49f1 a03e
00000220: f140 31bd 9248 08be 64f4 083f eb79 963e
00000230: 4340 e53c a59b 213f dca7 74bd 1330 f43d
00000240: 187c 44be 4b3b f6bd 4b6a 7bbe c925 70be
00000250: a8e9 25bf a59d f3be 3be7 623e 9a2c 5ebd
00000260: 775b d9bc 8ac3 eabd b298 40be 4a5a 19bf
00000270: d319 18be ef50 ccbe 7f72 2a3f 0de5 e23e
00000280: 5f4d 82be 0f92 efbe 201d 043f c1d0 ffbe
00000290: 0c35 063f a943 08bf 64bc b43e 3252 823e
000002a0: bf29 a13e a814 dd3e 4df0 e43e b7b6 743e
000002b0: be20 243f 0160 9dbe 73e4 053e 7314 d3be
000002c0: 3972 163e df65 9c3d 5057 f1bd 34b6 e13d
000002d0: 1f03 a4bd f2e1 c73e d449 643e c4d5 0d3f
000002e0: e766 babc 48dc ac3e f383 aa3d b12a d7be
000002f0: 8455 6fbe fc28 ccbe 84eb 043f 359a ba3e
00000300: 72a3 f5be 6fb1 033e c969 a03e 42f5 91bd
00000310: d349 e03d a6c6 b6bd 5af2 6839 2f86 933e
00000320: 03e5 c0be dbd6 f23e 8aab 5c3c 9a78 e23e
00000330: 2a22 ddbd 15ca 783e 4131 063e 957a 9b3e
00000340: 727c 38be 684e ecbe a8a2 453f c200 bf3d
00000350: d6bf 0fbe 0aed de3e 3470 e8ba f3b8 7dbd

output_obj_layers.bias f4 [3]
-2.7684543 -2.869296 -2.9198904
00000000: 5b2e 31c0 8ca2 37c0 7cdf 3ac0

output_cls_layers.weight f4 [1, 72, 1, 1]
0.027895637 0.008140184 -0.031779036 0.04467585 0.018419541 0.07464508 0.03622005 0.040788673
-0.06101497 -0.05786477 0.06693681 -0.055955574 0.06451448 -0.10530914 -0.027718142 -0.10841181
-0.037524424 0.040024854 0.100385524 0.117610715 -0.08909314 0.01088389 0.039324917 0.0015114024
-0.06527673 -0.08522135 0.022100843 0.021692462 -0.03526993 -0.10138396 0.08937047 -0.018478468
0.082336135 0.07030723 0.041206412 -0.09073967 -0.06305766 -0.014163502 -0.033729352 -0.065428376
-0.032412708 0.03537246 0.018334411 -0.015451692 -0.06123812 0.11004161 0.08140775 -0.07687163
-0.0019960627 0.1065883 0.024167709 -0.02267395 -0.04204511 0.04920944 0.08817644 -0.07665302
-0.06136643 0.08229581 0.08347338 -0.07974851 -0.016197242 0.010520421 -0.07465047 -0.029483363
0.114223026 0.09301851 -0.085566625 0.09632067 -0.027764969 -0.05342994 -0.008144639 -0.0008209646
00000000: 6485 e43c 685e 053c bc2a 02bd 06fe 363d
00000010: 94e4 963c 85df 983d 7a5b 143d 0612 273d
00000020: d5ea 79bd 9c03 6dbd 2b16 893d ac31 65bd
00000030: 2b20 843d 52ac d7bd 2811 e3bc 0307 debd
00000040: 36b3 19bd 1af1 233d ed96 cd3d e3dd f03d
00000050: 7776 b6bd 5852 323c 2a13 213d 401a c63a
00000060: ceaf 85bd 8888 aebd d40c b53c 64b4 b13c
00000070: 3477 10bd 65a2 cfbd dd07 b73d 2860 97bc
00000080: d99f a83d 3dfd 8f3d 0ec8 283d b8d5 b9bd
00000090: 6024 81bd 080e 68bc ca27 0abd 50ff 85bd
000000a0: 30c3 04bd b6e2 103d 0c32 963c 1829 7dbc
000000b0: d3d4 7abd 7f5d e13d 1bb9 a63d e06e 9dbd
000000c0: 60d0 02bb f74a da3d 5cfb c53c b8be b9bc
000000d0: 7e37 2cbd d68f 493d d995 b43d 42fc 9cbd
000000e0: 5e5b 7bbd b58a a83d 17f4 aa3d 3053 a3bd
000000f0: 14b0 84bc d85d 2c3c 58e2 98bd 1887 f1bc
00000100: c3ed e93d 7d80 be3d 8e3d afbd c543 c53d
00000110: 5c73 e3bc 5ad9 5abd 1871 05bc 0036 57ba

onnx::Conv_798 f4 [24, 3, 3, 3]
-0.06354011 -0.057766322 -0.070374206 -0.06393122 -0.049349777 -0.04061428 -0.07646866 -0.081176884
-0.054931387 -0.08991236 -0.07144756 -0.08083446 -0.13647012 -0.1030469 -0.07247959 -0.16407277
-0.12340055 -0.08718191 0.16075069 0.136509 0.13280475 0.16968891 0.16184114 0.101714
0.19448829 0.19985828 0.12607297 0.52091193 -0.17004238 -0.16317008 -0.40594897 -0.64956504
0.07657915 0.05038044 0.12142168 0.56309295 0.85857 -0.1614758 -0.29783815 -0.3772051
-1.0161812 -0.16393532 -0.21675622 0.039839666 0.95710886 0.8206722 0.1381197 -0.14251825
-0.08895798 -0.7450013 -0.3978755 -0.27025262 -0.15774697 0.50599366 0.25283626 0.17855431
0.20369275 0.11445133 -0.004023918 0.14514378 0.24641979 0.15891509 0.21402515 -0.3180801
-0.36693448 -0.2646258 -0.4028625 -0.45911404 -0.24449265 -0.2756889 -0.31552318 -0.14669995
0.0574978 0.22387625 -0.0073779738 0.25446472 0.44740498 0.12997793 0.04220618 0.13462025
-0.061191663 -0.22803512 -0.29474485 -0.12214864 -0.3151232 -0.36956194 -0.19686253 -0.14192727
-0.18449917 -0.06365091 0.29995444 0.28452623 0.20204677 0.2559758 0.26762307 0.18146902
0.21874505 0.19350515 0.1329386 -0.052579843 -0.0010023047 -0.062715374 -0.01789292 0.06691724
0.0044064648 -0.08616355 -0.0050699296 -0.07305124 0.45893642 -0.29963106 -0.24746121 0.45072955
-0.047465686 -0.28580242 0.37815443 -0.14236028 -0.31615427 0.82621336 -0.45110825 -0.56274414
0.8070381 -0.09718786 -0.5381406 0.6722905 -0.12447475 -0.47399122 0.7157909 -0.44655612
-0.48913205 0.6537561 -0.17497621 -0.4939712 0.7372678 -0.09017343 -0.4731499 0.014175629
0.06018339 -0.031839214 0.06488523 0.10017626 0.0648041 0.05555342 0.12616466 0.055461124
0.06457864 0.08538023 0.029312674 0.0864105 0.08767604 0.06993587 0.03718931 0.085590035
0.02518682 0.054638468 0.08822291 0.06683566 0.050048668 0.071511626 0.07501562 -0.02897004
0.06849853 0.025502516 -0.37204587 -0.013144001 0.48173308 -0.4696203 -0.056267586 0.5881469
-0.46390954 -0.28042704 0.58336055 -0.54719526 -0.07433591 0.74736255 -0.596834 -0.1582859
0.8165397 -0.491855 -0.41632208 0.7535669 -0.30114746 -0.12737308 0.47202983 -0.28285068
-0.21258129 0.46419823 -0.23533179 -0.418374 0.5062091 0.033441182 0.3022549 0.34472612
-0.53864413 0.033054683 0.16802365 -0.33091524 0.05535093 0.35566443 0.0710005 -0.0320893
0.06399109 0.17561671 -0.13443775 0.01760216 0.56357485 -0.06438108 0.0689729 0.18971126
-0.025608646 -0.13825807 0.24069366 -0.04331088 -0.03326919 0.3593076 -0.092729606 0.0692057
-0.10719887 -0.28205898 -0.1348824 0.08358784 -0.05391362 -0.32603446 0.110528946 0.39464357
0.22974235 -0.21549597 -0.59106874 -0.43584502 0.25888482 -0.044452496 -0.45383093 0.3928411
0.66886556 0.38447624 -0.36180258 -0.77904576 -0.7248993 0.3249469 -0.08000436 -0.52855885
0.7481347 0.90148294 0.6320009 -0.9021468 0.057501525 0.32249337 0.11115813 0.8450388
0.22063516 0.217725 0.2426145 -0.67644274 -1.1460377 0.16198704 0.24100137 0.14195919
00000000: 5121 82bd 619c 6cbd 5a20 90bd 5fee 82bd
00000010: fe22 4abd 295b 26bd 9a9b 9cbd 1140 a6bd
00000020: bcff 60bd f923 b8bd 1953 92bd 8a8c a5bd
00000030: d3be 0bbe 410a d3bd 2e70 94bd b102 28be
00000040: 6db9 fcbd 6e8c b2bd d49b 243e 04c9 0b3e
00000050: f8fd 073e eec2 2d3e afb9 253e 6e4f d03d
00000060: f027 473e a6a7 4c3e 4619 013e 7c5a 053f
00000070: 971f 2ebe 0f16 27be 8bd8 cfbe e549 26bf
00000080: 88d5 9c3d b85b 4e3d eeab f83d dc26 103f
00000090: 3ecb 5b3f ea59 25be 3e7e 98be 0721 c1be
000000a0: 3a12 82bf a9de 27be 58f5 5dbe eb2e 233d
000000b0: 1605 753f 9317 523f 406f 0d3e 4ef0 11be
000000c0: 9a2f b6bd 68b8 3ebf 56b6 cbbe 8d5e 8abe
000000d0: 6c88 21be cd88 013f c173 813e f1d6 363e
000000e0: d594 503e 7565 ea3d 12db 83bb 92a0 143e
000000f0: 7855 7c3e a3ba 223e 6929 5b3e 65db a2be
00000100: d6de bbbe 087d 87be fe43 cebe ff10 ebbe
00000110: 485c 7abe 1827 8dbe 418c a1be 8338 16be
00000120: d082 6b3d d13f 653e eec2 f1bb 3349 823e
00000130: 4412 e53e ef18 053e 63e0 2c3d e4d9 093e
00000140: 1ca4 7abd 0a82 69be cce8 96be 1129 fabd
00000150: d457 a1be 3937 bdbe 5596 49be 6255 11be
00000160: 5aed 3cbe 695b 82bd a193 993e 6cad 913e
00000170: 59e5 4e3e 430f 833e e405 893e 04d3 393e
00000180: b4fe 5f3e 3726 463e 0e21 083e f65d 57bd
00000190: c45f 83ba eb70 80bd 2c94 92bc e80b 893d
000001a0: 1b64 903b 8476 b0bd a721 a6bb e39b 95bd
000001b0: b7f9 ea3e 3e69 99be 7966 7dbe 06c6 e63e
000001c0: 616b 42bd b254 92be 759d c13e e5c6 11be
000001d0: f9de a1be b882 533f a9f7 e6be 0010 10bf
000001e0: 0d9a 4e3f 6e0a c7bd 95c3 09bf 3b1b 2c3f
000001f0: 9eec febd faae f2be 133e 373f 01a3 e4be
00000200: 846f fabe 8f5c 273f f72c 33be cbe9 fcbe
00000210: 95bd 3c3f d9ac b8bd b440 f2be e640 683c
00000220: dc82 763d d669 02bd 8ce2 843d 3629 cd3d
00000230: 03b8 843d fc8b 633d 4f31 013e 342b 633d
00000240: ce41 843d d4db ae3d 2221 f03c fdf7 b03d
00000250: 7f8f b33d 8a3a 8f3d d153 183d d449 af3d
00000260: 9754 ce3c 96cc 5f3d 37ae b43d 22e1 883d
00000270: d5ff 4c3d b074 923d caa1 993d 9452 edbc
00000280: f548 8c3d a7ea d03c cc7c bebe f059 57bc
00000290: b8a5 f63e 1272 f0be d778 66bd cc90 163f
000002a0: 8d85 edbe 2294 8fbe 1e57 153f fd14 0cbf
000002b0: 6d3d 98bd 2753 3f3f 1dca 18bf b315 22be
000002c0: bf08 513f 6bd4 fbbe 2b28 d5be c3e9 403f
000002d0: 0030 9abe 176e 02be e5ad f13e ced1 90be
000002e0: e9ae 59be 64ab ed3e d1fa 70be 1e35 d6be
000002f0: eb96 013f 9ff9 083d 27c1 9a3e f17f b03e
00000300: 95e4 09bf 5964 073d 640e 2c3e b96d a9be
00000310: a8b7 623d a619 b63e b668 913d 1270 03bd
00000320: c30d 833d ded4 333e 0daa 09be 6832 903c
00000330: 7146 103f 3ada 83bd aa41 8d3d ab43 423e
00000340: 39c9 d1bc 8693 0dbe 6678 763e c066 31bd
00000350: 4645 08bd 2af7 b73e 05e9 bdbd b8bb 8d3d
00000360: 158b dbbd 096a 90be 9d1e 0abe 1a30 ab3d
00000370: 87d4 5cbd fded a6be 005d e23d b90e ca3e
00000380: 9441 6b3e faaa 5cbe 4850 17bf 1427 dfbe
00000390: 8d8c 843e d213 36bd 875c e8be 7822 c93e
000003a0: c63a 2b3f 12da c43e 303e b9be 8b6f 47bf
000003b0: 0093 39bf 715f a63e 53d9 a3bd a24f 07bf
000003c0: c185 3f3f 96c7 663f d0ca 213f 18f3 66bf
000003d0: b886 6b3d da1d a53e e0a6 e33d 7654 583f
000003e0: 2fee 613e 4df3 5e3e ef6f 783e 5a2b 2dbf
000003f0: 5db1 92bf eedf 253e 10c9 763e c05d 113e

onnx::Conv_799 f4 [24]
0.47493398 0.8142638 0.5589098 0.4610806 0.070691094 0.12531757 0.15552843 -1.5062943
0.085654095 0.08363986 0.06943324 -0.0009951693 0.46584123 0.8340456 0.061935414 -0.002152685
0.90611833 0.20915872 0.030937474 0.105433956 0.035556205 1.6922548 0.09041037 0.16797684
00000000: 8c2a f33e 9873 503f b614 0f3f c212 ec3e
00000010: 7ec6 903d 4053 003e d842 1f3e 40ce c0bf
00000020: 6a6b af3d 604b ab3d 0433 8e3d 5770 82ba
00000030: be82 ee3e 0384 553f fdaf 7d3d 1014 0dbb
00000040: 5ff7 673f b42d 563e 9670 fd3c c2ed d73d
00000050: 62a3 113d ce9b d83f 1229 b93d 1f02 2c3e

onnx::Conv_801 f4 [24, 1, 3, 3]
0.09380331 -0.07114297 0.023670841 -1.3902551 -0.43271536 1.5708802 -1.561877 -0.40695998
1.5315616 0.17781702 -0.10341817 0.03557662 0.05675105 0.088138446 -0.0204939 0.236948
0.115003504 -0.15526962 -0.09021639 0.03477373 -0.28465787 0.006938278 0.061395496 0.3751073
-0.74942666 0.122718334 1.8662213 0.033661332 0.059385356 -0.1954335 0.6618507 0.0792652
-0.35188627 1.4996979 0.4632809 -0.5340063 -0.0075368555 0.0988944 -0.04098994 0.027063975
0.052154794 -0.058939055 0.07333591 -0.13878705 -0.29905134 0.019575877 0.04076145 0.13452962
-0.7909817 0.03601713 0.58475846 -0.8011458 -0.030560749 0.71143025 -0.05993447 0.04965577
-0.022983078 0.032710116 0.02628993 -0.09193058 0.02345163 -0.04337908 -0.2912678 -0.1258588
0.11246748 0.18953556 -0.0498935 0.31729826 0.62143296 -0.14189628 0.6660902 1.0142466
-0.0188771 -0.062115066 -0.01143186 -0.11738809 -0.023520783 0.12158193 -0.047519818 0.026236141
0.38017988 -0.05591585 -0.101288274 -0.0116505325 -0.031396136 -0.050215233 -0.033626117 -0.0036304516
-0.050451405 -0.06954402 -0.060504876 -0.02060951 -0.00062755466 0.103271924 -0.20168473 -0.35600626
0.310665 -0.83524764 -1.6040689 -2.3921655e-13 -3.1715974e-13 -3.6374896e-13 -1.7306854e-13 -1.4128065e-13
2.3624058e-13 -2.4405255e-13 3.0226318e-13 3.3804987e-13 0.10454938 -0.044484966 -0.0371683 0.010515176
-0.23063116 -0.25929168 -0.02262053 -0.17180513 -0.13579272 -0.03967984 0.070484735 -0.029771946
-0.0598757 -0.0790932 -0.15456004 0.019424856 -0.09327196 -0.21504766 0.0011109201 -0.023085356
0.037453383 0.08131587 0.079943284 -0.14356503 -0.006094988 -0.043730557 -0.24893719 4.055446e-13
2.0489165e-14 -2.556704e-13 -1.6354462e-13 -3.660795e-13 1.3661194e-14 -4.77477e-13 3.0567446e-13 -7.499745e-14
0.021678634 -0.043525677 0.09361711 0.36237678 -0.18878587 -0.6375993 0.6841733 -0.32159948
-1.4255431 -0.16396166 0.092128456 0.2532924 -0.754078 0.12785114 1.4235462 -0.5643774
0.16534963 1.045174 0.019598305 -0.08735749 0.015385768 0.0031811856 -0.21951811 -0.36176717
-0.1314968 -0.08118468 -0.24893509 0.026055686 0.24826732 0.020435268 0.09247726 0.065736234
-0.17173567 0.04801843 -0.009747689 -0.40269053 0.057734568 -0.030876283 0.00075784046 0.19999133
0.05056224 -0.07714545 0.06316108 0.0046483213 0.026578851 0.07701588 -0.09375864 -0.029310811
0.71494484 -0.068488106 -0.68528605 0.6279922 0.003551628 -0.73370963 -0.030411884 0.10091451
-0.03946019 0.12588942 0.0462375 -0.08316791 0.13054863 -0.09644237 -0.44831136 -0.008448297
0.038852446 0.038522996 -0.051166974 0.11395309 0.106893174 -0.013184571 0.12338942 0.105030596
00000000: f31b c03d 68b3 91bd 5ae9 c13c e1f3 b1bf
00000010: de8c ddbe 9a12 c93f 96eb c7bf 0f5d d0be
00000020: 360a c43f aa15 363e e8cc d3bd cab8 113d
00000030: ca73 683d ee81 b43d d3e2 a7bc 7fa2 723e
00000040: f586 eb3d 00ff 1ebe 5fc3 b8bd e66e 0e3d
00000050: adbe 91be 7f5a e33b d879 7b3d 100e c03e
00000060: 6dda 3fbf c053 fb3d 57e0 ee3f 77e0 093d
00000070: 0f3e 733d b81f 48be 0c6f 293f cb55 a23d
00000080: 702a b4be 1af6 bf3f 2733 ed3e a3b4 08bf
00000090: baf7 f6bb 2689 ca3d 11e5 27bd 45b5 dd3c
000000a0: 44a0 553d 146a 71bd 2331 963d 311e 0ebe
000000b0: 421d 99be 975d a03c 7af5 263d 22c2 093e
000000c0: c77d 4abf b386 133d bbb2 153f e417 4dbf
000000d0: 895a fabc 4b20 363f d97d 75bd d963 4b3d
000000e0: 0247 bcbc 0bfb 053d fb5d d73c 1a46 bcbd
000000f0: a21d c03c 43ae 31bd 0e21 95be 21e1 00be
00000100: 5a55 e63d 9c15 423e 205d 4cbd eb74 a23e
00000110: 3b16 1f3f 424d 11be e384 2a3f d5d2 813f
00000120: 26a4 9abc 5e6c 7ebd b24c 3bbc 2b69 f0bd
00000130: a8ae c0bc f2ff f83d 24a4 42bd 2ded d63c
00000140: f0a6 c23e 0508 65bd 3a70 cfbd e0e1 3ebc
00000150: 3c99 00bd 7dae 4dbd 8abb 09bd dfec 6dbb
00000160: 22a6 4ebd 186d 8ebd f6d3 77bd 46d5 a8bc
00000170: 7b82 24ba 3b80 d33d 7186 4ebe 7446 b6be
00000180: 7c0f 9f3e cad2 55bf 2152 cdbf bdaa 86aa
00000190: 898b b2aa c0c5 ccaa 9cdb 42aa 6011 1faa
000001a0: dbfd 842a ae63 89aa b728 aa2a 1f4e be2a
000001b0: fc1d d63d de35 36bd ca3d 18bd d847 2c3c
000001c0: 932a 6cbe e1c1 84be b14e b9bc afed 2fbe
000001d0: 3f0d 0bbe 5487 22bd 4d5a 903d 4ce4 f3bc
000001e0: 3940 75bd 9efb a1bd fd44 1ebe e020 9f3c
000001f0: 5f05 bfbd 7435 5cbe 4b9c 913a 801d bdbc
00000200: b868 193d ef88 a63d 4eb9 a33d b602 13be
00000210: 77b8 c7bb d01e 33bd 64e9 7ebe 234d e42a
00000220: cc8c b828 fded 8faa 8722 38aa 9e15 ceaa
00000230: 2319 7628 d865 06ab 5514 ac2a 16e1 a8a9
00000240: 6497 b13c fb47 32bd 54ba bf3d 7389 b93e
00000250: 1551 41be b539 23bf fb25 2f3f b0a8 a4be
00000260: 3278 b6bf 91e5 27be d8ad bc3d 8baf 813e
00000270: 410b 41bf 69eb 023e c336 b63f 0a7b 10bf
00000280: 6a51 293e 43c8 853f a08c a03c 7ce8 b2bd
00000290: 9714 7c3c 707b 503b 5bc9 60be 8c39 b9be
000002a0: 19a7 06be 2744 a6bd d7e8 7ebe bc72 d53c
000002b0: ca39 7e3e dd67 a73c b864 bd3d b8a0 863d
000002c0: 7adb 2fbe f9ae 443d c5b4 1fbc 742d cebe
000002d0: 157b 6c3d 42f0 fcbc d0a9 463a 87ca 4c3e
000002e0: 5a1a 4f3d 6ffe 9dbd 995a 813d f250 983b
000002f0: e4bb d93c 80ba 9d3d 8804 c0bd 3a1d f0bc
00000300: a006 373f 7e43 8cbd e86e 2fbf 19c4 203f
00000310: 6ec2 683b 65d4 3bbf 5822 f9bc 44ac ce3d
00000320: 02a1 21bd 28e9 003e 8863 3d3d f053 aabd
00000330: 8aae 053e 9483 c5bd 1189 e5be ba6a 0abc
00000340: be23 1f3d 4aca 1d3d 7694 51bd 3d60 e93d
00000350: cfea da3d 1904 58bc 98b3 fc3d 481a d73d

onnx::Conv_802 f4 [24]
0.30363706 -0.26910418 -0.76948744 -0.82229227 0.09208044 0.054845683 0.1336023 -0.05915679
-0.08209845 0.20999616 0.3795184 9.2350895e-08 0.118766285 0.3642557 0.08515543 9.090272e-08
1.3204763 -0.039740875 0.16996135 0.04314843 -0.0955694 0.23683672 0.12557955 -0.17480893
00000000: 5176 9b3e 06c8 89be 21fd 44bf bf81 52bf
00000010: ab94 bc3d dea5 603d 0bcf 083e 644e 72bd
00000020: 3b23 a8bd 3c09 573e 3c50 c23e 7152 c633
00000030: bd3b f33d b97f ba3e f865 ae3d 4c36 c333
00000040: 5e05 a93f 54c7 22bd 590a 2e3e 68bc 303d
00000050: e4b9 c3bd 5385 723e ed97 003e 1d01 33be

onnx::Conv_804 f4 [24, 24, 1, 1]
-0.0006950253 0.102015056 0.008459019 -0.0013211154 -0.021423008 0.008653974 0.027248222 0.00046292396
-0.013098252 0.07048593 0.015088986 -8.674637e-13 -0.30114853 -0.11381163 -0.008506223 -7.630489e-13
-0.031737182 0.26005203 -0.02773672 0.012658572 0.0737021 -0.10299515 -0.02400149 -0.039805107
0.08917171 0.17663021 -0.04055121 -0.048099127 0.04452741 -0.0005080943 -0.092474304 -0.041859612
0.016496522 -0.029870855 1.1830375 3.0192294e-12 -0.038778797 -0.14884473 -0.0047333436 1.098178e-12
-0.14145592 -0.0057838727 0.044106428 0.0004303615 -0.0056806686 -0.032522943 -0.048538145 0.04640426
0.09151737 0.02809237 0.35541072 0.023031645 -0.011724834 -0.026029376 -0.008503655 -0.044228677
-0.07733177 0.10115128 -0.3450196 -9.547436e-13 0.03584222 -0.012582894 0.036632817 -4.156786e-13
-0.444632 0.0014017294 -0.06379201 -0.054171655 -0.0064537125 -0.016249627 -0.011128122 -0.075626574
-0.031966824 -0.17956378 -0.05764438 0.08333603 -0.023143413 0.0009922242 0.18804623 0.12427728
0.07354943 0.025274742 0.0001620697 -7.320897e-13 0.14974508 0.30744678 -0.06358759 1.0296698e-12
0.01012069 0.024865447 -0.44111067 0.00851458 -0.021323936 0.009893847 0.08293547 -0.3242833
0.11540691 -0.08287504 -0.009833276 0.94388384 -0.002634514 -0.0026410695 -0.014444017 -0.016942775
-0.032772467 -0.03499491 0.118195534 4.0858414e-13 0.025022093 0.07526351 -0.009984438 -4.5394848e-13
0.0013769885 -0.007180151 -0.0829639 0.007070528 0.009267421 -0.0322963 -0.0018159788 -0.068453364
0.16717944 0.103015676 0.027581397 0.0055123814 0.010037813 0.29477185 -0.098662734 0.1265477
0.009300347 -0.13316257 -0.009288918 -2.05725e-12 -0.13516822 -0.2343803 0.1065285 -9.961776e-13
-0.024137229 -0.07737319 0.394707 0.03114549 -0.016134918 0.5520205 -0.08374465 0.21450374
-0.0002510441 0.01185162 -0.03447459 -0.0076187537 0.025203846 0.7087948 -0.07780757 0.18260686
-0.031355914 -0.13794038 -0.04639188 -8.288571e-13 0.0079913465 -0.0019628913 0.027671123 8.347117e-13
-0.077101484 0.019739889 0.03601433 0.026852336 -0.39832348 0.0061304015 -0.105785325 -0.01786119
-0.043520678 0.15076932 -0.010549076 -0.014823401 -0.079500854 0.050113283 0.08283553 -0.0321594
0.113757685 0.22787035 -0.1348039 7.841113e-13 -0.16296184 -0.049055796 0.03655229 1.5532837e-12
0.017681435 -0.023203507 -0.4816884 -0.06382561 0.037988342 -0.11323969 -0.03229123 0.084286615
-0.06637875 -0.033000074 0.52808017 -0.060572702 0.013932817 0.025823228 -0.01525 0.018838596
0.016148118 0.020378865 -0.0003148331 -2.9098623e-13 -0.06460094 -0.016498985 0.05629238 -7.759251e-13
0.10131935 -0.010747023 -0.021350535 -0.0054270215 -0.019253196 -0.012703402 0.004352607 -0.0060180356
0.8287181 0.11475973 -0.17676805 -0.33566988 0.12827681 0.06721711 -0.01310681 -0.14276712
0.16451034 -0.083131194 0.6154157 2.6761952e-12 0.016428811 -0.07090969 -0.07772321 -6.756481e-13
1.0625439 -0.0075990036 0.021457313 -0.050587896 0.033341706 -0.03869042 0.07508523 0.1733376
-0.014480829 0.13717471 0.048779428 0.029803166 0.14981465 -0.0075598904 0.12027527 -0.073194526
-0.072360195 0.023253614 -0.02859444 -7.1662717e-13 -0.04334792 -0.12678619 0.016085085 -3.5419473e-13
00000000: 5c32 36ba 45ed d03d b297 0a3c 4729 adba
00000010: 4e7f afbc 66c9 0d3c aa37 df3c 9ab4 f239
00000020: 0d9a 56bc ed5a 903d cb37 773c 592b 74ab
00000030: 2430 9abe 1216 e9bd af5d 0bbc 78c7 56ab
00000040: d9fe 01bd 8a25 853e 1e38 e3bc e665 4f3c
00000050: 20f1 963d 1fef d2bd c69e c4bc ae0a 23bd
00000060: a89f b63d 8dde 343e 0719 26bd 9703 45bd
00000070: 6062 363d a231 05ba 2b63 bdbd fc74 2bbd
00000080: b723 873c b9b3 f4bc c66d 973f 9a75 542c
00000090: 84d6 1ebd c16a 18be 2a1a 9bbb 088e 9a2b
000000a0: d2d9 10be a486 bdbb f1a8 343d 25a2 e139
000000b0: e724 babb c736 05bd efcf 46bd 6512 3e3d
000000c0: 756d bb3d f821 e63c 65f8 b53e dcac bc3c
000000d0: 8519 40bc 8f3b d5bc ea52 0bbc 2129 35bd
000000e0: 1e60 9ebd 6728 cf3d 69a6 b0be 435e 86ab
000000f0: 4bcf 123d 7c28 4ebc 4b0c 163d 9a01 eaaa
00000100: cea6 e3be 3cba b73a 63a5 82bd 19e3 5dbd
00000110: aa79 d3bb f01d 85bc ba52 36bc 1be2 9abd
00000120: a5ef 02bd 91df 37be 831c 6cbd 15ac aa3d
00000130: 4197 bdbc 850d 823a 318f 403e 1685 fe3d
00000140: 15a1 963d fa0c cf3c 41f1 2939 9f10 4eab
00000150: c656 193e aa69 9d3e 363a 82bd c4e9 902b
00000160: 40d1 253c 9fb2 cb3c 42d9 e1be bd80 0b3c
00000170: 89af aebc cd19 223c 12da a93d 7608 a6be
00000180: 755a ec3d 64ba a9bd c01b 21bc 5fa2 713f
00000190: cfa7 2cbb cb15 2dbb 99a6 6cbc 93cb 8abc
000001a0: 6c3c 06bd d356 0fbd 8010 f23d 2e03 e62a
000001b0: 22fb cc3c c123 9a3d c595 23bc df8c ffaa
000001c0: 117c b43a 7947 ebbb fae8 a9bd e3af e73b
000001d0: 62d6 173c 2049 04bd 2306 eeba 4731 8cbd
000001e0: 1631 2b3e e2f9 d23d 62f2 e13c 35a1 b43b
000001f0: a475 243c 56ec 963e b00f cabd b895 013e
00000200: 7c60 183c c55b 08be 8c30 18bc 1fc4 10ac
00000210: 8a69 0abe 6401 70be 9d2b da3d 1533 8cab
00000220: 70bb c5bc d675 9ebd 0917 ca3e d424 ff3c
00000230: 602d 84bc 3751 0d3f 5182 abbd dea6 5b3e
00000240: 929e 83b9 4c2d 423c 3a35 0dbd bda6 f9bb
00000250: 4c78 ce3c 9373 353f 9359 9fbd 4bfd 3a3e
00000260: 0f6f 00bd 3e40 0dbe 6905 3ebd 734d 69ab
00000270: 23ee 023c daa3 00bb 8dae e23c 51f3 6a2b
00000280: 62e7 9dbd 8cb5 a13c c383 133d 6ef9 db3c
00000290: 0ef1 cbbe 89e1 c83b faa5 d8bd a151 92bc
000002a0: bd42 32bd 4663 1a3e 08d6 2cbc dadd 72bc
000002b0: 58d1 a2bd 9643 4d3d ada5 a93d 93b9 03bd
000002c0: caf9 e83d d856 693e 090a 0abe 2cb5 5c2b
000002d0: 78df 26be bbee 48bd dbb7 153d f19a da2b
000002e0: a8d8 903c 4815 bebc dd9f f6be 00b7 82bd
000002f0: aa99 1b3d 36ea e7bd cf43 04bd 769e ac3d
00000300: 95f1 87bd 162b 07bd 4330 073f 151b 78bd
00000310: 7846 643c 3c8b d33c 23db 79bc 6653 9a3c
00000320: 0f49 843c 94f1 a63c 2f10 a5b9 89cf a3aa
00000330: 7f4d 84bd e128 87bc d792 663d 4c67 5aab
00000340: 8580 cf3d 4814 30bc 51e7 aebc 28d5 b1bb
00000350: e1b8 9dbc ee21 50bc 50a0 8e3b f132 c5bb
00000360: df26 543f 2607 eb3d af02 35be ecdc abbe
00000370: ff5a 033e 20a9 893d f2bd 56bc 8b31 12be
00000380: 6675 283e b040 aabd e28b 1d3f 0c52 3c2c
00000390: b795 863c 1939 91bd 592d 9fbd 942d 3eab
000003a0: 7001 883f 1001 f9bb 3fc7 af3c 4135 4fbd
000003b0: 5091 083d d979 1ebd 49c6 993d 697f 313e
000003c0: 0041 6dbc 8777 0c3e f0cc 473d c525 f43c
000003d0: 0369 193e f5b8 f7bb e152 f63d 03e7 95bd
000003e0: 9531 94bd 5d7e be3c e33e eabc 6eb6 49ab
000003f0: 978d 31bd 3dd4 01be dec4 833c d764 c7aa

onnx::Conv_805 f4 [24]
0.24210054 -0.10869344 0.15418217 0.38805956 0.13208294 0.049682144 0.013689616 0.15541972
0.037501726 -0.058074012 0.096198425 0.03630626 0.22905423 0.17309745 -0.037090044 0.08083579
0.43787983 0.08288116 0.10020476 0.04961292 0.3881202 -0.090449765 0.041189037 0.07888317
00000000: 34e9 773e ab9a debd eee1 1d3e beaf c63e
00000010: c040 073e 817f 4b3d 694a 603c 5926 1f3e
00000020: 699b 193d 04df 6dbd ae03 c53d dfb5 143d
00000030: 318d 6a3e 7540 313e bbeb 17bd 3c8d a53d
00000040: c931 e03e 99bd a93d 2738 cd3d eb36 4b3d
00000050: b1b7 c63e ba3d b9bd d6b5 283d 808d a13d

onnx::Conv_807 f4 [24, 24, 1, 1]
0.14065509 0.020661466 0.16244406 0.18096848 0.014880841 0.09413468 0.004546255 0.08423764
0.006639173 0.021582447 0.03170557 5.3189034e-13 0.09754327 0.009667364 0.011046835 -6.353507e-14
0.2266688 0.11945776 0.04178596 0.013863202 0.03333607 0.043553676 0.03110528 0.005298343
0.092723645 -0.09583385 0.03028933 0.045090556 0.2542835 0.43721357 0.18525219 0.032083325
-0.2922967 -0.09696476 0.0438114 -1.0460172e-12 -0.036625315 0.03474342 -0.2934337 4.5769544e-14
0.08863613 0.030086242 -0.0038683699 -0.33206692 -0.12510744 0.18564299 0.17584375 -0.18335322
0.024192154 0.0048400327 0.016695881 0.008145018 0.14937806 -0.16606334 -0.54431796 -0.047215395
-0.0043269177 -0.087012514 0.00093949615 9.260326e-13 0.006211689 0.03214584 0.05722974 1.688861e-13
0.08098814 -0.118575856 0.0030902594 0.026530376 0.05725253 -0.23548245 -0.10272843 0.0042704027
0.16676907 -0.4207042 0.06872256 0.061136823 0.049039416 0.11942943 0.075248934 -0.18217972
0.058407694 -0.45755255 -0.14593183 5.788017e-13 0.095056385 0.23186783 -0.07193289 -7.0512693e-13
0.09637352 0.00029104398 -0.14296356 -0.019732876 -0.3606724 0.2554041 0.1697783 -0.40511224
-0.17547056 -0.044486698 -0.06829692 -0.13388737 -0.27218765 0.054557938 -0.28278038 -0.101074345
0.09887968 -0.06524291 -0.12097309 8.3510266e-13 -0.08097248 -0.028253919 0.14748162 1.2699977e-12
-0.40818104 -0.075865336 -0.08508704 0.10685988 -0.07144164 0.07880765 -0.23490833 0.011400131
-0.12471605 -0.013044299 -0.20825082 -0.17835562 -0.01625157 -0.030920206 -0.02361013 -0.11068383
-0.03125647 -0.0061395015 -0.054096445 1.2038164e-13 -0.1361333 -0.02553391 -0.018735765 9.253293e-14
-0.21425694 -0.16706178 -0.013537438 -0.021130888 -0.0074979244 -0.057737 -0.026484312 0.0025841251
0.036255445 0.2611091 0.069065616 0.055765674 -0.33286852 0.28924885 -0.34559363 -0.023492709
-0.25357285 0.23962167 0.07474474 5.5240366e-13 -0.09778075 -0.46456158 -0.24864037 1.319473e-12
0.15731302 0.057248678 0.18188499 -0.087831065 0.3690103 0.2102769 -0.3814276 0.26228267
0.08052113 0.21972488 0.1527412 0.12008805 -0.061370596 -0.0009208258 -0.08010753 0.12269834
-0.39334643 0.23403986 -0.027249524 -9.92377e-13 0.12552625 -0.32678685 -0.31632158 8.6485804e-13
0.08267125 0.068156496 0.115690224 -0.2983715 0.270227 0.19500118 -0.05143618 0.19909093
-0.025473934 -0.046416912 0.018903652 -0.020466913 -0.547798 -0.12281159 0.19418024 -0.056544103
-0.05988421 -0.048336722 0.002306513 -6.9767965e-13 -0.08752244 -0.08324079 0.10933432 -5.2278835e-15
-0.03714025 0.13719699 0.12339917 0.030270193 -0.072946824 -0.09203548 -0.044943575 0.04993651
0.07110655 0.11977148 0.076789536 0.11210488 -0.3595364 0.1653454 -0.32145512 0.13452715
0.10176524 -0.026535286 0.05483424 -8.0831305e-13 0.06276471 0.055857208 0.12212407 -3.7669916e-13
0.051084936 0.045855045 -0.023114856 0.20861343 -0.035560917 0.15057077 -0.31115183 0.0081308475
0.108441055 -0.0039504175 0.0030763426 0.032725707 0.054197054 0.052246686 -0.063825354 0.018509906
0.17788967 0.045937523 -0.0029089008 2.3110778e-13 0.07346606 -0.018253166 -0.20139731 -1.1804067e-12
00000000: e307 103e 3c42 a93c bc57 263e cd4f 393e
00000010: c5ce 733c afc9 c03d c0f8 943b c984 ac3d
00000020: 6b8d d93b accd b03c b3dd 013d bdb6 152b
00000030: c4c4 c73d dd63 1e3c c9fd 343c 7911 8fa9
00000040: de1b 683e 45a6 f43d c127 2b3d 7c22 633c
00000050: 678b 083d 5765 323d 80d0 fe3c b99d ad3b
00000060: e5e5 bd3d 8a44 c4bd 5421 f83c e0b0 383d
00000070: 7231 823e 75da df3e c0b2 3d3e ce69 033d
00000080: eaa7 95be 7695 c6bd 9573 333d be36 93ab
00000090: 6d04 16bd 1e4f 0e3d f13c 96be b120 4e29
000000a0: dc86 b53d 6c77 f63c 7a84 7dbb ad04 aabe
000000b0: 2a1c 00be 3219 3e3e 6210 343e f2c0 3bbe
000000c0: a02e c63c 2399 9e3b cdc5 883c ae72 053c
000000d0: 90f6 183e 820c 2abe 6c58 0bbf ee64 41bd
000000e0: d1c8 8dbb 9e33 b2bd 8548 763a d753 822b
000000f0: 6d8b cb3b 5bab 033d bb69 6a3d 1b26 3e2a
00000100: 1cdd a53d e6d7 f2bd f385 4a3b 3b56 d93c
00000110: a181 6a3d 5022 71be 4863 d2bd bcee 8b3b
00000120: 83c5 2a3e 8a66 d7be 6abe 8c3d 9b6a 7a3d
00000130: 8edd 483d 6b97 f43d 1d1c 9a3d 528d 3abe
00000140: e83c 6f3d 5444 eabe 276f 15be 0feb 222b
00000150: ecac c23d c36e 6d3e 8d51 93bd c079 46ab
00000160: 7b5f c53d 4397 9839 0a65 12be d7a6 a1bc
00000170: 0eaa b8be 54c4 823e 5dda 2d3e df6a cfbe
00000180: 8eae 33be af37 36bd 41df 8bbd c519 09be
00000190: 2e5c 8bbe 2578 5f3d 97c8 90be 1100 cfbd
000001a0: 6e81 ca3d 139e 85bd bdc0 f7bd 7d0f 6b2b
000001b0: e6d4 a5bd c374 e7bc 6c05 173e 7dbc b22b
000001c0: 1bfd d0be 495f 9bbd 1d42 aebd 5ad9 da3d
000001d0: ff4f 92bd e865 a13d cf8b 70be 9dc7 3a3c
000001e0: 216b ffbd c1b7 55bc b43f 55be dba2 36be
000001f0: 0322 85bc 5f4c fdbc 086a c1bc 34ae e2bd
00000200: c906 00bd df2d c9bb 3c94 5dbd a589 072a
00000210: 8766 0bbe 7e2c d1bc bf7b 99bc 9a5d d029
00000220: 2c66 5bbe 3e12 2bbe 21cc 5dbc af1a adbc
00000230: 26b1 f5bb a27d 6cbd a1f5 d8bc 6d5a 293b
00000240: 9780 143d 18b0 853e 4672 8d3d 8c6a 643d
00000250: be6d aabe 6d18 943e a6f1 b0be c873 c0bc
00000260: 4dd4 81be 625f 753e c513 993d e17c 1b2b
00000270: 4641 c8bd 04db edbe 959b 7ebe 06b3 b92b
00000280: aa16 213e 977d 6a3d 0f40 3a3e c6e0 b3bd
00000290: ebee bc3e d452 573e 7a4a c3be ea49 863e
000002a0: 43e8 a43d 8fff 603e 3068 1c3e b9f0 f53d
000002b0: bc5f 7bbd 9363 71ba 6b0f a4bd 4449 fb3d
000002c0: b464 c9be 25a8 6f3e 653a dfbc 26aa 8bab
000002d0: f489 003e 9b50 a7be e7f4 a1be 976f 732b
000002e0: 8b4f a93d a295 8b3d ffee ec3d 26c4 98be
000002f0: 315b 8a3e 64ae 473e beae 52bd 7ede 4b3e
00000300: b6ae d0bc a91f 3ebd d5db 9a3c 3aaa a7bc
00000310: 7d3c 0cbf a584 fbbd 2fd7 463e ca9a 67bd
00000320: 2549 75bd bafc 45bd de28 173b 1e61 44ab
00000330: f73e b3bd 267a aabd acea df3d b75a bca7
00000340: 6020 18bd 5e7d 0c3e b4b8 fc3d 32f9 f73c
00000350: 2565 95bd 197d bcbd c116 38bd 3a8a 4c3d
00000360: 50a0 913d c04a f53d d543 9d3d 3e97 e53d
00000370: 2815 b8be 4e50 293e c495 a4be 7cc1 093e
00000380: 4b6a d03d 8760 d9bc de99 603d 1885 63ab
00000390: c98a 803d 87ca 643d 2f1c fa3d 1210 d4aa
000003a0: 703e 513d 80d2 3b3d 5e5b bdbc c29e 553e
000003b0: 53a8 11bd 392f 1a3e 4b4f 9fbe 3f37 053c
000003c0: 5816 de3d 8172 81bb 779c 493b 640b 063d
000003d0: bbfd 5d3d 9f00 563d deb6 82bd 16a2 973c
000003e0: b628 363e fc28 3c3d 42a3 3ebb 241a 822a
000003f0: 6075 963d aa87 95bc 193b 4ebe a220 a6ab

onnx::Conv_808 f4 [24]
-0.59555495 -0.33269405 0.4521559 -0.2430953 0.747379 1.076398 -0.26861206 -0.10000986
0.42505616 -0.257267 -0.29522598 0.12282407 0.3409356 -0.3210443 -1.6072012 1.4937836
0.10590982 -0.2392822 -0.3435841 0.14805494 -0.14767805 2.3683014 0.41929027 -0.067139745
00000000: 4a76 18bf e056 aabe fa80 e73e f9ed 78be
00000010: 3b54 3f3f 69c7 893f 8587 89be f8d1 ccbd
00000020: f6a0 d93e 80b8 83be dc27 97be 308b fb3d
00000030: 1c8f ae3e eb5f a4be c5b8 cdbf 4d34 bf3f
00000040: 3fe7 d83d 6506 75be 41ea afbe b79b 173e
00000050: ea38 17be 4092 1740 37ad d63e 9080 89bd

onnx::Conv_810 f4 [24, 1, 3, 3]
-0.30265442 2.089091 0.030048568 -1.0268661 -0.25905994 -4.7861276 -0.40704286 2.727
1.4614043 -0.19360113 -0.44073325 0.123868816 -0.44293535 -0.76345915 -0.5393529 0.09640138
-0.3219707 -0.41562283 -0.017093899 0.3584322 -0.011124569 0.61897576 0.9086872 0.3964256
0.071916535 1.1356257 0.79608566 0.04673936 0.5721449 0.32327828 0.39430854 0.82272464
0.7634704 0.16698283 0.68325794 0.7177098 -0.6922417 1.9721258 -0.7567721 -0.85504705
1.795664 -2.1009274 -0.46382114 1.7770976 -1.0542961 0.9098522 -1.4856437 1.9089708
0.34737375 -4.333064 -0.29349947 1.4848436 -0.85100806 1.8092523 -0.06442063 -0.1512169
-0.34268925 -0.07039235 -0.35122773 -0.65444136 -0.19867067 -0.5614283 -0.6127754 -0.00417575
-0.21083009 -0.21884851 -0.3721326 -0.542209 -0.347523 -0.08934665 -0.37831372 -0.38469532
0.080733635 -0.09906322 -0.2663984 -0.5128276 -0.8449465 -0.635916 -0.5513927 -1.1770724
-0.34103447 0.14540026 0.47968817 0.13575694 0.20430033 0.6503611 0.5592157 0.08253731
0.441579 0.43797153 -0.079092965 -0.555819 -0.29249492 0.011059372 -0.4103772 -0.71788037
-0.038460944 -0.36855006 -0.16603288 0.3212477 0.84525675 0.68088466 -0.056790866 1.4915327
1.4620246 -0.19743682 0.7726676 0.45566595 0.44366595 1.4636532 -0.6748968 0.6193264
1.1933564 -0.6158394 -0.33484542 -0.1167356 -1.7121224 -0.32613403 -0.3438208 -0.32483494
-0.06082559 -0.8934222 -1.2913996 -0.2419871 -0.691843 -1.2253366 -0.12602557 -0.06495079
-0.03708238 0.03857848 -0.63875794 -0.6629687 -0.18346417 -0.55597687 -1.0516286 0.34990695
0.40294996 1.0625339 -0.091493465 -3.0778134 -2.1282427 0.93658495 1.2337022 2.1051185
0.04473283 0.17952326 0.23705165 0.2510919 0.4548077 0.41601557 0.17552283 0.3314238
0.47073463 -0.13017572 -0.3424869 -0.38537878 -0.35966885 -0.92898524 -0.7409409 -0.2703832
-0.69483083 -0.78314483 -0.0018612919 0.37090987 -0.42401356 -0.007134086 -0.90272844 -1.4388332
0.44880563 -2.111838 -3.903446 -0.014700177 -0.55548704 -0.18768306 -0.22334234 -0.64239436
-1.1121798 0.022836275 -0.82463115 -0.41770503 0.07247226 -0.19774485 -0.17982712 -0.09099901
-0.5967433 -0.713907 -0.13036534 -0.5110207 -0.49353808 -0.14861888 -0.24299914 -0.07789997
-0.1644059 -0.5799175 -0.79489464 -0.05791396 -0.40672806 -0.7849883 -0.7982293 -2.382658
-2.1127112 -0.026741927 -0.3383153 -0.25277996 0.71991163 3.058117 2.527412 -0.30392778
-0.749631 -0.34951243 -0.38830766 0.7234311 1.2059408 0.14601749 1.9899596 2.8106222
00000000: 85f5 9abe abb3 0540 6a28 f63c 5970 83bf
00000010: 81a3 84be f527 99c0 ec67 d0be 2b87 2e40
00000020: 4c0f bb3f 603f 46be caa7 e1be efae fd3d
00000030: 6cc8 e2be 0f72 43bf 0813 0abf 166e c53d
00000040: 58d9 a4be 84cc d4be 8108 8cbc 6d84 b73e
00000050: d343 36bc 3275 1e3f b99f 683f 4cf8 ca3e
00000060: fa48 933d 2f5c 913f 45cc 4b3f c571 3f3d
00000070: 1778 123f bb84 a53e cfe2 c93e 159e 523f
00000080: cc72 433f 8cfd 2a3e fee9 2e3f d4bb 373f
00000090: c136 31bf 9e6e fc3f d1bb 41bf 5de4 5abf
000000a0: 51d8 e53f 9875 06c0 f779 edbe ef77 e33f
000000b0: 2df3 86bf 13ec 683f 9329 bebf 2859 f43f
000000c0: f9da b13e 76a8 8ac0 9045 96be 5b0f be3f
000000d0: aadb 59bf 9495 e73f f7ee 83bd 9ad8 1abe
000000e0: f774 afbe dd29 90bd 1fd4 b3be 7889 27bf
000000f0: 5370 4bbe c4b9 0fbf d9de 1cbf bbd4 88bb
00000100: d8e3 57be d319 60be 2a88 bebe 36ce 0abf
00000110: 89ee b1be 60fb b6bd 56b2 c1be c9f6 c4be
00000120: ad57 a53d a8e1 cabd 5f65 88be ab48 03bf
00000130: 6a4e 58bf 64cb 22bf 1228 0dbf 4faa 96bf
00000140: 129c aebe cee3 143e b099 f53e de03 0b3e
00000150: 1b34 513e 117e 263f c328 0f3f 5209 a93d
00000160: a516 e23e ce3d e03e 7efb a1bd 274a 0ebf
00000170: e5c1 95be 5e32 353c f61c d2be 02c7 37bf
00000180: 3989 1dbd 98b2 bcbe 8604 2abe 947a a43e
00000190: bf62 583f 754e 2e3f 8a9d 68bd 8bea be3f
000001a0: 9f23 bb3f e12c 4abe 8bcd 453f 0c4d e93e
000001b0: 2f28 e33e fd58 bb3f 09c6 2cbf 2d8c 1e3f
000001c0: e7bf 983f a7a7 1dbf dc70 abbe 1313 efbd
000001d0: d426 dbbf 0afb a6be 4809 b0be c450 a6be
000001e0: 4124 79bd 51b7 64bf 954c a5bf 77cb 77be
000001f0: 9f1c 31bf d4d7 9cbf d90c 01be eb04 85bd
00000200: b2e3 17bd 7804 1e3d a485 23bf 51b8 29bf
00000210: 08de 3bbe 8054 0ebf c49b 86bf 0127 b33e
00000220: 754f ce3e 1c01 883f ed60 bbbd e5fa 44c0
00000230: 2135 08c0 08c4 6f3f f4e9 9d3f 43ba 0640
00000240: c639 373d f2d4 373e abbd 723e 1e8f 803e
00000250: 8edc e83e feff d43e 42bc 333e 61b0 a93e
00000260: 2104 f13e c94c 05be 715a afbe 5e50 c5be
00000270: 8426 b8be fad1 6dbf 4eae 3dbf ab6f 8abe
00000280: 6fe0 31bf 2e7c 48bf 98f6 f3ba e6e7 bd3e
00000290: 4e18 d9be 0dc5 e9bb 3619 67bf b02b b8bf
000002a0: dac9 e53e 5b28 07c0 0fd2 79c0 03d9 70bc
000002b0: 6634 0ebf fd2f 40be dbb3 64be f573 24bf
000002c0: e85b 8ebf 2413 bb3c 071b 53bf 6fdd d5be
000002d0: 566c 943d a07d 4abe 9a24 38be b05d babd
000002e0: 2bc4 18bf 9cc2 36bf 7e7e 05be 41d2 02bf
000002f0: 06b1 fcbe 8c2f 18be c4d4 78be 058a 9fbd
00000300: 055a 28be 7975 14bf 377e 4bbf 3037 6dbd
00000310: a93e d0be fef4 48bf c158 4cbf 787d 18c0
00000320: a936 07c0 e311 dbbc aa37 adbe 606c 81be
00000330: 214c 383f 30b8 4340 1ec1 2140 6c9c 9bbe
00000340: d1e7 3fbf 4bf3 b2be 43d0 c6be c832 393f
00000350: 455c 9a3f 9c85 153e ffb6 fe3f 3ce1 3340

onnx::Conv_811 f4 [24]
0.04539599 0.46857616 -0.28375998 -0.18551418 0.054799717 0.2199279 0.45929378 0.5616779
0.32216558 -0.6148186 0.09793031 -0.14014955 -0.053628027 0.20073242 0.28253594 -0.08857652
-0.5612692 0.20414804 0.69889116 0.28697655 0.46130362 0.5022901 -0.14922921 -0.18745433
00000000: 25f1 393d 37e9 ef3e fd48 91be 6ef7 3dbe
00000010: ab75 603d c834 613e 8e28 eb3e 1fca 0f3f
00000020: e3f2 a43e c064 1dbf b08f c83d 5d83 0fbe
00000030: 10a9 5bbd cd8c 4d3e 8da8 903e 9b67 b5bd
00000040: 57af 0fbf 2f0c 513e 88ea 323f 97ee 923e
00000050: fd2f ec3e 1696 003f 8bcf 18be 07f4 3fbe
