Raspberry_Pi_scripts/Image_detection/V3/model/yolo-fastestv2-opt_phone_only.onnx (onnx, 971919 bytes, 152 tensors)

output_reg_layers.weight f4 [12, 72, 1, 1]
0	0x3cc0e88a	0.023548383
1	0xbe533484	-0.20625502
2	0x3d0ae80c	0.033912703
3	0xbd867418	-0.06565112
4	0xbd2f066c	-0.042730734
5	0x3d65927a	0.056047894
6	0xbdf60fbe	-0.12014721
7	0xbcaae626	-0.020861696
8	0xbd91773b	-0.071028195
9	0x3c8f2a73	0.017476296
10	0x3de72239	0.11285824
11	0x3de88618	0.11353701
12	0x3da374ca	0.0798126
13	0x3e1f6235	0.15564807
14	0xbd290cd1	-0.04127199
15	0xbd6f89c0	-0.058480978
16	0x3d18fff6	0.03735348
17	0xbd79d27d	-0.060991753
18	0x3e636434	0.22206193
19	0x3e3c9e6e	0.18419811
20	0xbd808f62	-0.06277348
21	0x3dd52206	0.1040688
22	0xbd0b412d	-0.033997703
23	0xbe2fb2f5	-0.1715811
24	0xbca57e83	-0.020201927
25	0x3de3144a	0.11087854
26	0x3ce7ed80	0.028311491
27	0x3acadc11	0.0015476962
28	0xbdb61765	-0.08891181
29	0xbcaab26c	-0.020837031
30	0x3dd0b58b	0.101908766
31	0xbbaaa3a0	-0.005207494
32	0xbdd8c35a	-0.10584135
33	0xbdd48688	-0.10377222
34	0xbcbd5449	-0.02311148
35	0x3dade7c8	0.084914744
36	0xbd50960b	-0.050924342
37	0x3df28bc6	0.11843066
38	0x3e25ad41	0.16179372
39	0x3dbefc63	0.09325483
40	0x3ccb69f8	0.024830803
41	0x3d859638	0.065227926
42	0x3c408d58	0.011752449
43	0x3dc8a777	0.097975664
44	0xbce4cf28	-0.027930811
45	0x3cf77c54	0.030210651
46	0xbd8ccfa6	-0.06875543
47	0xbd83884c	-0.06422481
48	0xbd9666f1	-0.07343853
49	0xbc2fa2d2	-0.010719972
50	0x3dcf7807	0.10130315
51	0xbd7b77f5	-0.061393697
52	0x3e030512	0.12794903
53	0x3db8b7d5	0.09019438
54	0x3ceb467e	0.028720137
55	0x3d677db5	0.056516368
56	0xbd8d88e2	-0.06910874
57	0xbdd0a438	-0.10187572
58	0xbc107354	-0.008816559
59	0xbe062748	-0.13100922
60	0x3ba4e15b	0.0050317473
61	0x3d8a2090	0.06744492
62	0xbe0a2d5e	-0.13493869
63	0x3cf330c8	0.029686347
64	0x3d02fb07	0.03197768
65	0xbd579379	-0.052630875
66	0x3ca121fa	0.019669522
67	0xbdb6f744	-0.08933881
68	0xbcbef11a	-0.023308326
69	0x3caf393c	0.021389596
70	0xbe65da63	-0.22446589
71	0xbd5e3692	-0.05425126
72	0x3da9537f	0.08267879
73	0x3d66ba76	0.056330167
74	0x3d0d1bab	0.034450214
75	0xbdbe0f4a	-0.0928026
76	0x3da2783c	0.07933089
77	0xbe6acd26	-0.2292982
78	0xbc3d290d	-0.011545432
79	0xbbcb412c	-0.0062028375
80	0x3e35d984	0.17758757
81	0x3d3ad2ae	0.045611076
82	0xbdbdacff	-0.09261512
83	0xbd6fe4a3	-0.058567654
84	0xbd14cd16	-0.036328398
85	0xbd64cbe5	-0.05585851
86	0xba044ce6	-0.0005046859
87	0x3d04526a	0.03230516
88	0xbddb96eb	-0.10722145
89	0x3bcfe95a	0.0063449563
90	0x3e170ba3	0.14750533
91	0xbb098be7	-0.002098793
92	0xbd0cadf5	-0.034345586
93	0x3c00efde	0.007869689
94	0x3c4563e0	0.012047738
95	0xbdb414a7	-0.087930016
96	0x3dacc8e8	0.08436757
97	0x3d036900	0.032082558
98	0xbddd1ac3	-0.1079612
99	0x3dd2a87b	0.10286041
100	0x3d0c58d8	0.034264416
101	0x3c37ab72	0.011210309
102	0x3d20d8ae	0.03926914
103	0xbd7b5ed5	-0.061369736
104	0xb96c6a4c	-0.00022546313
105	0x3daef94d	0.08543644
106	0xbdbced92	-0.092250004
107	0xbe64231a	-0.22279015
108	0xbde9b890	-0.11412156
109	0x3d8c5c2e	0.068535194
110	0xbdebc4a2	-0.11512114
111	0x3d19832f	0.037478622
112	0xbd406d58	-0.04697928
113	0xbd70fb78	-0.05883357
114	0x3c2eef23	0.010677132
115	0x3d2596c8	0.040427
116	0x3dcea4ce	0.10090028
117	0x3c819e1e	0.015822466
118	0x3c846d4b	0.016165396
119	0xbd9904d5	-0.07471625
120	0x3daa5e69	0.083187886
121	0x3e137e87	0.14403735
122	0xbc69ee79	-0.014278048
123	0x3dbff883	0.09373572
124	0x3b2f0b09	0.0026709458
125	0x3df1efe9	0.11813337
126	0x3ddd79c3	0.1081424
127	0x3cfd2f11	0.030906232
128	0x3c14a55e	0.00907263
129	0x3da37752	0.07981743
130	0x3dc73fbe	0.09728955
131	0xbdf2bf80	-0.11852932
132	0x3e177868	0.14792025
133	0xbd34f7c6	-0.044181608
134	0x3cf811bb	0.030281892
135	0x3e206ade	0.15665767
136	0x3deb64b2	0.114938155
137	0xbd65f146	-0.0561383
138	0x3de3cdb0	0.11123216
139	0xbe42859d	-0.18996282
140	0xbe19613c	-0.14978498
141	0x3cc00198	0.02343826
142	0x3ca04b07	0.019567026
143	0xbe3b33e1	-0.18281509
144	0xbbdfb497	-0.006826948
145	0xbd3a9ea6	-0.045561455
146	0x3ddf48df	0.10902571
147	0x3d165ded	0.03671067
148	0xbc3465d1	-0.011010603
149	0xbdcc8daf	-0.099879615
150	0x3c914727	0.017734123
151	0xbdf4a9d3	-0.11946454
152	0x3d48fd64	0.049069777
153	0xbd11fd00	-0.03564167
154	0x3d1c5729	0.03816906
155	0x3df8d3d7	0.1214978
156	0xbd54aeb9	-0.05192444
157	0x3d3dd3b0	0.04634446
158	0xbce9ecf5	-0.028555373
159	0xbdda1ed0	-0.10650408
160	0xbccf4c68	-0.025304988
161	0xbd4ea125	-0.05044665
162	0x3dac3de4	0.08410242
163	0xbd6a8262	-0.05725325
164	0x3d8a194b	0.067431055
165	0x3cbf3dfd	0.023344988
166	0xbc9d748a	-0.01922061
167	0xb9fd3bbc	-0.00048300426
168	0x3d2eed80	0.042706966
169	0xbd0c3d70	-0.03423828
170	0xbd7d6cca	-0.061871327
171	0xbdfb28c4	-0.12263635
172	0xbdacead2	-0.08443226
173	0xbdca2724	-0.09870747
174	0xbc7fa715	-0.0156038
175	0x3cd172ad	0.025567377
176	0x3c984f4a	0.018592495
177	0x3cd815fb	0.026377669
178	0x3d0c229b	0.03421269
179	0xbc89a3fa	-0.016801823
180	0x3c1514b2	0.009099172
181	0x3d9f149c	0.07767603
182	0x3ce70c98	0.028204247
183	0xbe225c67	-0.15855561
184	0x3c627385	0.013821487
185	0x3d809b44	0.062796146
186	0xbc237fde	-0.009979216
187	0xbe0f867f	-0.1401615
188	0xbd22c4f9	-0.03973863
189	0x3d0d66e0	0.034521937
190	0xbc332503	-0.010934117
191	0xbd6ecc2f	-0.058300193
192	0x3d2a0f92	0.041518755
193	0xbc733f94	-0.014846701
194	0xbd25c812	-0.040474005
195	0x3d3cd496	0.046101175
196	0xbde41bc6	-0.1113811
197	0xbd36fff6	-0.044677697
198	0x3da1d7b4	0.0790247
199	0x3a622b5d	0.00086276775
200	0xbc28edbc	-0.010310587
201	0xbd8142e8	-0.063115895
202	0xbd29fc5d	-0.041500438
203	0x3dbfbace	0.09361802
204	0xbc5caf74	-0.013469566
205	0xbdf8eb79	-0.12154288
206	0x3d74757b	0.05968235
207	0xbcc1dc1b	-0.023664525
208	0xbd243c08	-0.040096313
209	0x3cba25b6	0.02272306
210	0x3d13ca37	0.03608152
211	0xbd5d57f8	-0.05403897
212	0x3d92e341	0.071722515
213	0x3d23ed59	0.040021274
214	0xbc159c34	-0.00913148
215	0x3d37b9b9	0.044854853
216	0x3deb78bf	0.1149764
217	0x3b265ab2	0.0025383648
218	0x3d88eb68	0.06685525
219	0x3c781a80	0.015143037
220	0xbdc32fb6	-0.095305845
221	0x39ed605f	0.00045275965
222	0x3e0ca72b	0.13735645
223	0xbe6678d1	-0.22507025
224	0xbca04266	-0.019562911
225	0x3c9f2267	0.019425584
226	0x3d33b6b9	0.04387543
227	0x3dd5d7a5	0.104415216
228	0xbd9f5ada	-0.077810004
229	0x3da16458	0.07880467
230	0xbd9e2ebb	-0.07723757
231	0x3c5ff83c	0.0136700235
232	0xbcbe5b11	-0.023236783
233	0xbd964221	-0.07336832
234	0xbd3bcb36	-0.045848094
235	0x3dc21184	0.09475997
236	0xbb8d1999	-0.00430603
237	0xbd05ed23	-0.032696854
238	0xbe24bf8b	-0.16088693
239	0x3d968405	0.073493995
240	0xbbac75e8	-0.005263079
241	0xbd099b06	-0.033595107
242	0x3d698fde	0.057021968
243	0xbdd8f13d	-0.105928876
244	0xbd9c235a	-0.0762393
245	0xbe204ef0	-0.15655112
246	0x3db706ec	0.08936867
247	0x3c15a1c5	0.009132807
248	0xbc0c48cd	-0.008562279
249	0x3ca0930d	0.01960137
250	0xbbbf440e	-0.00583697
251	0xbda0b35f	-0.07846712
252	0xbe16712c	-0.14691609
253	0x3dd34669	0.10316164
254	0xbdb792d6	-0.089635536
255	0xbd961ab3	-0.07329311

output_reg_layers.bias f4 [12]
0	0x3d97cc9d	0.07412074
1	0x3b7d4f68	0.0038652066
2	0x3caeff10	0.021361858
3	0x3e7a168b	0.24422662
4	0x3d43e99c	0.04783021
5	0x3bbbf9a0	0.0057365447
6	0xbe40de2f	-0.18834756
7	0xbd989be3	-0.07451608
8	0xbce2bdff	-0.027678488
9	0xbd319a0d	-0.043359805
10	0xbe93b780	-0.28850937
11	0xbebd3a1c	-0.36958396

output_obj_layers.weight f4 [3, 72, 1, 1]
0	0xbe602d96	-0.2189239
1	0x3e18c583	0.14919095
2	0x3f4ad5d4	0.79232526
3	0xbec6bc8f	-0.38815734
4	0xbe18b286	-0.14911851
5	0xbeb966e5	-0.36211315
6	0xbe1f0e03	-0.15532689
7	0xbe549d81	-0.20763208
8	0xbdfc1e8c	-0.12310514
9	0xbed1c9c0	-0.40974236
10	0x3ef92774	0.48662913
11	0x3f02a12e	0.5102719
12	0x3e897706	0.2684862
13	0x3eab0930	0.33405447
14	0x3e544c13	0.20732145
15	0xbcb1e6da	-0.021716524
16	0x3dc0f5c1	0.09421874
17	0xbe43ac21	-0.1910863
18	0xbe7d44a3	-0.24733214
19	0x3ea36c4a	0.31918555
20	0x3ee3ea7f	0.44514844
21	0xbb4f4818	-0.0031628665
22	0x3ea098bc	0.31366527
23	0x3e9741fc	0.2954253
24	0x3e303f33	0.17211609
25	0xbf16a45e	-0.58844554
26	0x3f0d503b	0.55200547
27	0xbed972e2	-0.4247046
28	0x3e390c68	0.18071139
29	0x3dcef45d	0.10105202
30	0xbe3e4695	-0.18581612
31	0xbd8b744a	-0.0680929
32	0xbe699efb	-0.22814552
33	0x3b984469	0.004646827
34	0xbd394033	-0.04522724
35	0x3deeefb1	0.11666811
36	0xbe476afd	-0.19474407
37	0xbda41d90	-0.08013451
38	0x3f4b2973	0.7936012
39	0xbddffa6a	-0.109364346
40	0x3e3727f1	0.1788633
41	0x3ecad776	0.3961751
42	0xbe343a91	-0.17600466
43	0xbeb54447	-0.35403654
44	0xbc2c9646	-0.010533875
45	0xbe268de7	-0.16265069
46	0x3ec1b71f	0.37835023
47	0x3ee93ced	0.45554295
48	0xbe404e25	-0.1877981
49	0xbf06532a	-0.5247065
50	0xbe76e21b	-0.2410969
51	0x3e7ced7a	0.24699965
52	0x3e987761	0.2977858
53	0xbe61d7dd	-0.22055002
54	0xbe7d026e	-0.24707958
55	0x3f4f223f	0.8091163
56	0x3de2fc39	0.11083264
57	0xbe1aa857	-0.15103279
58	0x3e0c4559	0.13698329
59	0xbee67717	-0.45012733
60	0x3f11d2ae	0.56962097
61	0x3d6fd1db	0.058549743
62	0xbcca479b	-0.024692347
63	0xbdde1d74	-0.108454615
64	0x3e82c3f3	0.25540122
65	0x3f03f204	0.5154116
66	0xbdda3275	-0.10654155
67	0xbe8e4a43	-0.27791032
68	0xbc4aea25	-0.012384926
69	0xbf0da76c	-0.5533359
70	0x3e31d163	0.17365031
71	0xbf1ce5c6	-0.61288106
72	0xbed17b55	-0.40914407
73	0xbcf6e54f	-0.03013864
74	0x3f52a034	0.822757
75	0xbe5ce412	-0.21571377
76	0xbe0b2fe6	-0.1359249
77	0xbeaf21ef	-0.34205577
78	0x3c2dc09a	0.010605002
79	0xbe7d74a0	-0.2475152
80	0xbe55050f	-0.20802711
81	0xbf08d468	-0.53449106
82	0x3ec2d000	0.38049316
83	0x3efeaff8	0.49743629
84	0x3e89bbda	0.26901132
85	0x3eee88f2	0.46588856
86	0x3e2e55da	0.17024937
87	0x3d5fcfd2	0.054641552
88	0xbdbde7b8	-0.092727125
89	0x3e227e9e	0.15868613
90	0x3d558202	0.05212594
91	0x3eb81e62	0.3596068
92	0x3e9f9fdc	0.3117665
93	0x3e131377	0.14362894
94	0x3e8b5cb2	0.27219158
95	0x3ed24819	0.4107063
96	0x3eae6450	0.34060907
97	0xbf23bf99	-0.6396423
98	0x3e7ba09d	0.24572988
99	0xbec78a75	-0.38972822
100	0x3df3d77f	0.11906337
101	0x3e787279	0.24262418
102	0xbd0d4199	-0.034486387
103	0xbd37c3f9	-0.04486463
104	0xbe274d65	-0.16338117
105	0x3e063045	0.13104351
106	0xbe2e9f6a	-0.17052999
107	0x3ef8762b	0.48527655
108	0xbc7eb479	-0.015545958
109	0xbea7ddac	-0.3278631
110	0x3f293bc4	0.6610682
111	0xbeab5410	-0.33462572
112	0x3e2cd741	0.16878988
113	0x3ef90379	0.48635462
114	0xbe14192f	-0.14462732
115	0xbe1adb61	-0.15122749
116	0x3e5384d5	0.2065614
117	0xbe3d5acd	-0.18491669
118	0x3f1aa6d9	0.6041084
119	0x3e62095a	0.2207388
120	0xbee2f0d1	-0.44324353
121	0xbe97d1ce	-0.29652256
122	0xbe10e4c4	-0.14149767
123	0x3de69751	0.1125933
124	0x3ea45c60	0.32101727
125	0xbef1f985	-0.4726068
126	0xbdd3d90d	-0.103441335
127	0x3f214025	0.629885
128	0xbe6991a1	-0.2280946
129	0xbe439c7e	-0.19102666
130	0x3eb9f644	0.36320698
131	0xbf003d73	-0.50093764
132	0x3f06fd25	0.5273002
133	0x3e1c52fd	0.15266033
134	0xbe3a3176	-0.1818293
135	0xbc18ea83	-0.009333256
136	0x3dcbd5a9	0.09952862
137	0x3ec3318c	0.3812374
138	0xbe997947	-0.2997534
139	0xbe10534a	-0.14094272
140	0xbded6199	-0.11590881
141	0xbec8de9f	-0.39232346
142	0x3e421659	0.18953837
143	0xbf210d8d	-0.629113
144	0xbe727bc1	-0.23680021
145	0xbe0c6978	-0.13712108
146	0x3f3a4a0b	0.7276923
147	0xbe8ae6fb	-0.2712935
148	0xbcc1475d	-0.023593599
149	0xbec7eab6	-0.39046258
150	0x3c8c8c3a	0.017156709
151	0xbec81a44	-0.3908254
152	0xbe52eb1e	-0.20597503
153	0xbf025699	-0.5091339
154	0x3ea04822	0.31305033
155	0x3e811705	0.25212875
156	0x3eb43a69	0.35200813
157	0xbe0325d6	-0.12807402
158	0x3e19def5	0.15026458
159	0x3cff11f1	0.031136485
160	0xbea28b66	-0.31746978
161	0x3e971259	0.29506186
162	0x3df7603e	0.120789036
163	0x3eedb902	0.46430212
164	0x3e5e1639	0.21688165
165	0x3e2a17f0	0.16610694
166	0x3e573f5c	0.21020263
167	0x3ea7933b	0.32729515
168	0x3e779f70	0.24181914
169	0xbf3d33b2	-0.73907006
170	0x3d0b2145	0.033967275
171	0xbe919522	-0.28434092
172	0x3e081bb8	0.13291824
173	0x3e8b45de	0.27201742
174	0xbe9fa4b2	-0.3118034
175	0xbea0efba	-0.31432897
176	0xbdbf6245	-0.09344915
177	0xbc3dfe1b	-0.011596228
178	0xbe50a9c8	-0.20377266
179	0x3f0bff56	0.54686487
180	0xbe41a02f	-0.18908761
181	0xbf0d5aef	-0.5521688
182	0x3f0ae2c8	0.5425229
183	0xbed7d1d5	-0.42152277
184	0x3d9b6307	0.07587247
185	0x3f071f26	0.52781904
186	0xbe41dfdb	-0.1893305
187	0xbe88fa0e	-0.26753277
188	0x3b8fde7f	0.0043905373
189	0xbed86bb9	-0.42269686
190	0x3eb71772	0.35760075
191	0x3e61e7d9	0.22061099
192	0xbe227c00	-0.15867615
193	0xbe51d65a	-0.20491925
194	0xbe8e92b9	-0.27846316
195	0xbb8f53ed	-0.0043740184
196	0x3e0ff990	0.14060044
197	0xbe84c133	-0.2592865
198	0xbe840e0b	-0.25791964
199	0x3f2c613f	0.67335886
200	0x3e7acb16	0.24491534
201	0xbeb9fd77	-0.3632619
202	0x3f02ed7e	0.51143634
203	0xbee77390	-0.45205355
204	0x3f04f398	0.51934195
205	0x3e59d0b9	0.21271028
206	0xbe86ea86	-0.26350802
207	0xbd90566e	-0.07047735
208	0x3df660fa	0.120302156
209	0x3ebf4862	0.3735991
210	0xbea4835a	-0.32131463
211	0xbe045a53	-0.12925081
212	0xbe598257	-0.21241127
213	0xbf01d895	-0.507211
214	0x3e246064	0.16052395
215	0xbf06d60d	-0.52670366

output_obj_layers.bias f4 [3]
0	0xc053c013	-3.3085983
1	0xc04dd0b5	-3.2158635
2	0xc055c0ca	-3.339892

output_cls_layers.weight f4 [1, 72, 1, 1]
0	0xbceb463c	-0.028720014
1	0xbdb3da6d	-0.08781896
2	0x3d345fba	0.044036604
3	0x3d2c432a	0.04205624
4	0xbde51268	-0.11185151
5	0x3d42bae6	0.04754152
6	0x3d7f5b76	0.062343083
7	0x3d4d80d2	0.05017168
8	0x3d90e8e3	0.070756696
9	0x3c91c3ac	0.017793499
10	0xbd34e5a2	-0.044164307
11	0xbca34f18	-0.019935176
12	0xbdafb5b1	-0.08579577
13	0x3d03a54e	0.03214007
14	0x3d24fbbe	0.040279143
15	0x3b408420	0.0029375628
16	0xbcd0cbe0	-0.02548784
17	0xbde166e2	-0.110059515
18	0x3da12a69	0.07869417
19	0xbcd915a4	-0.026499577
20	0xbcd3fce4	-0.025877424
21	0xbdee8839	-0.11647076
22	0x3bdc6ec0	0.0067270696
23	0x3d3b6482	0.04575015
24	0xbd955daf	-0.07293259
25	0xbd032580	-0.032018185
26	0xbcfdffec	-0.031005822
27	0x3d6d24a6	0.05789628
28	0x3db0de25	0.08636121
29	0xbd983fa9	-0.07434017
30	0x3db14da7	0.08657389
31	0x3da6b929	0.08140785
32	0x3da55997	0.080737285
33	0xbd353a88	-0.044245273
34	0xbdbbdb22	-0.09172656
35	0x3d0cfa8a	0.03441862
36	0xbdaaa352	-0.08331932
37	0xbdae133e	-0.08499764
38	0x3ce38c74	0.027776934
39	0x3d59132e	0.052996807
40	0xbdeeb99d	-0.11656497
41	0xbdaabe8c	-0.08337125
42	0x3d89d40f	0.067299
43	0xbcf9fe50	-0.030516773
44	0xbdf078a5	-0.11741761
45	0xbc396e40	-0.01131779
46	0x3d787cc6	0.06066587
47	0x3de44ad9	0.111470886
48	0x3cd3581c	0.02579885
49	0xbd5309f6	-0.05152317
50	0xbd09986c	-0.033592626
51	0x3cc2677c	0.023730986
52	0x3ce785dc	0.028262071
53	0xbde0e4d5	-0.10981146
54	0x3d96a383	0.07355406
55	0xbda75e35	-0.081722654
56	0xbdb7b5fa	-0.08970256
57	0x3cfa93b4	0.030588008
58	0x3d257efa	0.040404297
59	0xbcb966b8	-0.022631988
60	0xbcd96f6c	-0.026542388
61	0xbd4deda0	-0.050275445
62	0x3dd1b687	0.102398925
63	0x3acd0800	0.0015642643
64	0x3d849af5	0.06474868
65	0xbca4e420	-0.02012831
66	0x3d76719e	0.060166948
67	0xbc52a320	-0.012856275
68	0xbac30700	-0.0014879405
69	0x3da4fa95	0.08055607
70	0x3d912641	0.070873745
71	0xbdabcc0c	-0.08388528

onnx::Conv_798 f4 [24, 3, 3, 3]
0	0xbdb7d009	-0.089752264
1	0xbd8e6fcf	-0.069549195
2	0xbd6e1a3b	-0.058130484
3	0xbd8a9fa8	-0.06768733
4	0xbdaf0a77	-0.08546918
5	0xbd2ddc2a	-0.042446293
6	0xbdabd811	-0.08390821
7	0xbde6157f	-0.11234569
8	0xbd980bc5	-0.0742412
9	0xbdd0aca6	-0.1018918
10	0xbd8cd82c	-0.06877169
11	0xbda41582	-0.08011915
12	0xbe00ba28	-0.12571013
13	0xbde11d05	-0.10991863
14	0xbd8da4e5	-0.06916217
15	0xbe110ff9	-0.1416625
16	0xbde0393a	-0.10948415
17	0xbda2fa36	-0.0795788
18	0x3e299983	0.16562466
19	0x3e1cf2f2	0.15327051
20	0x3e0870c2	0.13324264
21	0x3e42fb6f	0.19041227
22	0x3e3a1636	0.18172535
23	0x3dec8d03	0.11550333
24	0x3e6c8de8	0.23101008
25	0x3e621728	0.22079146
26	0x3e0fce02	0.1404343
27	0x3ef8fd41	0.48630717
28	0xbe918fd1	-0.28430036
29	0xbe301e7c	-0.17199129
30	0xbeb43a4c	-0.35200727
31	0xbf41dfc0	-0.7573204
32	0x3e660a89	0.22464956
33	0xbcdb14fe	-0.026743408
34	0x3da1a4ae	0.07892738
35	0x3f1c1ed2	0.6098453
36	0x3f72ea85	0.948891
37	0xbe113105	-0.14178856
38	0xbe96b528	-0.29435086
39	0xbea51c6b	-0.32248244
40	0xbf8f65e7	-1.1202973
41	0xbdfd9bed	-0.12383256
42	0xbe84f7f7	-0.25970432
43	0x3d39fd28	0.045407444
44	0x3f77a411	0.9673472
45	0x3f5bc6c5	0.85850173
46	0x3e2cdcdb	0.16881125
47	0xbdaa6e46	-0.08321814
48	0xbd962d51	-0.07332862
49	0xbf5dbfde	-0.8662089
50	0xbebfe154	-0.374766
51	0xbe91cd6f	-0.28477046
52	0xbe293e10	-0.16527581
53	0x3efbb1b7	0.49159023
54	0x3e756b21	0.23966648
55	0x3e45967e	0.1929569
56	0x3e84e92a	0.2595914
57	0x3e160040	0.14648533
58	0x3c2aeb75	0.010432114
59	0x3df177c0	0.117904186
60	0x3e6e4a99	0.23270644
61	0x3e18263d	0.14858337
62	0x3e3f683c	0.18692106
63	0xbea71779	-0.32635096
64	0xbeb76083	-0.3581582
65	0xbe5b6b04	-0.21427542
66	0xbec42810	-0.38311815
67	0xbeed6616	-0.46366948
68	0xbe8b692a	-0.2722867
69	0xbe8fa83b	-0.28058037
70	0xbe9a86a8	-0.3018086
71	0xbe1565fa	-0.14589682
72	0x3da0fd41	0.07860804
73	0x3e42e00b	0.19030778
74	0xbc864c5b	-0.016393831
75	0x3e86a2c4	0.26296055
76	0x3ed04938	0.4068086
77	0x3dc6c02b	0.09704622
78	0x3d0c96ed	0.03432362
79	0x3e00adaa	0.12566248
80	0xbd4435bf	-0.04790282
81	0xbe7c122c	-0.24616307
82	0xbe9eb6d5	-0.30998865
83	0xbde328b1	-0.11091746
84	0xbe9a9c04	-0.30197155
85	0xbeb8915f	-0.3604841
86	0xbe4fbf6d	-0.20287867
87	0xbdd4afac	-0.10385069
88	0xbe4c1293	-0.1992896
89	0xbccd068f	-0.025027541
90	0x3e9991d2	0.29994065
91	0x3e966276	0.29371995
92	0x3e6d55e0	0.2317729
93	0x3e851118	0.25989604
94	0x3e8e25d1	0.27763227
95	0x3e33d270	0.17560744
96	0x3e7713c5	0.24128635
97	0x3e2fffe0	0.17187452
98	0x3e1c14f8	0.15242374
99	0xbd7cd2b7	-0.06172439
100	0xbcab4933	-0.020908928
101	0xbd35d479	-0.044392083
102	0xbd02eec9	-0.031966005
103	0x3d684f6d	0.05671637
104	0xbce8e8db	-0.028431347
105	0xbdaa189f	-0.08305477
106	0xbd597149	-0.053086553
107	0xbda21108	-0.07913405
108	0x3ef4d015	0.47815004
109	0xbeac028a	-0.33595687
110	0xbe83dc04	-0.25753796
111	0x3ecaec22	0.3963328
112	0xbc8fb1c0	-0.017540812
113	0xbe8e4d08	-0.27793145
114	0x3ede1fd3	0.43383655
115	0xbd867214	-0.065647274
116	0xbeaed871	-0.34149507
117	0x3f5ce37b	0.8628461
118	0xbef8976f	-0.48553035
119	0xbf164b1d	-0.58708364
120	0x3f46ea36	0.7770113
121	0xbd7255cf	-0.059163865
122	0xbf0bce66	-0.54611814
123	0x3f3be768	0.7339997
124	0xbd75e1c9	-0.06002978
125	0xbf09c170	-0.5381079
126	0x3f3fc02c	0.74902606
127	0xbedeb106	-0.43494433
128	0xbf015b0d	-0.5052956
129	0x3f1b437a	0.60649836
130	0xbde7e63d	-0.11323211
131	0xbf017486	-0.50568426
132	0x3f3c7d41	0.7362862
133	0xbd5e1de8	-0.05422774
134	0xbf13ebd0	-0.57781696
135	0x3c3b1024	0.011417422
136	0x3d9ce5f2	0.07661046
137	0xbc2f3822	-0.010694535
138	0x3d8cb582	0.06870557
139	0x3db01498	0.08597678
140	0x3d59ebdb	0.053203445
141	0x3d66b136	0.056321345
142	0x3ded12df	0.11575865
143	0x3d6a4b42	0.057200678
144	0x3d29a0e2	0.041413195
145	0x3dc55922	0.09636141
146	0x3d0b719c	0.034043893
147	0x3da838f7	0.0821399
148	0x3da07ddd	0.078365065
149	0x3d5dff92	0.05419881
150	0x3cea4605	0.028597841
151	0x3d97267e	0.07380389
152	0x3ce03fe3	0.027374214
153	0x3d572b56	0.052531563
154	0x3df5c25e	0.11999963
155	0x3dada82f	0.08479344
156	0x3d693ee2	0.056944735
157	0x3da5caec	0.08095345
158	0x3da109a4	0.07863167
159	0xbcfadf00	-0.030623913
160	0x3d8d51a6	0.06900339
161	0x3d3aaa5f	0.045572635
162	0xbec9b72c	-0.39397562
163	0xbbba5d57	-0.0056873965
164	0x3f00ff83	0.5038988
165	0xbee2e960	-0.44318676
166	0xbd0688e1	-0.03284538
167	0x3f0e6131	0.5561705
168	0xbeefcaf4	-0.46834528
169	0xbeaa5a75	-0.33272138
170	0x3f1d62df	0.6147899
171	0xbf09ef4b	-0.5388076
172	0xbd0b3c90	-0.033993304
173	0x3f44d640	0.7688942
174	0xbf1006ba	-0.56260264
175	0xbdfbc851	-0.12294067
176	0x3f4aed24	0.792681
177	0xbf04a071	-0.51807314
178	0xbef64fdb	-0.481078
179	0x3f45fced	0.7733906
180	0xbea1f85f	-0.31634805
181	0xbdc859d6	-0.0978276
182	0x3eff6176	0.49879044
183	0xbe8bff0f	-0.27343032
184	0xbe47d3fd	-0.19514461
185	0x3ee1b089	0.44079998
186	0xbe8790c1	-0.26477626
187	0xbeec8afc	-0.46199787
188	0x3f06485b	0.52454156
189	0x3e62b932	0.22140959
190	0x3e62d765	0.22152479
191	0x3ee8ba3a	0.4545458
192	0xbe9ef685	-0.31047454
193	0xbe5b5b98	-0.21421659
194	0x3e3c9e7f	0.18419836
195	0xbf095d1d	-0.53657705
196	0x38d964c8	0.00010366138
197	0x3ef62098	0.48071742
198	0x3e3e2783	0.1856976
199	0xbd99d1e4	-0.075107366
200	0x3dc06c23	0.093956254
201	0x3ea2f562	0.31827837
202	0xbe4f24af	-0.20228837
203	0xbd37b2ad	-0.044848133
204	0x3ec3703e	0.38171571
205	0xbd839b29	-0.06426079
206	0x3dae751f	0.08518433
207	0x3bc9e102	0.006160856
208	0x3d41f4f7	0.047352757
209	0xbe77482f	-0.2414863
210	0x3e6cb8df	0.23117398
211	0x3e26d81c	0.16293377
212	0xbe19af59	-0.15008296
213	0x3eb7e451	0.3591638
214	0x3d12a31d	0.03580009
215	0x3ca2226f	0.01979181
216	0xbdf68246	-0.120365664
217	0xbe7f2959	-0.24918117
218	0xbdead429	-0.114662476
219	0x3d9584c0	0.07300711
220	0xbd3e79ca	-0.046502866
221	0xbeb3d3f9	-0.3512266
222	0x3e0d2e83	0.13787274
223	0x3ee35c1b	0.44406208
224	0x3e6dd6d2	0.23226479
225	0xbe809d9e	-0.25120252
226	0xbf15a5af	-0.5845594
227	0xbedd4f97	-0.43224785
228	0x3e79d686	0.2439824
229	0xbd1aeefa	-0.037825562
230	0xbee6ef62	-0.4510451
231	0x3ed3f60c	0.41398656
232	0x3f3b74ca	0.7322508
233	0x3ee7646a	0.45193797
234	0xbee97318	-0.45595622
235	0xbf548353	-0.83012885
236	0xbf485e4a	-0.78268874
237	0x3e96d771	0.29461244
238	0xbe01fc19	-0.12693824
239	0xbf137522	-0.57600605
240	0x3f49c2bf	0.78812784
241	0x3f6da18d	0.9282463
242	0x3f2629b6	0.64907396
243	0xbf5a034b	-0.85161275
244	0x3e015adf	0.12632321
245	0x3e7beb2e	0.24601433
246	0x3d359897	0.044334974
247	0x3f51d04f	0.8195848
248	0x3e4e5adc	0.20151848
249	0x3e29821a	0.16553536
250	0x3e81d512	0.25357872
251	0xbf1a3a33	-0.60245055
252	0xbf81bbf6	-1.0135486
253	0x3e7c0dd8	0.24614656
254	0x3e38e45b	0.1805586
255	0x3dd746ef	0.105115764

onnx::Conv_799 f4 [24]
0	0x3efa4d46	0.4888708
1	0x3f5f3d6a	0.87203085
2	0x3f15f45d	0.58575994
3	0x3ee21247	0.4415457
4	0x3c3b75f3	0.0114416955
5	0x3dd16c38	0.10225719
6	0x3db76a09	0.089557715
7	0xbfbfceb6	-1.4984958
8	0x3e24789c	0.16061634
9	0x3d066200	0.032808304
10	0x3db5f462	0.08884503
11	0xba870caa	-0.0010303457
12	0x3eec6693	0.46172008
13	0x3f635be0	0.88812065
14	0x3de899ea	0.11357482
15	0xbb1200ca	-0.0022278302
16	0x3f75885c	0.9591119
17	0x3e734d64	0.23759991
18	0x3dc548d5	0.09633032
19	0x3d45e1a8	0.048310906
20	0x3d8b22d6	0.06793754
21	0x3fdb3b6a	1.7127507
22	0x3cecaf08	0.028892055
23	0x3e082639	0.13295831

onnx::Conv_801 f4 [24, 1, 3, 3]
0	0xbde72ac6	-0.11287455
1	0x3c48f632	0.012265729
2	0x3d08173a	0.033225276
3	0xbfa91b32	-1.3211424
4	0xbeae2eba	-0.34020025
5	0x3fbc3d8c	1.4706283
6	0xbfb17404	-1.386353
7	0xbf11eb8d	-0.57000047
8	0x3fb66acf	1.4251345
9	0x3cc9903e	0.024604913
10	0xbd493d0b	-0.04913048
11	0x3c41d9e1	0.011831732
12	0x3d9247ac	0.071425766
13	0x3d8bfbee	0.06835161
14	0xbc885848	-0.016643658
15	0x3e052e81	0.13006021
16	0x3e374240	0.17896366
17	0xbe116aff	-0.14200972
18	0x3cf63c91	0.030058177
19	0x3e487e61	0.1957946
20	0xbe8e0781	-0.277401
21	0xbdda600f	-0.10662853
22	0x3c8a1721	0.016856732
23	0x3e92aa35	0.28645483
24	0xbf142971	-0.57875735
25	0x3de337d4	0.11094633
26	0x3fd82d71	1.6888868
27	0x3d95fb1c	0.07323286
28	0x3d3f3abd	0.046686877
29	0xbe2cf382	-0.16889766
30	0x3f2d9ef4	0.6782067
31	0x3d8d5572	0.06901063
32	0xbeb1b8a9	-0.34711197
33	0x3fc76922	1.5578959
34	0x3ed9f215	0.42567506
35	0xbf086d36	-0.5329164
36	0x3c44122e	0.011967225
37	0x3da68330	0.08130491
38	0xb9f12e49	-0.00046001587
39	0x3d538924	0.05164446
40	0x3d841d88	0.06450945
41	0xbdaa443f	-0.08313798
42	0x3c40607e	0.0117417555
43	0xbe103af0	-0.14084983
44	0xbe9ea5c8	-0.30985856
45	0xbbfb534e	-0.007669843
46	0x3d3b70b9	0.045761798
47	0xbb4ee363	-0.0031568639
48	0xbf4d9e30	-0.803195
49	0x3db33ab8	0.08751434
50	0x3f30ac4b	0.690129
51	0xbf61f15d	-0.88258916
52	0xbd94bae5	-0.0726221
53	0x3f5aeac1	0.85514456
54	0xbd2c5a8f	-0.04207855
55	0x3d89467c	0.06702897
56	0xbd80d17a	-0.062899545
57	0x3d83cc9a	0.06435509
58	0x3be89bb5	0.00709864
59	0xbddc445d	-0.10755227
60	0x3c07a186	0.008278256
61	0xbda857f3	-0.082199
62	0xbe914ae2	-0.28377444
63	0xbe0ff9ba	-0.14060107
64	0x3d6b6297	0.05746707
65	0x3e09aceb	0.13444869
66	0xbe1f82ce	-0.15577242
67	0x3e9109a7	0.28327677
68	0x3f248f29	0.64280945
69	0xbece722e	-0.40321487
70	0x3f2739ad	0.6532238
71	0x3fa07d99	1.2538329
72	0xbcbb328a	-0.022851247
73	0xbdbc64b7	-0.09198897
74	0x3b9388d1	0.004502394
75	0xbd8b4b0d	-0.06801424
76	0xbca9b4d6	-0.020716112
77	0x3e045437	0.1292275
78	0xbc280a77	-0.010256401
79	0x3c0f880d	0.008760464
80	0x3eb2f539	0.34952715
81	0xbd1a3e7e	-0.037657253
82	0xbdf741e2	-0.12073113
83	0xbd213097	-0.03935298
84	0xbd27407c	-0.04083298
85	0xbd15a564	-0.036534682
86	0xbd82f35a	-0.06394072
87	0xbd9d8ca6	-0.07692842
88	0x3aafbb21	0.0013407209
89	0xbdc91e2f	-0.0982021
90	0x3d3f978d	0.04677539
91	0xbe086858	-0.13321054
92	0x3d973a49	0.07384164
93	0xbc20f62c	-0.009824317
94	0xbe9f5932	-0.31122738
95	0xbeb16a6e	-0.34651512
96	0x3eb3f9fe	0.35151666
97	0xbf3e8c8c	-0.7443321
98	0xbfd38999	-1.6526366
99	0xaa905924	-2.5641392e-13
100	0xaabf58ea	-3.3990112e-13
101	0xaadb564f	-3.8962103e-13
102	0xaa50e1d0	-1.8552456e-13
103	0xaa2a72ab	-1.5138817e-13
104	0x2a8e8361	2.531543e-13
105	0xaa933a86	-2.6153054e-13
106	0x2ab65f3f	3.2395785e-13
107	0x2acbe3d8	3.6218142e-13
108	0x3dcc0a8d	0.0996295
109	0xbc0c9324	-0.008580003
110	0x3cdc9210	0.026925117
111	0x3d8a7e21	0.067623384
112	0xbeb4659d	-0.35233775
113	0xbe9b559c	-0.30338752
114	0x3d350dd1	0.04420263
115	0xbe12cab8	-0.14335144
116	0xbe9cf5cc	-0.30656278
117	0xbdc9f15a	-0.09860487
118	0x3cb04911	0.021519216
119	0x3cfc13f8	0.03077124
120	0xbc72bdb3	-0.014815736
121	0xbd1ddd50	-0.03854114
122	0xbe4bee77	-0.19915186
123	0xbdca9235	-0.09891168
124	0xbaeab9a8	-0.0017908113
125	0xbe11cbdb	-0.14237921
126	0xbccd870f	-0.025088815
127	0x3d6c58ad	0.057701755
128	0x3d4061df	0.046968337
129	0x3d9e1006	0.077179
130	0x3cca689b	0.024708083
131	0xbe00d51c	-0.12581295
132	0xbc383046	-0.011241978
133	0xbc330d41	-0.010928453
134	0xbe84618c	-0.25855672
135	0x2af4a571	4.3457905e-13
136	0x28c5c555	2.1956973e-14
137	0xaa9a4045	-2.740049e-13
138	0xaa454f39	-1.7524601e-13
139	0xaadcd030	-3.922431e-13
140	0x2883daa7	1.4638747e-14
141	0xab100baa	-5.1175264e-13
142	0x2ab85db5	3.2749988e-13
143	0xa9b5084a	-8.0394526e-14
144	0x3da49c4d	0.080376245
145	0xbd366dab	-0.04453818
146	0x3d002f9a	0.031295396
147	0x3e8f7f9b	0.28027043
148	0xbd1aeeb2	-0.037825294
149	0xbf1923dc	-0.5982034
150	0x3f0ed355	0.5579122
151	0xbe41d859	-0.18930186
152	0xbf8bb32e	-1.0914056
153	0xbeabbe35	-0.33543554
154	0x3ebd29fd	0.36946097
155	0x3df65a38	0.120289266
156	0xbf7a3e83	-0.97751635
157	0x3e0cdb4c	0.1375553
158	0x3fa37e13	1.277285
159	0xbeedb840	-0.46429634
160	0x3d1147b9	0.03546879
161	0x3f7bd1c4	0.9836695
162	0xbdab9e83	-0.08379843
163	0xbdb67833	-0.08909645
164	0xbdc2a570	-0.09504211
165	0xbd86f693	-0.06589999
166	0xbe8b3136	-0.27185982
167	0xbe9f4218	-0.31105113
168	0xbd5c43c2	-0.053775556
169	0xbe0a16bc	-0.13485235
170	0xbe36286b	-0.17788856
171	0xbbff44bf	-0.0077901776
172	0x3e3f1a8d	0.18662472
173	0x3dceaf5d	0.10092042
174	0x3cd8a134	0.026444055
175	0x3e3e9926	0.18613109
176	0xbdebb906	-0.115099
177	0x3d58a218	0.05288896
178	0xbcb7f68f	-0.022456435
179	0xbf04ae08	-0.5182805
180	0x3bc67a1a	0.006057036
181	0xbc4953a2	-0.012288006
182	0x3d127a93	0.035761427
183	0x3e1ef1f9	0.15521993
184	0x3cc3d918	0.02390723
185	0xbc8051db	-0.015664032
186	0x3e3241a7	0.17407857
187	0x3d62bc0b	0.055355113
188	0x3b9d69f9	0.0048038927
189	0x3cf1d3d4	0.029519953
190	0xbdaedc76	-0.08538143
191	0x3d0b08c2	0.0339439
192	0x3f38a614	0.72128415
193	0xbd849ae9	-0.06474859
194	0xbf3a0fb8	-0.72680235
195	0x3f2775a1	0.6541386
196	0xbd1fae55	-0.038984615
197	0xbf394a4a	-0.7237898
198	0x3d89870a	0.0671521
199	0x3de6f309	0.11276824
200	0x3d2e6858	0.04257998
201	0x3e4d359d	0.20039983
202	0x3d0af476	0.033924542
203	0xbe3d1169	-0.18463673
204	0x3d3df0b6	0.046372138
205	0xbda989ab	-0.08278211
206	0xbf00bc85	-0.5028766
207	0x3ce8812e	0.02838191
208	0x3be09e54	0.0068548117
209	0x3ceb2047	0.028701914
210	0xbbbcef83	-0.0057658567
211	0x3da51d10	0.08062184
212	0x3de531b9	0.111911245
213	0x3c8dd3b1	0.017312856
214	0x3dfcda40	0.123463154
215	0x3da01a36	0.07817499

onnx::Conv_802 f4 [24]
0	0x3ed413b4	0.41421282
1	0xbe3f2b34	-0.18668824
2	0xbf4fa220	-0.8110676
3	0xbf4ee598	-0.8081908
4	0x3db4c600	0.08826828
5	0x3d3bc20a	0.045839347
6	0x3e07a815	0.13247712
7	0xbd40eca2	-0.04710067
8	0xbde5c3f9	-0.112190194
9	0x3e889bf7	0.26681492
10	0x3edc4040	0.4301777
11	0x33cd51c9	9.560933e-08
12	0x3e0f5b75	0.13999732
13	0x3eb7fdb7	0.35935757
14	0x3d9f0149	0.07763917
15	0x33ca0d12	9.4087355e-08
16	0x3f76d236	0.96414506
17	0xbd08b4b6	-0.033375464
18	0x3e8336d9	0.25627783
19	0x3d589d6c	0.052884504
20	0xbe0c3833	-0.13693313
21	0x3e7f5d0d	0.2493784
22	0x3defd958	0.11711377
23	0xbe3146fb	-0.17312233

onnx::Conv_804 f4 [24, 24, 1, 1]
0	0xbc4f19f9	-0.01264047
1	0x3dc38576	0.0954694
2	0x3cdc8809	0.026920335
3	0x3ca74263	0.020417398
4	0xbc333471	-0.010937796
5	0x3b407d34	0.0029371502
6	0x3d08f2c6	0.03343465
7	0xbc9104c1	-0.017702462
8	0xbb9132cf	-0.0044311057
9	0x3dd1ed0e	0.10250293
10	0x3c61f3e5	0.013791059
11	0xab83b4ec	-9.358326e-13
12	0xbeac6b20	-0.3367548
13	0xbdfa0a73	-0.12209024
14	0xbc9947df	-0.018711029
15	0xab6af2c2	-8.3470394e-13
16	0xbcdf29c5	-0.027241597
17	0x3e86a5a3	0.26298246
18	0xbd840cf2	-0.064477816
19	0x3c392041	0.011299194
20	0x3d81ec52	0.06343903
21	0xbd9da7e1	-0.07698036
22	0xbca41579	-0.02002977
23	0xbd0fdeb9	-0.035124514
24	0x3d839b3b	0.06426092
25	0x3e10ee47	0.14153396
26	0xbdb49676	-0.08817761
27	0xbcf22cca	-0.029562373
28	0xbd1bac88	-0.038006335
29	0x3d2eae87	0.04264691
30	0x3cf40f5c	0.02979248
31	0xbcc7bcfc	-0.024382107
32	0x3d3552c9	0.044268403
33	0x3d2f67b6	0.042823516
34	0x3f9dbfc3	1.2324146
35	0x2c6f173e	3.3976845e-12
36	0xbcc4e444	-0.024034627
37	0xbe834fd2	-0.25646836
38	0xbc2eeba2	-0.010676296
39	0x2bacd452	1.2280266e-12
40	0xbe15b336	-0.14619145
41	0xbcb03445	-0.021509299
42	0xbd1e299b	-0.038613897
43	0x3d99ffb7	0.07519477
44	0x3d58c5db	0.052923065
45	0xbd8434a9	-0.06455357
46	0xbcaf13bc	-0.021371715
47	0xbcbdd3be	-0.023172256
48	0x3da289a8	0.07936412
49	0x3ce0357b	0.027369251
50	0x3ec2ae03	0.38023385
51	0x3d5790cf	0.052628335
52	0xbcb60223	-0.022217816
53	0xbc095553	-0.008382159
54	0x3d00fa5c	0.03148876
55	0x3d5e45b1	0.05426568
56	0xbd645afb	-0.05575083
57	0x3df4518e	0.11929618
58	0xbebccae1	-0.36873534
59	0xab91613c	-1.0329858e-12
60	0xbd088548	-0.033330232
61	0xbd46f50e	-0.048573546
62	0x3da13d38	0.07873005
63	0xaafe74d6	-4.5200535e-13
64	0xbee7c0c2	-0.4526425
65	0x38d1e263	0.000100080644
66	0xbddd7768	-0.108137906
67	0xbbbfc1b9	-0.005851951
68	0xbd10ceca	-0.03535346
69	0x3bc095f7	0.005877252
70	0x3d0c9eea	0.03433124
71	0xbd98bdfc	-0.07458112
72	0xbddf8fc1	-0.10916091
73	0xbe7cdf48	-0.2469455
74	0x3c7a2d4a	0.015269587
75	0x3da78060	0.081787825
76	0xbd885102	-0.06656076
77	0xbbbfc877	-0.0058527547
78	0x3e8d7b59	0.2763317
79	0x3d3a7578	0.045522183
80	0xbc49d22b	-0.012318174
81	0x3d5fe405	0.054660816
82	0x3d45e083	0.048309814
83	0xab9c26b1	-1.1095206e-12
84	0x3e603701	0.21895982
85	0x3ee27701	0.44231418
86	0xbe291208	-0.16510785
87	0x2bd52dd7	1.5147283e-12
88	0xbcff9e80	-0.031203508
89	0x3d8b99af	0.06816422
90	0xbf293480	-0.66095734
91	0x3bed224a	0.0072367536
92	0x3d486538	0.048924655
93	0xbd0709f3	-0.032968473
94	0x3d46129b	0.048357587
95	0xbf05aea1	-0.5221959
96	0x3de6aa84	0.11262992
97	0xbda548f0	-0.08070552
98	0x3cf905bb	0.03039824
99	0x3f6d432f	0.9268064
100	0xbcd45b65	-0.025922487
101	0xbc2ece05	-0.010669236
102	0x3b720554	0.0036929445
103	0xbd13b835	-0.036064345
104	0xbcdbc3f2	-0.026826832
105	0xbd89b02b	-0.067230545
106	0x3de290fb	0.11062809
107	0x2ae2353b	4.01826e-13
108	0x3d0e9e2d	0.034818817
109	0x3d6b757a	0.05748508
110	0x3c17953f	0.009251892
111	0xab087601	-4.848067e-13
112	0x3ce37dd7	0.027769966
113	0xbd112d9a	-0.03544388
114	0xbcd88fef	-0.02643582
115	0x3d0298b2	0.031883903
116	0x39e1a461	0.00043037816
117	0xbd0860fb	-0.033295613
118	0x3c52f5ca	0.0128759835
119	0xbd63912e	-0.055558376
120	0x3e2dbf68	0.16967547
121	0x3dd21f78	0.102599084
122	0x3d1a62ba	0.03769181
123	0xbcf112fd	-0.029428
124	0x3d248433	0.040165137
125	0x3e695968	0.22788012
126	0xbe28fda0	-0.16503
127	0x3e05b307	0.13056575
128	0xbcd699ad	-0.026196325
129	0xbd9e7bb6	-0.0773844
130	0x3d0fe011	0.035125796
131	0xac18ef26	-2.1733253e-12
132	0xbdc044a9	-0.09388096
133	0xbe1b0ec7	-0.15142356
134	0x3b325d45	0.0027216238
135	0xab94707d	-1.0547254e-12
136	0x3e03e797	0.12881313
137	0xbdda4bfa	-0.10659023
138	0x3ec1f9ad	0.378858
139	0x3baa3143	0.0051938607
140	0xbe0baad0	-0.13639379
141	0x3f227662	0.6346189
142	0x3b455aa6	0.0030113845
143	0x3e9c5e70	0.305408
144	0xbca48a37	-0.020085437
145	0x3d293e21	0.041319016
146	0xbbd115b1	-0.0063807596
147	0x3d581241	0.052751783
148	0x3d6ac7b1	0.057319347
149	0x3f2a04dd	0.6641367
150	0xbdc77470	-0.097390056
151	0x3e3818f7	0.17978273
152	0xbcab1269	-0.020882802
153	0xbda7aa54	-0.081867844
154	0x3c5a02e1	0.01330635
155	0xab63f43a	-8.0985533e-13
156	0x3d448323	0.047976624
157	0x3cf74529	0.030184345
158	0xbd8924b9	-0.066964574
159	0x2b6471fe	8.116007e-13
160	0xbda57f56	-0.08080928
161	0x3d1ce07c	0.038300022
162	0x3c355fd5	0.011070211
163	0xbdd7fac1	-0.105458744
164	0xbec9a385	-0.39382568
165	0x3d3bbede	0.045836322
166	0xbd906f10	-0.070524335
167	0xbcf12bb1	-0.029439779
168	0xbdae8942	-0.085222736
169	0x3df7c0cd	0.12097321
170	0x3d896130	0.0670799
171	0xbcde8eac	-0.02716764
172	0xbe07a6ad	-0.13247176
173	0x3d1802cc	0.037112042
174	0x3d348d47	0.044080045
175	0xbdc1a92c	-0.09456095
176	0x3e0925cc	0.13393325
177	0x3e695fa6	0.22790393
178	0xbde5a610	-0.112133145
179	0x2b439fd2	6.949971e-13
180	0xbdef9dfb	-0.11700054
181	0xbd52dce5	-0.051480193
182	0x3d1cbd52	0.038266487
183	0x2bc37d54	1.3890369e-12
184	0xbc9d4af0	-0.019200772
185	0xbcad8646	-0.02118219
186	0xbecd450a	-0.40091735
187	0xbce7b0ad	-0.028282488
188	0x3cb2a047	0.021804942
189	0xbd9b4ae5	-0.075826444
190	0xbd699d1c	-0.057034597
191	0x3d4a097f	0.049325462
192	0xbd08b272	-0.033373304
193	0xbc97ceca	-0.018531222
194	0x3f08c66a	0.53427756
195	0xbdaef342	-0.085424915
196	0xbc22a69a	-0.009927416
197	0x3c8707de	0.016483244
198	0x3ce350df	0.027748523
199	0x3aaf6a33	0.001338309
200	0xbc3f06e2	-0.011659356
201	0xbced927b	-0.029000511
202	0x3bc9f6c2	0.006163449
203	0xaaba014d	-3.304114e-13
204	0xbd613846	-0.054985307
205	0xbc1e20ae	-0.009651346
206	0xbd0e28c9	-0.034706865
207	0xab608de8	-7.977772e-13
208	0x3dbe0835	0.09278909
209	0x3cbd0f61	0.023078622
210	0x3b1c0b72	0.0023810533
211	0xbcccb39f	-0.024987994
212	0x3cbb629a	0.022874165
213	0xbbc50bc7	-0.006013367
214	0xbc33ec15	-0.010981579
215	0x3bcd2a83	0.0062611713
216	0x3f3f6868	0.74768686
217	0x3c757905	0.014982467
218	0xbe6f9773	-0.23397617
219	0xbe28d8d8	-0.1648897
220	0x3dc5d4c7	0.09659725
221	0x3df24aa5	0.118306436
222	0xbc0cac67	-0.008586026
223	0xbdb7af51	-0.08968986
224	0x3d90db8d	0.07073126
225	0x3cd30099	0.02575712
226	0x3f0a0d39	0.53926426
227	0x2c32dc23	2.5417522e-12
228	0x3d0d1ddc	0.034452304
229	0xbdc6434e	-0.09680806
230	0xbd5ea6d3	-0.054358315
231	0xab2d9f71	-6.1683216e-13
232	0x3f87b4c2	1.0602038
233	0xbd51ba10	-0.051202834
234	0x3d891066	0.06692581
235	0x3dbfe851	0.09370483
236	0x3dd67514	0.1047155
237	0xbde6efa0	-0.112761736
238	0x3d780da0	0.06055987
239	0x3dfdcca2	0.12392546
240	0xbc879194	-0.01654891
241	0x3e536fa8	0.20648062
242	0x3dd1ea39	0.102497526
243	0xbbf3ef37	-0.007444288
244	0x3df9309b	0.12167474
245	0xbd025ab2	-0.031824775
246	0x3e72f6dc	0.23726982
247	0xbdfa10c8	-0.12210232
248	0xbd8d311b	-0.06894132
249	0x3d95095f	0.07277178
250	0xbd6de728	-0.058081776
251	0xab815b79	-9.19139e-13
252	0x3c72c931	0.014818476
253	0xbdc0b96b	-0.09410366
254	0x3a8921c4	0.0010462333
255	0xaafc94ac	-4.4867354e-13

onnx::Conv_805 f4 [24]
0	0x3e2edeb6	0.17077145
1	0xbdea119a	-0.114291385
2	0x3e16098e	0.14652082
3	0x3ec81c7c	0.39084232
4	0x3e032c02	0.12809756
5	0x3d3144ab	0.043278378
6	0x3a18939d	0.0005820336
7	0x3e2a9e8c	0.16662043
8	0x3d39969a	0.04530964
9	0xbccda32d	-0.025102222
10	0x3d15f861	0.036613826
11	0x3d84f6fc	0.06492421
12	0x3e7ee616	0.24892458
13	0x3e3c8a93	0.18412237
14	0xbb55112c	-0.0032511456
15	0x3df53fd7	0.11975067
16	0x3ed42158	0.4143169
17	0x3d994257	0.074833564
18	0x3e0bdbe8	0.13658106
19	0x3d451592	0.048116274
20	0x3ed66d74	0.4188038
21	0xbdb8acc2	-0.09017326
22	0x3d1f8d45	0.038953084
23	0x3db73f6b	0.08947643

onnx::Conv_807 f4 [24, 24, 1, 1]
0	0x3e08efaa	0.13372675
1	0x3cc8811b	0.024475625
2	0x3e152b95	0.14567406
3	0x3e210382	0.15723994
4	0x3c3d0816	0.011537572
5	0x3d9d727e	0.07687853
6	0x3c1c8877	0.00955402
7	0x3da998dc	0.08281109
8	0x3ca5a071	0.020218106
9	0x3c092133	0.008369732
10	0x3ce265e5	0.027636478
11	0x2b0c7745	4.990351e-13
12	0x3db7d46f	0.08976065
13	0x3ca4fa17	0.020138783
14	0x3c947714	0.018123187
15	0xa98647b8	-5.9632366e-14
16	0x3e5d0ae9	0.21586193
17	0x3dd80fb0	0.10549867
18	0x3c8b183b	0.016979327
19	0x3d0164d0	0.031590283
20	0x3cb8e2ea	0.022569139
21	0x3cfe867b	0.031069985
22	0x3d10d9f8	0.03536412
23	0xbb7d2e90	-0.003863249
24	0x3d97136e	0.07376753
25	0xbcc907f2	-0.024539921
26	0x3ce5f54d	0.02807107
27	0x3d0baf62	0.034102805
28	0x3e83a8da	0.2571476
29	0x3ed55a7c	0.41670597
30	0x3e38bf8f	0.18041824
31	0x3c98cfd7	0.018653793
32	0xbe9dad18	-0.30796123
33	0xbd04d311	-0.03242785
34	0x3d67d787	0.056602027
35	0xab96a79a	-1.070466e-12
36	0xbd4a11c9	-0.049333367
37	0x3d563678	0.05229804
38	0xbea2e297	-0.318135
39	0x2952e282	4.682583e-14
40	0x3de1db5e	0.11028169
41	0x3d29fe2c	0.041502163
42	0x3cd51ff4	0.026016213
43	0xbebdea91	-0.37093022
44	0xbe228a1b	-0.15872996
45	0x3e488446	0.19581708
46	0x3e09b773	0.13448887
47	0xbe574c0d	-0.21025105
48	0x3cf85638	0.03031455
49	0xbcaf04a3	-0.021364516
50	0x3cb0fc30	0.021604627
51	0x3c5ad090	0.013355389
52	0x3e1de4a2	0.15419248
53	0xbe3a876f	-0.18215726
54	0xbf0d48e9	-0.5518938
55	0xbd4391be	-0.047746412
56	0x3d25e488	0.040501148
57	0xbdb7db73	-0.089774035
58	0x3cbb4e4f	0.022864489
59	0x2b857b34	9.484414e-13
60	0xbb663677	-0.0035127678
61	0x3d2469dd	0.04014002
62	0x3d2bc114	0.04193218
63	0x2a42cc18	1.730147e-13
64	0x3daa3670	0.083111644
65	0xbddbc19c	-0.107302874
66	0xbc8c6034	-0.017135717
67	0x3d0ea80c	0.03482823
68	0x3d5d6a2a	0.054056324
69	0xbe633a19	-0.22190131
70	0xbdb6a8c6	-0.0891891
71	0xbd0063c1	-0.031345133
72	0x3e29cb12	0.16581371
73	0xbef53f06	-0.47899646
74	0x3d878cd6	0.06618659
75	0x3da02c91	0.07821
76	0x3d6ade68	0.05734101
77	0x3da259d8	0.079272926
78	0x3d9aa9d8	0.075519264
79	0xbe3d07f6	-0.18460068
80	0x3dca8c41	0.098900326
81	0xbeff2bd5	-0.4983813
82	0xbe2fbcde	-0.17161891
83	0x2b2fd4e1	6.246792e-13
84	0x3dd8113e	0.10550164
85	0x3e7756ad	0.24154158
86	0xbd160572	-0.036626287
87	0xab562beb	-7.608902e-13
88	0x3daeb139	0.08529896
89	0x3d904c31	0.07045782
90	0xbe264f26	-0.1624113
91	0xbd204189	-0.039125
92	0xbebfcf3b	-0.37462792
93	0x3e8063f6	0.25076264
94	0x3e418ce6	0.18901405
95	0xbed48d0a	-0.41513854
96	0xbe67e0f7	-0.22644411
97	0xbd41e163	-0.047334086
98	0xbe0bdd93	-0.13658743
99	0xbe30fc4f	-0.17283748
100	0xbe8e2ca5	-0.27768436
101	0x3d91fa46	0.07127814
102	0xbe8470a6	-0.25867194
103	0xbd978a8e	-0.07399474
104	0x3da6a0db	0.081361495
105	0xbdba4086	-0.09094338
106	0xbe1af593	-0.15132742
107	0x2b80a851	9.141664e-13
108	0xbd25e7f2	-0.040504403
109	0xbd0fe4b7	-0.03513023
110	0x3e04514d	0.12921639
111	0x2bc397e5	1.3897743e-12
112	0xbee75e24	-0.4518901
113	0xbd82075d	-0.06349061
114	0xbde1542b	-0.11002382
115	0x3df785de	0.1208608
116	0xbc8e09b2	-0.017338607
117	0x3d90357a	0.0704145
118	0xbe8482bd	-0.25880995
119	0x3d045e4b	0.032316487
120	0xbdf53d8b	-0.11974629
121	0xbccfd9c6	-0.025372397
122	0xbe426d6b	-0.18987052
123	0xbe1963a8	-0.14979422
124	0xbc13f86e	-0.009031398
125	0xbd4c64fe	-0.049901
126	0xbca9a01e	-0.020706233
127	0xbddeba2d	-0.10875354
128	0xbcc649be	-0.024205085
129	0x3bc00a56	0.005860607
130	0xbd4108d8	-0.047127575
131	0x29ffd276	1.1360784e-13
132	0xbde7b10b	-0.11313065
133	0xbcee495b	-0.029087713
134	0x3b73596a	0.0037132152
135	0x29c4ae53	8.734389e-14
136	0xbe58f81c	-0.21188396
137	0xbe15f1e0	-0.14643049
138	0xbcdb7aa3	-0.026791876
139	0xbc880af6	-0.01660679
140	0xbced59b2	-0.028973434
141	0xbd3e4456	-0.04645189
142	0xbd229185	-0.03968956
143	0xbba65127	-0.005075592
144	0x3d7e7d8b	0.062131446
145	0x3e88cc69	0.26718453
146	0x3da54dba	0.08071466
147	0x3d6183e0	0.055057406
148	0xbeaf5af1	-0.3424907
149	0x3ea38111	0.31934407
150	0xbeb3ae9a	-0.35094148
151	0xbb5ae119	-0.0033398329
152	0xbe820f0c	-0.25402105
153	0x3e740d86	0.23833284
154	0x3d98f7db	0.0746915
155	0x2b23d8e4	5.821023e-13
156	0xbd651061	-0.055923823
157	0xbf00d5c7	-0.503262
158	0xbe74067d	-0.238306
159	0x2bc3a35f	1.3900928e-12
160	0x3e2dd18d	0.16974469
161	0x3dd3472b	0.103163086
162	0x3e155325	0.14582498
163	0xbd7064ae	-0.058689766
164	0x3ec70497	0.3887069
165	0x3e694093	0.2277854
166	0xbec9d0b8	-0.39417052
167	0x3e87868a	0.26469833
168	0x3cb4286d	0.021991933
169	0x3e8e55cb	0.2779983
170	0x3e016711	0.12636973
171	0x3d75e1ca	0.060029782
172	0xbd6aaa4f	-0.057291325
173	0xbcf6a20f	-0.030106572
174	0xbd7773e3	-0.060413253
175	0x3df11aac	0.117726654
176	0xbec50d35	-0.3848664
177	0x3e77737a	0.24165145
178	0xbd8abb74	-0.06774035
179	0xab92136e	-1.0379317e-12
180	0x3e055df8	0.13024127
181	0xbec212f6	-0.3790509
182	0xbe96c338	-0.29445815
183	0x2b7ea614	9.0469407e-13
184	0x3d4bd82a	0.049766697
185	0x3d8f96cb	0.07011183
186	0x3e092937	0.13394628
187	0xbe9ab087	-0.30212805
188	0x3e908ede	0.28234
189	0x3e2ebd79	0.17064466
190	0xbd1c3a7c	-0.038141713
191	0x3e7c8662	0.24660638
192	0xbd3f4569	-0.046697054
193	0xbd81bbca	-0.06334646
194	0x3d1c8467	0.038212206
195	0xbd4e9b62	-0.050441153
196	0xbf07a962	-0.5299283
197	0xbe179c1c	-0.14805645
198	0x3e5ea2a5	0.21741731
199	0xbd4e6a8b	-0.050394576
200	0xbd033e25	-0.032041688
201	0xbd130664	-0.035894766
202	0xbb3600ae	-0.0027771401
203	0xab469f86	-7.0565114e-13
204	0xbdad8cfc	-0.08474156
205	0xbdeda930	-0.116045356
206	0x3d8a2fa4	0.06747368
207	0xa7be8248	-5.2876845e-15
208	0xbccb0607	-0.024783147
209	0x3dea7dca	0.114497736
210	0x3dbac30a	0.09119232
211	0x3d1c4383	0.03815032
212	0xbdd233f1	-0.10263813
213	0xbdc2dd1c	-0.095148295
214	0xbce59dc8	-0.028029338
215	0x3d551d16	0.05202969
216	0x3da745f9	0.08167643
217	0x3e277be4	0.16355854
218	0x3d86d27f	0.06583118
219	0x3db2f764	0.08738592
220	0xbebdfef8	-0.37108588
221	0x3e37a25c	0.17933029
222	0xbebc1c5f	-0.36740395
223	0x3e18cca0	0.14921808
224	0x3dbbd041	0.09170581
225	0x3bfc7d87	0.0077053937
226	0x3d2b4a2c	0.041818783
227	0xab7691aa	-8.7598906e-13
228	0x3d9fff1e	0.078123316
229	0x3d58bcdd	0.05291449
230	0x3de7a348	0.1131044
231	0xaae5d102	-4.08236e-13
232	0x3d775631	0.060384933
233	0x3d765c96	0.06014689
234	0xbd57ecab	-0.05271594
235	0x3e30e475	0.1727465
236	0x3c472377	0.012154452
237	0x3e1f546c	0.15559548
238	0xbeaf3380	-0.3421898
239	0xbcd872b8	-0.02642189
240	0x3e04477c	0.12917894
241	0x3d81929f	0.06326794
242	0x3d50c417	0.050968256
243	0x3c3f3c9e	0.011672167
244	0x3dacac92	0.08431353
245	0x3d1e9ef3	0.038725805
246	0xbd93ad03	-0.07210734
247	0x3d0d3fdc	0.03448473
248	0x3e0c0e04	0.13677222
249	0x3db1c3d3	0.08679929
250	0x3c667c0a	0.014067659
251	0x2a8d3005	2.5079952e-13
252	0x3deb01e8	0.11474973
253	0x3d0a2e53	0.033735584
254	0xbe6ddb91	-0.23228289
255	0xabb45332	-1.2812861e-12

onnx::Conv_808 f4 [24]
0	0xbf0e554b	-0.55598897
1	0xbeba00d8	-0.3632877
2	0x3ed56667	0.4167969
3	0xbe189630	-0.14901042
4	0x3f610322	0.87895405
5	0x3f88e592	1.0695059
6	0xbeb587a1	-0.3545504
7	0x3d5a52a0	0.053301454
8	0x3ef1784c	0.47162092
9	0xbeadbbc8	-0.33932328
10	0xbee59ca6	-0.44846076
11	0x3ebc5258	0.36781573
12	0x3ec53dc6	0.38523692
13	0xbeeaa268	-0.4582703
14	0xbf836404	-1.0264897
15	0x3fd40769	1.6564761
16	0x3ca99e00	0.020705223
17	0xbe6ad4d8	-0.22932756
18	0xbed630de	-0.41834158
19	0x3e1e1be3	0.15440325
20	0xbe1992ae	-0.1499736
21	0x40282fd8	2.6279202
22	0x3ee4a10e	0.44654125
23	0xbe1a3db7	-0.15062605

onnx::Conv_810 f4 [24, 1, 3, 3]
0	0xbe243db1	-0.16039158
1	0x3fa05eda	1.2528946
2	0x3e2007ea	0.15628019
3	0xbfc12c68	-1.5091677
4	0xbea5ae24	-0.3235942
5	0xc08d92ce	-4.4241705
6	0xbdf2f648	-0.11863381
7	0x4037e6df	2.8734663
8	0x3fda3b2a	1.7049305
9	0xbe0cecc0	-0.13762188
10	0xbec8ba1b	-0.39204487
11	0xbe193331	-0.14960934
12	0xbe9bf786	-0.30462283
13	0xbf857bfc	-1.0428462
14	0xbf33a2ff	-0.7017059
15	0xbc9472f0	-0.018121213
16	0xbea715eb	-0.3263391
17	0xbed6ba98	-0.41939235
18	0xbe4bb1fa	-0.19892111
19	0xbda43c92	-0.08019365
20	0x3e9ed155	0.31019083
21	0x3f279173	0.6545631
22	0x3f9619b5	1.1726595
23	0x3ef2784e	0.4735741
24	0x3ee8feac	0.455068
25	0x3f7cd160	0.9875698
26	0x3f257e33	0.6464569
27	0x3d74d2a1	0.059771184
28	0x3e9417a8	0.28924298
29	0x3ec2455b	0.3794354
30	0x3eca4925	0.3950893
31	0x3f37138e	0.71514213
32	0x3f49bea7	0.7880654
33	0x3e509b8c	0.20371836
34	0x3ef6674b	0.4812568
35	0x3f4f5776	0.8099283
36	0xbdb12988	-0.086504996
37	0x3fc5ffcd	1.5468689
38	0xbf848c40	-1.0355301
39	0xbf1f9f42	-0.62352383
40	0x3fb9edc1	1.4525682
41	0xbfdef17f	-1.7417449
42	0xbec3c0f5	-0.38233152
43	0x3fe38d1a	1.7777436
44	0xbfa4482e	-1.2834527
45	0x3f3e31a6	0.7429451
46	0xbf9303cd	-1.1485535
47	0x3fd2addf	1.6459311
48	0x3f01e811	0.5074473
49	0xc08d9b99	-4.425244
50	0xbd311fbd	-0.04324316
51	0x3fa8132f	1.3130854
52	0xbf93fa51	-1.1560766
53	0x4012c52e	2.293285
54	0xbdbabb55	-0.09117762
55	0xbe2e06a1	-0.16994716
56	0xbe94d8d0	-0.29071665
57	0xbc4811b1	-0.012211249
58	0xbf06e998	-0.52700186
59	0xbf1a545b	-0.60284966
60	0xbe8c6d4e	-0.27427143
61	0xbed16a8e	-0.40901607
62	0xbf2eb2ac	-0.6824138
63	0xbd194370	-0.03741783
64	0xbe93389c	-0.28754127
65	0xbe40931c	-0.18806118
66	0xbe5b487b	-0.21414368
67	0xbf0cb297	-0.54960006
68	0xbed6170c	-0.41814458
69	0xbdd65fd2	-0.10467495
70	0xbeaa8366	-0.33303374
71	0xbef21407	-0.47280905
72	0xbdbda2c4	-0.09259561
73	0xbd4d1a75	-0.05007406
74	0xbe784055	-0.2424329
75	0xbe5ee0f7	-0.21765505
76	0xbf9b46d3	-1.2130989
77	0xbee0ce94	-0.43907607
78	0xbf0ceec5	-0.55051833
79	0xbf547c2f	-0.8300199
80	0xbf6bd37a	-0.9211956
81	0x3cd558f3	0.02604339
82	0x3ec730ff	0.3890457
83	0x3e3e3509	0.18574919
84	0x3e928832	0.28619534
85	0x3f385d99	0.7201782
86	0x3f174f10	0.59105015
87	0x3d73c0d5	0.05951007
88	0x3eac33ba	0.33633214
89	0x3ec5502d	0.38537732
90	0xbe888299	-0.26662138
91	0xbe78f331	-0.2431152
92	0xbec01f81	-0.37524036
93	0xbe9886c9	-0.29790333
94	0xbf1ee9fd	-0.6207579
95	0xbed984b9	-0.42484072
96	0xbd6e39c8	-0.058160573
97	0xbe38dfca	-0.18054119
98	0xbe6f45e9	-0.23366512
99	0x3e99189e	0.29901594
100	0x3ecd4e24	0.4009868
101	0x3f323a61	0.6962033
102	0x3e2be51d	0.16786619
103	0x3f508501	0.8145295
104	0x3f57f422	0.8435689
105	0xbe7abe38	-0.24486625
106	0x3ee46fa6	0.4461643
107	0x3e0683fa	0.13136283
108	0x3f30442b	0.68854016
109	0x3fa5b13b	1.2944711
110	0xbea7939a	-0.327298
111	0x3eec9b1c	0.4621209
112	0x3f8e4c1a	1.1116974
113	0xbf42f2fa	-0.76152
114	0x3e007e92	0.12548283
115	0x3dc4d204	0.0961037
116	0xbfc82639	-1.5636665
117	0xbdfac97d	-0.12245462
118	0xbe8d955d	-0.27653018
119	0xbed6d40b	-0.4195865
120	0xbe9e7bc2	-0.30953795
121	0xbf4f8e6f	-0.8107671
122	0xbfcce63c	-1.6007762
123	0xbe8fe2f7	-0.28102848
124	0xbf526f05	-0.8220065
125	0xbf8bdc3b	-1.0926584
126	0x3b4218dc	0.0029616868
127	0xbe8da9b9	-0.2766855
128	0xbdd3812f	-0.10327374
129	0xbc73916e	-0.014866216
130	0xbe964c04	-0.2935487
131	0xbef00c4e	-0.46884388
132	0xbdcf89e2	-0.10133721
133	0xbf0de247	-0.55423397
134	0xbf117685	-0.5682147
135	0x3e98164c	0.2970451
136	0x3e7c2c0a	0.24626175
137	0x3f2275fe	0.6346129
138	0xbe695895	-0.22787698
139	0xc032abc0	-2.7917328
140	0xbfe71f7c	-1.8056483
141	0x3f4775d7	0.77914184
142	0x3f9a4462	1.2052119
143	0x3ff9b7d4	1.9509225
144	0x3e03c95c	0.12869781
145	0x3e15f6a9	0.14644875
146	0x3ddd1e83	0.10796835
147	0x3e4ae02d	0.19812079
148	0x3ef3c5fc	0.47611988
149	0x3edc56ae	0.4303488
150	0x3e1765b6	0.14784893
151	0x3ea725df	0.3264608
152	0x3f045744	0.51695657
153	0xbe1613cb	-0.14655988
154	0xbe741a13	-0.23838072
155	0xbeb7882b	-0.35846075
156	0xbea5955e	-0.3234052
157	0xbf5eb46f	-0.8699407
158	0xbf2c1519	-0.6721969
159	0xbe3c5d34	-0.18394929
160	0xbf16feb1	-0.5898238
161	0xbf4aa0d6	-0.79151666
162	0x3ca42507	0.020037187
163	0x3e71881e	0.23587081
164	0xbe1e647c	-0.15468019
165	0x3c0f954c	0.0087636225
166	0xbe785c37	-0.24253927
167	0xbfec2269	-1.8448001
168	0x3d8203fc	0.06348416
169	0xbfef7d6f	-1.8710154
170	0xc043d56e	-3.0599017
171	0x3dcc83d2	0.0998608
172	0xbea66a73	-0.3250309
173	0xbe593fb8	-0.21215713
174	0xbeee33a6	-0.4652378
175	0xbf3fd76c	-0.7493808
176	0xbf46bb4e	-0.77629554
177	0xbe90b668	-0.28264165
178	0xbed52952	-0.41633087
179	0xbf5ee7fd	-0.87072736
180	0xbdac67f8	-0.08418268
181	0xbeaaceba	-0.33360845
182	0xbe0c3278	-0.13691127
183	0xbe04c02c	-0.12963933
184	0xbf2f714d	-0.6853226
185	0xbf047a8d	-0.517495
186	0xbda643c1	-0.08118392
187	0xbf190547	-0.5977368
188	0xbf13d87c	-0.57752204
189	0xbe596cb5	-0.21232875
190	0xbe6a0d9b	-0.22856753
191	0xbe31fd6a	-0.17381826
192	0xbd5c5d07	-0.053799655
193	0xbf17c267	-0.5928101
194	0xbec9aa81	-0.39387897
195	0xbe9aebda	-0.30258065
196	0xbeca90a1	-0.39563468
197	0xbf491ffb	-0.78564423
198	0xbf280cf7	-0.6564478
199	0xc01b1d90	-2.4236794
200	0xc00751e5	-2.1143734
201	0xbe548e58	-0.20757425
202	0xbf100e7b	-0.56272095
203	0xbea26925	-0.31720844
204	0x3f6ac247	0.91702694
205	0x4046bdeb	3.1053417
206	0x4026f6e8	2.60882
207	0xbe68e533	-0.22743683
208	0xbde06796	-0.109572574
209	0x3d944822	0.07240321
210	0xbef435fd	-0.4769744
211	0x3f4ec24f	0.8076524
212	0x3fd96a46	1.6985557
213	0x3d5eae8b	0.054365676
214	0x4015eb79	2.342497
215	0x40387548	2.8821583

onnx::Conv_811 f4 [24]
0	0x3d6c6c52	0.05772049
1	0x3eed693c	0.4636935
2	0xbe97c116	-0.296395
3	0xbe5a71e9	-0.21332516
4	0x3d61d87e	0.055138104
5	0x3dfe4623	0.12415721
6	0x3eee279a	0.4651459
7	0x3f1bfd16	0.60933053
8	0x3eb2c219	0.3491371
9	0xbf08a25f	-0.5337276
10	0x3dfea0f8	0.12433046
11	0xbe6fe7b0	-0.23428226
12	0xbe92c5a3	-0.2866641
13	0x3e3d1560	0.18465185
14	0x3e8f2785	0.27959839
15	0xbd1f8a64	-0.03895034
16	0xbf126ddd	-0.5719889
17	0x3e6240b1	0.2209499
18	0x3f2516c1	0.64487845
19	0x3e992b05	0.29915634
20	0x3ef6c17d	0.48194495
21	0x3f0d75f7	0.55258125
22	0xbe0d1d33	-0.1378067
23	0xbdd2bb7d	-0.10289667
