Raspberry_Pi_scripts/Real-time_detection/V2/model/yolo-fastestv2-opt_camera.onnx (onnx, 971919 bytes, 152 tensors)

output_reg_layers.weight f4 [12, 72, 1, 1]
000000 1a f0 8f bd 6a 3e 1f be 29 13 a0 3c 08 ff ef bd
       -0.070282176 -0.15551153 0.019540386 -0.11718565
000010 b5 75 87 3d 6a cf a9 bd a2 0d 1d be b7 64 b7 bc
       0.06614248 -0.08291514 -0.15337232 -0.022386892
000020 06 4f 22 3e 4d f0 39 be 1e 68 ab bd db 5f 0e 3e
       0.15850458 -0.18158074 -0.08369468 0.13903753
000030 4c 64 dc 3d 2b dd 42 3e af cd 30 be 3d d2 12 3c
       0.107613176 0.19029681 -0.17265962 0.0089612575
000040 b9 cf 13 bc 44 b4 4d bd 93 bc 30 3d 6a 20 40 be
       -0.009021693 -0.050220743 0.04314859 -0.18762365
000050 bf 36 6c 3d 67 3a cc 3d 1d 8a 41 3e 0a 9c dc 3d
       0.057669397 0.09972077 0.18900342 0.107719496
000060 38 7e 45 bc 06 b8 bc bc 4d 2d da bd e7 e1 d0 bc
       -0.012054019 -0.023036968 -0.10653172 -0.025498344
000070 40 02 b7 3c 5b 49 c1 bd 2d cd 94 3b 8b 33 fb 3d
       0.02233994 -0.094378196 0.0045410604 0.122656904
000080 be d7 aa bc 5e 2d 65 3d d8 ca 11 3e c2 3a 90 3d
       -0.020854827 0.05595147 0.14237535 0.07042457
000090 b4 ba 5b be 84 77 32 3c c1 bd 7f 3d 34 e8 74 3d
       -0.2145794 0.010892753 0.062436823 0.05979176
0000a0 f8 9d 02 3d 0f 9e 09 be 41 2f d1 bd 11 9e 2c bd
       0.031888932 -0.13439201 -0.10214091 -0.04214293
0000b0 ad bb 04 3e 55 03 8b bd 16 52 41 be 9b 0a 20 be
       0.12962218 -0.06787745 -0.1887897 -0.15629046
0000c0 84 59 96 3d 2e a7 4c 3d 8d a9 23 3d f0 c9 45 bb
       0.073412925 0.049964122 0.039956618 -0.0030180179
0000d0 b7 6c a1 bc e1 5e 01 bc d7 af 41 bd 10 78 bd 3d
       -0.01970516 -0.007896156 -0.047286835 0.09251416
0000e0 68 a4 e2 bd d6 2a 99 bd 01 e0 95 3d 7d a2 1b 3d
       -0.11066514 -0.074788734 0.07318116 0.037996758
0000f0 f2 1d 89 bd 64 6d da bd 0e 6b ac bd 92 d8 4a bd
       -0.06695165 -0.10665396 -0.084188566 -0.049522944
000100 cd e2 83 3d dd 4c 11 3e 5c 57 9d bd 24 18 2a bc
       0.06439743 0.14189477 -0.07682678 -0.010381732
000110 8e 68 2d 3e 70 29 35 3d 96 80 3e 3d 90 b8 b1 3d
       0.16934416 0.04422897 0.046509348 0.08677781
000120 3e 9f f6 3d b0 4d eb 3d 9d f3 a8 3c f0 e4 15 3d
       0.12042092 0.11489427 0.020623976 0.036595285
000130 63 11 28 be d1 42 2b be 92 f7 a3 3d 95 89 40 3d
       -0.16412883 -0.16724707 0.08006205 0.04700621
000140 ea cc a1 3d 82 23 a4 3d 84 0c 6f 3c 79 5b ce bd
       0.079004124 0.08014585 0.014590386 -0.10076041
000150 b4 1a 33 bd c5 e3 72 3d 5b 04 b0 bd ce c6 d2 bc
       -0.043726638 0.05929925 -0.08594581 -0.025729563
000160 6c 84 76 be 6e 24 bc bd 1c 29 d4 bc cb c4 40 3e
       -0.24073952 -0.09186636 -0.025898509 0.1882507
000170 52 fa 69 3d 69 31 e3 3d e7 d1 0b 3e ad 0e 0b 3e
       0.05712349 0.110934086 0.1365429 0.13579817
000180 f4 08 e7 bd 6c 1b 3e 3b 38 31 ec 3d 23 fb 31 be
       -0.112810045 0.0029008044 0.11532825 -0.17380957
000190 df 8f eb 3d 8d bd c0 3d 94 88 97 3d fb cf ff bd
       0.115020506 0.09411154 0.07399097 -0.12490841
0001a0 67 67 29 be f4 95 32 3d c9 8a 80 bd 70 0a 5d bc
       -0.16543351 0.043600038 -0.06276471 -0.013491258
0001b0 3b 1f 87 3d 52 87 ed bd 0d 1d 29 be c0 0c 31 be
       0.065977536 -0.11598076 -0.16514988 -0.1729002
0001c0 f5 c1 bb 3d 2e 3a 86 3d b9 b2 7a 3d 97 69 f1 3c
       0.09167854 0.06554066 0.0612056 0.029469294
0001d0 c0 04 b6 bd de b0 c6 bd 43 02 cf bd d7 d2 27 be
       -0.08887625 -0.097017035 -0.10107853 -0.16389023
0001e0 91 d8 2d 3e 7c 8b 07 be 18 f7 a4 bc 18 8b 96 3c
       0.16977145 -0.13236803 -0.020137355 0.018376872
0001f0 ad 39 3a bd 04 80 c5 bd 99 a5 35 3d a7 80 54 bd
       -0.04546516 -0.09643558 0.04434738 -0.051880505
000200 35 5a 0e 3e 31 f5 bb 3d d5 6a c6 3c dd 81 e4 3d
       0.13901599 0.09177626 0.024220863 0.11157582
000210 16 d8 25 be 2b 78 ab bd 1b 9b 04 be 39 61 8d 3e
       -0.16195711 -0.083725296 -0.12949793 0.27613238
000220 c2 f2 62 be ed 70 35 3d 4f 95 91 bb 6a c6 f0 bb
       -0.22162917 0.044297148 -0.004442848 -0.0073478715
000230 51 ea 9c 3d 4d 9a b6 3d 9f 2a 52 bd dd 01 09 3e
       0.0766188 0.08916149 -0.051310178 0.13379617
000240 0f cd 85 3c 57 f8 ff bb 64 f9 a8 bb 1d e9 0d 3d
       0.016333131 -0.007811587 -0.005156683 0.034646142
000250 35 44 2a 3e a3 68 96 bc 93 76 71 3d 05 5e c2 bc
       0.16627581 -0.018360442 0.05895097 -0.023726473
000260 e8 71 b5 bd a2 84 42 3d dd df 84 bd 8a f6 99 3d
       -0.088596165 0.04748977 -0.06488011 0.07517727
000270 bd b5 a9 3c cc c7 89 3c ee d1 a0 3d 5e 27 b1 3a
       0.020716542 0.016818903 0.07852541 0.0013515761
000280 e3 0c 4a 3c 39 06 3b 3d dd 8a 39 3d 3f bf c7 3d
       0.012332174 0.04566023 0.045298446 0.09753274
000290 59 88 53 3b 64 70 f9 3d c8 e4 2d bc 11 fb 8f 3b
       0.0032277314 0.1217964 -0.010613628 0.004393943
0002a0 17 b8 af 3d 9f c5 bd 3c 69 9d 49 3d 7f ee 77 3c
       0.08580034 0.023165522 0.049222384 0.0151325455
0002b0 ee cb 26 3c 61 9e 7c bb 47 b2 0d bc 6a f6 f9 bd
       0.010180457 -0.003854655 -0.008648462 -0.12205203
0002c0 f6 c5 d2 3c 02 7f ab bd 64 38 50 3d 9a 85 17 be
       0.02572916 -0.08373834 0.05083503 -0.14797059
0002d0 c9 07 37 3b 81 4e 11 bc 5e b7 0a bd 92 d7 1e bd
       0.0027928224 -0.008868814 -0.03386628 -0.038779803
0002e0 2d 9e ef bc c2 37 7b 3b d1 b8 07 3d 83 d8 2f bd
       -0.029250229 0.0038332795 0.03313524 -0.04293109
0002f0 4f f3 e0 3d b5 50 72 3c 39 26 3a 3c 36 d8 f8 3c
       0.109839074 0.01478975 0.011361652 0.030376535
000300 92 80 9e 3d cb 52 da 3b 21 35 88 3d 6b e0 88 bd
       0.077393666 0.0066627017 0.066507585 -0.06683429
000310 a1 ab 45 bb e4 d6 07 3e 89 2e 08 be 17 5e ef 3d
       -0.0030162113 0.13265568 -0.13299002 0.11687868
000320 15 5f 93 bc d3 65 55 3c 33 e5 94 bc f3 76 99 3c
       -0.017989675 0.013024765 -0.018175697 0.018733477
000330 f3 3c 39 bd 54 fe ab bd 4a 3a 37 bd 27 ca 14 bc
       -0.04522414 -0.083981186 -0.044733323 -0.0090814
000340 66 db e9 bc 3b 1a 43 3c 8e 5d 59 bd 0b 2f ac 3b
       -0.028547 0.011908109 -0.053067736 0.0052546314
000350 0f 7f 13 bc 96 93 ae bd 90 9b 64 3d db ec 01 bb
       -0.009002461 -0.085242435 0.05581242 -0.0019825015
000360 07 78 ef 3c 90 2d fb bc 93 90 5a bd d7 72 38 3d
       0.029232038 -0.030661374 -0.053360533 0.045031395
000370 e2 55 3f 3e 85 24 b2 3d 0b eb b1 bb c5 f7 98 3d
       0.18685105 0.08698372 -0.0054296306 0.07469133
000380 4c 9f cb bd 8c 6e 0d bd fa 52 56 3d 3b 55 16 3d
       -0.09942493 -0.034529254 0.052325226 0.036702376
000390 0c f1 65 3d 5f 4d 03 bc ca 62 33 bd d6 04 69 bd
       0.056138083 -0.008014052 -0.043795384 -0.056889378
0003a0 82 2f 84 3d 56 b7 b3 bd 1a 36 81 bc e2 74 8e 3d
       0.06454374 -0.08775203 -0.015772868 0.069558874
0003b0 17 1b e7 3c 54 f2 d4 3d 53 1f b1 bb cb 8e 1f bb
       0.02821116 0.10397783 -0.0054053455 -0.0024346586
0003c0 f0 5f c8 bd 36 06 4a 3d 86 cb 54 3d 4a ce b5 3c
       -0.097839236 0.04932233 0.051951908 0.022193093
0003d0 7b c3 31 bd e3 58 e4 bc 3a 86 38 bd 4b ef 17 be
       -0.043399315 -0.027874416 -0.045049883 -0.14837377
0003e0 96 aa 62 bd a8 87 22 be 0b 0e 0e 3d 86 b7 8d 3d
       -0.055338465 -0.15872061 0.03468136 0.0691977
0003f0 79 a0 25 bd e2 8d 99 bd 3f 95 8e 3d e8 39 50 bd
       -0.04043624 -0.07497765 0.0696206 -0.050836474

output_reg_layers.bias f4 [12]
000000 4e 34 e9 bc 26 70 e0 3c 25 3f e0 3d 1c e8 8b 3e
       -0.028467324 0.027397227 0.10949544 0.27325523
000010 22 55 ef 39 f5 3c 92 bc 80 9d 4c bd 83 9e 56 3c
       0.0004564906 -0.017851332 -0.04995489 0.013099316
000020 29 64 c0 3c 99 b6 9a bc 3b e6 30 be 3f ae 9c be
       0.02348526 -0.018885897 -0.17275326 -0.3060169

output_obj_layers.weight f4 [3, 72, 1, 1]
000000 d3 d4 53 3e 9d 66 c7 3e 0e c4 d6 3e 09 be fc 3d
       0.20686655 0.38945475 0.41946453 0.12340934
000010 a7 cc 7d bc fb 55 a5 3e 1f b5 a6 3d 8c 6a fe 3e
       -0.015490687 0.3229216 0.08140015 0.49690664
000020 15 55 16 bf e1 cf 70 3e ae 37 94 be 3c f0 44 be
       -0.58723575 0.235168 -0.2894873 -0.19232267
000030 fa b9 2d bd b6 1f 20 bf 10 96 85 be 55 7b a1 3d
       -0.04241369 -0.6254839 -0.2609105 0.07884852
000040 ea d5 a3 be 7f a3 06 3c c8 f9 96 be b3 38 8e bd
       -0.3199914 0.008217691 -0.29487443 -0.06944408
000050 a7 d4 7a 3d f9 2c f3 bb e8 09 0a bf dc 90 ad 3e
       0.061237957 -0.0074211326 -0.53921366 0.3389958
000060 e9 12 92 bc e7 19 83 3e b4 05 3c bf e4 70 d9 3e
       -0.017831283 0.256057 -0.734462 0.4246894
000070 ff 0d a8 3e 96 60 ba 3e 52 cc d2 3d cc ed 18 3f
       0.32823178 0.36401814 0.10292877 0.5973785
000080 22 ff 76 be 57 22 92 3e 16 c7 d1 bd 06 11 5c 3e
       -0.24120763 0.28541824 -0.10243051 0.21490869
000090 9d b6 08 3e a3 ae 31 bf d7 7c ce be ab 67 22 3e
       0.13350911 -0.694071 -0.4032962 0.15859859
0000a0 5a 7b fd bd 1c 0b 27 3f 27 43 57 3e 2d 06 37 3e
       -0.12377043 0.65251327 0.2102171 0.1787345
0000b0 91 5b b4 3e 48 ae 9c 3e 62 fd 1a 3f 81 17 0e bf
       0.3522611 0.30601716 0.6054288 -0.55504614
0000c0 2c b6 8e be 37 bd ae 3a 77 33 c7 3e 45 39 a4 be
       -0.2787336 0.0013331537 0.38906452 -0.32074943
0000d0 be 59 0e bd bf 39 9b 3e 81 31 a7 3e 1c 87 87 3f
       -0.034753554 0.30317494 0.32654956 1.0588107
0000e0 66 a0 8e bd b7 0a c4 bd bc d6 3e be 15 8f 5c be
       -0.06964187 -0.09572356 -0.18636602 -0.21538956
0000f0 3c c5 f8 bd 98 92 ec be cc 81 8b be 8b ab 04 3d
       -0.121469945 -0.46205592 -0.27247465 0.03239016
000100 ea 35 ec be bd 4f 9d 3e ec ed 7d 3e 59 32 e0 bd
       -0.46134883 0.30724898 0.24797791 -0.10947103
000110 79 95 da 3c d6 66 c9 3e d6 59 ea be 32 49 77 3e
       0.026682602 0.3933627 -0.45771664 0.24149016
000120 d1 0b ea 3e 8e 08 ff 3e 3f 05 10 3f 58 b1 f8 3c
       0.4571214 0.49811214 0.56258005 0.030358002
000130 4c 00 aa bd cd 62 a3 3e 85 14 e8 bc 9f c4 ba 3e
       -0.08300838 0.31911317 -0.028330097 0.36478135
000140 eb 31 26 bf 6a 1c 89 bd d0 b3 cd 3d 88 e8 4a be
       -0.6491992 -0.06694873 0.10044062 -0.19815266
000150 32 cf 49 bd f6 93 5e bf 0c f9 86 3d df 29 0e be
       -0.049269862 -0.8694452 0.06590471 -0.1388316
000160 ad 3d 15 be e1 e0 d7 3e 38 69 23 be 8b 10 9c 3d
       -0.14574309 0.42163756 -0.15958107 0.07620343
000170 e7 3a 6f 3d 24 e3 22 bc 95 91 46 be 33 1e b8 3e
       0.058405783 -0.00994185 -0.19391473 0.3596054
000180 3d 68 b6 3e 92 4c ff 3d 04 e2 2d bf cf 0f c9 3e
       0.35626402 0.124657765 -0.67923 0.39269873
000190 0f 95 36 3d 15 b9 b9 3e 28 a3 98 3e e3 55 37 3f
       0.044575747 0.3627402 0.29811978 0.7161543
0001a0 a1 91 d7 bd 48 92 a2 3e 24 b7 6a bd a4 54 63 3e
       -0.105258234 0.3175223 -0.057303563 0.22200257
0001b0 99 97 4d 3d 0a f6 62 bf 99 64 4d be 3c 36 45 3e
       0.050193403 -0.88656676 -0.20057906 0.1925897
0001c0 99 fe 35 be 54 a1 30 3f fc da 95 3e ea 6e 44 be
       -0.17772903 0.6899617 0.29268634 -0.19182935
0001d0 5a 5c f5 bb 9d e3 91 3e a0 68 1c 3f 4c 22 f0 be
       -0.007487816 0.28493968 0.61097145 -0.46901166
0001e0 91 2b 30 be 41 1a 6f 3d 29 20 57 3e 92 82 8e be
       -0.1720412 0.058374647 0.21008362 -0.27833992
0001f0 da 0d 88 bd 58 52 cc 3e b6 87 f7 3e b6 58 5f 3f
       -0.06643267 0.39906573 0.48345727 0.8724474
000200 37 d3 b7 3e 90 50 a9 be 6b 41 18 3d a1 ea 21 bf
       0.35903332 -0.33069277 0.037171762 -0.6324864
000210 8b 52 07 be a4 3c 36 bd 57 5d 8f be 9b f3 91 be
       -0.13215081 -0.044491425 -0.280009 -0.2850617
000220 d0 82 fc be d8 0c 3e 3e 93 fb ef 3d 4c 42 17 be
       -0.49318552 0.18559587 0.11717906 -0.14771384
000230 2f 7a 5c 3e 7c 46 a8 3e 49 f0 dc be fb 5c c0 3b
       0.21530984 0.32866275 -0.43152073 0.005870459
000240 74 82 ba 3e a6 94 37 3f 8d 5b 11 3f be 85 af 3d
       0.36427653 0.71711195 0.5678032 0.08570431
000250 a7 e9 19 3e ee 8a df 3e 6d c6 34 be 66 e8 fb 3e
       0.15030538 0.43660682 -0.17653818 0.49200743
000260 52 9a 46 bf f2 1d 4c 3e 63 d5 45 3e 00 eb 56 be
       -0.77579224 0.19933298 0.19319682 -0.20988083
000270 e2 e4 6f be a6 bc 03 bf 6e e0 87 be 4e 8a 29 3e
       -0.23427156 -0.5145973 -0.26538414 0.16556665
000280 50 02 19 bf 2b 02 e9 3e 85 67 82 be 96 66 03 bd
       -0.59769154 0.45509467 -0.25469604 -0.032080255
000290 af 60 63 bd 90 82 8f be d7 50 23 be 05 d2 25 3f
       -0.055512127 -0.280293 -0.15948807 0.6477359
0002a0 eb 03 67 3e 58 fb 35 be 98 4c 32 bf b4 39 05 3f
       0.22560088 -0.17771661 -0.6964812 0.52041173
0002b0 2c 77 00 3d c2 32 9c 3e 61 6f c4 3e cb 57 15 3f
       0.03136365 0.30507475 0.38366225 0.58337086
0002c0 78 de ce bd a1 72 bc 3e 80 44 85 be bd 6d de 3e
       -0.10101026 0.36806205 -0.26028824 0.434431
0002d0 3f 05 83 3b 7f 4a 34 bf 67 3a 91 bd 3f 40 88 be
       0.003998428 -0.7042617 -0.070912175 -0.26611516
0002e0 57 03 9f be 87 1b 32 3f e3 05 4f 3e 34 8e a7 be
       -0.31057236 0.69573253 0.2021709 -0.3272568
0002f0 19 3e 72 bd 33 a1 a0 3d 07 71 20 3f fd a3 ce be
       -0.059141252 0.07843246 0.62672466 -0.40359488
000300 86 5a 44 be 28 e9 d0 3d 18 1f 9a 3e 63 c6 2a bd
       -0.19175157 0.10200721 0.30101848 -0.041693103
000310 32 e6 8a be 64 0b a9 3e 20 5a 62 3e a5 14 6c 3f
       -0.2712875 0.33016503 0.22104692 0.92219
000320 c7 3c 8e 3d 4a d9 d9 be f8 00 50 be d5 85 f9 be
       0.06945186 -0.4254859 -0.2031287 -0.48734918
000330 16 8f b3 3d e5 67 76 3c d9 14 c1 be 89 75 fc bd
       0.08767526 0.015039419 -0.37711218 -0.123271056
000340 ce f0 c8 be 12 77 b1 3e cc 33 a8 3d 0a a6 63 be
       -0.3924622 0.34661156 0.082130045 -0.22231308
000350 f9 b9 2a 3d 3a 43 fe 3e de fc 93 be b3 96 54 be
       0.041681264 0.49660665 -0.2890386 -0.20760612

output_obj_layers.bias f4 [3]
000000 8d b8 16 c0 c4 06 14 c0 36 de 19 c0
       -2.355014 -2.312913 -2.4041877

output_cls_layers.weight f4 [1, 72, 1, 1]
000000 6c ae 9e bd 04 55 8e 3c a0 e4 14 bb 2f 1f ad 3d
       -0.07748112 0.017374523 -0.002271928 0.084532134
000010 78 b3 32 3c 30 d1 e5 3b b8 bc 56 bc 61 84 a6 3d
       0.0109070465 0.0070134625 -0.0131065175 0.08130718
000020 16 4b 6b 3d 6e 68 57 3d e2 49 bf bd 78 13 a4 bd
       0.057444654 0.052589826 -0.09340264 -0.08011526
000030 f6 99 2f 3d 88 ec 61 bd 4e 1d 9d bd 3a e3 7c 3d
       0.042871438 -0.055157214 -0.07671605 0.061740138
000040 e2 66 70 3d 42 87 47 3d ba 73 45 3d 14 68 a1 bc
       0.058691867 0.048712976 0.04820607 -0.019702949
000050 9b 72 82 3d 09 05 d5 3d d0 8f 0e bd 00 17 e4 bc
       0.063695155 0.10401351 -0.03480512 -0.027842999
000060 0a 23 7f 3d 2a 9d 62 3d b8 41 1a bd d0 16 ae bb
       0.062289275 0.055325665 -0.03766033 -0.005312778
000070 50 c2 f3 3b 2f 5a b3 3d 49 c9 c0 bd d3 64 93 3d
       0.0074389353 0.087574355 -0.09413392 0.07196965
000080 9e 52 36 bd 6f 97 92 3d e4 10 3e bd ed a2 b6 3d
       -0.044512384 0.0715779 -0.046402827 0.089177944
000090 43 72 dd 3d 22 30 32 bd 14 a0 89 3c e8 5d 70 3c
       0.10812809 -0.043502934 0.016799964 0.0146708265
0000a0 32 61 49 3d 21 c6 c9 3d 00 6c f0 38 f0 2b 88 bd
       0.04916496 0.09852243 0.000114642084 -0.066490054
0000b0 90 3f c2 bd cf 18 e7 3d 39 31 a4 3d f9 81 bc 3d
       -0.0948478 0.11284029 0.08017201 0.09204478
0000c0 7a 89 00 3d 56 8f 73 3d b2 5d 30 3d 98 4d 54 bd
       0.031381108 0.059462868 0.043058105 -0.05183181
0000d0 00 45 cc bd 56 3c 2c 3d cc bb 9e bd 48 6c b8 bc
       -0.09974098 0.04204973 -0.07750663 -0.02251257
0000e0 01 c2 7e bd 8a 07 56 3d b2 0f 4c 3d 0c b1 ee bc
       -0.062196735 0.052253284 0.049819656 -0.029137157
0000f0 a8 bb 7e 3c a0 ad a8 3b ef d5 9a 3d 5f bb cf bd
       0.01554767 0.005147651 0.07560336 -0.1014316
000100 fc e3 35 bd 51 2b 9e 3d 19 25 cb bd b0 33 0c bc
       -0.044406876 0.07723106 -0.09919185 -0.008557245
000110 94 f9 87 bc c8 fd d8 bc 96 f4 9a bd 08 5e 90 bc
       -0.0165985 -0.0264882 -0.07566182 -0.017622963

onnx::Conv_798 f4 [24, 3, 3, 3]
000000 8b 4f 80 bd a0 71 88 bd e9 36 87 bd 6b 63 0f bd
       -0.062651716 -0.06662297 -0.0660227 -0.03500692
000010 32 0e 4a bd f0 90 4f bd bb 0f 30 bd ff f7 93 bd
       -0.049329944 -0.050675333 -0.04298375 -0.07225036
000020 90 e3 31 bd 37 9d 65 bd e7 3a 5b bd 0e 26 79 bd
       -0.04342991 -0.056058135 -0.05352297 -0.060827307
000030 66 2f ba bd 2f 53 a7 bd 6a 9a 7f bd 1f df cb bd
       -0.09091072 -0.08170163 -0.06240312 -0.09954666
000040 34 1f b5 bd 51 30 9d bd 8b ba fc 3d 03 d9 f7 3d
       -0.08843842 -0.07675231 0.12340268 0.121019386
000050 30 55 07 3e 76 48 ff 3d a0 c7 03 3e fb 23 df 3d
       0.1321609 0.12464993 0.1286912 0.108955346
000060 24 f6 0e 3e d0 4d 1f 3e a7 e0 e3 3d d9 6c 95 3e
       0.13961083 0.15557027 0.111268334 0.29184607
000070 aa 72 b3 bd 1e bf 23 be e9 cd 36 be 2c 22 be be
       -0.08762105 -0.15990874 -0.17851986 -0.37135446
000080 3d f5 8f 3d e7 68 8c bd a5 f9 8f 3d 3d 2a 9b 3e
       0.07029197 -0.06855946 0.07030038 0.30305663
000090 a1 2f e3 3e 0c 78 68 bd ff ec 32 be 7f bf 56 be
       0.44372275 -0.05675511 -0.1747322 -0.20971487
0000a0 ff dc 1c bf 05 71 81 bd 24 24 73 be ce d6 06 3d
       -0.61274713 -0.06320385 -0.23744255 0.032919697
0000b0 6b 27 19 3f 75 26 fa 3e 66 f1 16 3e 33 52 0c be
       0.5982577 0.48857465 0.14740524 -0.13703232
0000c0 aa 56 4d bd dd fd 01 bf 5d 43 92 be de bd 5c be
       -0.050131477 -0.5077799 -0.2856702 -0.21556804
0000d0 f7 ee 99 bd b2 ec b2 3e 3d 58 0e 3e a1 56 c8 3d
       -0.07516282 0.3494621 0.13900848 0.09782148
0000e0 71 5f 06 3e e9 eb aa 3d f3 f8 9e 3c c7 ac be 3d
       0.13122346 0.083457775 0.019405818 0.093102984
0000f0 24 31 0d 3e 70 88 b6 3d 37 3f 00 3e b9 d5 56 be
       0.13788277 0.08912742 0.12524115 -0.20979966
000100 9f 63 7d be 9c 25 0d be a3 84 7a be 6b c6 97 be
       -0.24745034 -0.13783878 -0.2446466 -0.29643568
000110 aa 78 2a be 78 da 2d be fa 82 45 be 93 6c c2 bd
       -0.16647592 -0.1697787 -0.19288245 -0.09493365
000120 27 1c 90 3d b9 9e 0b 3e ae 4d 7f 3a fd 3b 27 3e
       0.0703662 0.13634767 0.0009739053 0.16331477
000130 00 63 8d 3e 75 1c b2 3d ae b3 1a 3c 86 dd 92 3d
       0.27614594 0.08696834 0.009442253 0.071711585
000140 47 30 d9 bc 49 58 46 be 48 e1 65 be eb eb 9a bd
       -0.026512278 -0.19369616 -0.22449219 -0.07564529
000150 25 37 64 be 0c 94 91 be fc 73 06 be 26 25 94 bd
       -0.22286661 -0.28433263 -0.13130182 -0.07233648
000160 28 db fb bd ae a3 57 bc df f7 72 3e 51 ca 65 3e
       -0.1229766 -0.013161583 0.23727368 0.22440459
000170 2b e4 0b 3e 44 41 77 3e 88 e4 67 3e 4f cc 19 3e
       0.13661258 0.2414599 0.22645772 0.15019344
000180 7c cd 3f 3e e0 ab 23 3e e5 d5 db 3d fb 79 1e bd
       0.1873073 0.15983534 0.107341565 -0.03869055
000190 b1 19 7a ba 1f a6 8b bd 07 96 2e bc 12 d0 50 3d
       -0.00095405715 -0.068187945 -0.0106558865 0.05097968
0001a0 6c 04 95 bc a2 ee 02 be f8 fa 57 bd 99 02 c2 bd
       -0.018190585 -0.12786344 -0.052729577 -0.09473152
0001b0 39 a0 9a 3e 64 e0 63 be e8 75 17 be da 2e 7a 3e
       0.30200365 -0.22253567 -0.14791071 0.24431935
0001c0 fe ba 72 bc 64 cb 43 be df 5a 7b 3e 58 49 41 bd
       -0.01481509 -0.19120556 0.24546383 -0.047189087
0001d0 28 e7 67 be 4c b1 08 3f de a4 a3 be 28 41 ba be
       -0.22646773 0.53395534 -0.3196172 -0.36377835
0001e0 c9 52 09 3f 77 3f 3b bd 09 3f ba be 8a a4 ec 3e
       0.53641945 -0.04571482 -0.36376217 0.46219283
0001f0 5e 3f 66 bd 35 7a aa be 77 2f 0c 3f b2 36 a6 be
       -0.056212775 -0.33296362 0.54759926 -0.32463604
000200 5a 88 ca be d4 82 00 3f d5 67 bb bd 7d bd be be
       -0.39557153 0.5019963 -0.09150664 -0.37253943
000210 29 3e 00 3f 69 57 a0 bd 86 6b d3 be 61 0f 18 3d
       0.5009485 -0.07829172 -0.4129297 0.03712404
000220 b8 0c 8c 3d 06 89 6b bc 33 90 7a 3d bc 8e e4 3d
       0.068383634 -0.014375931 0.061172675 0.11160037
000230 b0 f6 7c 3d 09 a9 5f 3d 7a 0c ea 3d fd 7b 7f 3d
       0.061758697 0.054604564 0.11428161 0.062374104
000240 db fe 14 3d 27 08 a8 3d f0 85 2a 3d 46 1f 8b 3d
       0.03637586 0.0820468 0.04163164 0.06793074
000250 98 16 f8 3d bc b2 5f 3d 90 5d 2a 3d 2b 2d a2 3d
       0.121136844 0.054613814 0.041593134 0.07918771
000260 26 ba 5d 3c f4 64 66 3d 2d fe e2 3d 32 bc 95 3d
       0.013533151 0.05624862 0.110836364 0.07311286
000270 99 b0 50 3d 06 c7 0e 3e 2a 7f 8b 3d 58 fd a0 3c
       0.050949667 0.13943109 0.06811364 0.019652054
000280 a4 20 70 3d 63 17 b1 3c d7 68 86 be 77 fb 5c 3d
       0.05862488 0.021617597 -0.2625186 0.053950753
000290 dc 48 d5 3e 14 ca bd be 59 6d 75 3c c7 c0 bd 3e
       0.4165715 -0.37068236 0.014979684 0.3706114
0002a0 ee a9 d2 be da 1e 81 be 6b a5 da 3e 73 a0 c6 be
       -0.4114527 -0.2521885 0.4270433 -0.38794288
0002b0 2d 94 05 3c 5e df 0e 3f 28 77 df be 76 47 67 bd
       0.008153004 0.5580958 -0.43645597 -0.056464635
0002c0 ea ca 0a 3f 49 b7 ce be 82 c7 b6 be 64 2a 0b 3f
       0.5421587 -0.4037421 -0.35699087 0.5436156
0002d0 da 37 3d be a4 54 b3 bb b9 50 de 3e 42 cd 71 be
       -0.18478337 -0.0054727364 0.43420961 -0.23613456
0002e0 12 04 f1 bd 04 57 b1 3e ba 26 8a be 5c 89 c9 be
       -0.117683545 0.346367 -0.2698267 -0.3936261
0002f0 52 0f c6 3e 22 8c 41 3e 73 85 b7 bd 4f 5a ab 3e
       0.38683563 0.18901113 -0.08961 0.33467337
000300 35 fe a7 bc b7 92 6e 3e 8e 0c 95 3d a8 40 d8 be
       -0.020506958 0.23298155 0.07277785 -0.4223683
000310 a8 bb 28 3e b8 ba 46 3e 49 19 88 bd a0 e6 20 be
       0.16477835 0.19407165 -0.06645448 -0.15712976
000320 b7 2e 9d 3d ba 29 1c 3e 75 df 01 3c 4b 44 88 bd
       0.07674926 0.15250292 0.007926811 -0.06653651
000330 98 88 b9 3e 47 be 29 bd b3 c2 37 3d a9 91 8f 3e
       0.36237025 -0.04144123 0.044863414 0.28040817
000340 21 6c d3 3e 97 67 ab be 80 13 f4 bd 4c cd 73 be
       0.41293433 -0.3347747 -0.11917782 -0.23808783
000350 d0 fe 18 3d d0 15 6d 3e 62 2e 35 bd d9 5c 97 3e
       0.037352383 0.23152852 -0.044233687 0.29563025
000360 19 b5 9b bd 4d cf 5d be b7 ab 1a be 70 80 d1 3d
       -0.07602901 -0.2166111 -0.15104567 0.10229576
000370 da d1 9c 3c b3 6d 9b be 3c aa 02 3e 8c 71 83 3e
       0.019143034 -0.3035713 0.12760252 0.25672567
000380 89 f0 6d 3e 2c ba 29 be f6 a7 f9 be 3f ca d6 be
       0.23236288 -0.16574925 -0.48760957 -0.41951177
000390 e7 09 67 3e 95 d9 4d 3c e3 41 d0 be 88 c0 a3 3e
       0.22562371 0.012564083 -0.40675268 0.31982827
0003a0 89 10 02 3f 86 6a c1 3e b9 d3 a1 be ec b2 30 bf
       0.5080648 0.37776583 -0.31606844 -0.69023013
0003b0 28 67 2b bf 16 be 9d 3e 64 bf c1 bc b4 27 f9 be
       -0.6695428 0.30809087 -0.023650832 -0.48663104
0003c0 3b 14 1f 3f f2 1b 34 3f 2c 3d 16 3f 35 b6 fe be
       0.62140244 0.7035514 0.5868709 -0.49748388
0003d0 d1 a4 7c 3d 8f 3e dc 3d cc a2 c2 3d 34 4d f4 3e
       0.06168062 0.107541196 0.09503707 0.4771515
0003e0 1f 64 28 3e 83 12 33 3e 10 f8 1c 3e 12 85 df be
       0.16444443 0.1748753 0.15329003 -0.43656212
0003f0 1a 27 2c bf 01 d4 e9 3d 68 65 09 3e 4a dc e6 3d
       -0.67247164 0.1141739 0.1341759 0.112724856

onnx::Conv_799 f4 [24]
000000 a5 df f9 3e 60 40 36 3f 3b 78 01 3f ad 3f da 3e
       0.4880344 0.7119198 0.5057408 0.42626706
000010 b6 cc 56 3e d0 18 d3 3d 09 d0 1a 3e e3 6a a9 bf
       0.20976529 0.10307467 0.15118422 -1.3235744
000020 81 fc 2a 3e 0a 05 aa 3d f0 e8 94 3d 7d d6 5b ba
       0.16697885 0.083017424 0.07270992 -0.0008386148
000030 8a 16 d0 3e d7 25 36 3f cd 4f 87 3e fd cd ed ba
       0.40642196 0.7115149 0.2642807 -0.0018143054
000040 01 64 57 3f 54 1f 21 3e f6 f5 17 3e f0 ff 82 3c
       0.8413697 0.15734607 0.1483992 0.015991181
000050 ae 9d 00 3e 86 d8 dd 3f c8 f2 85 3c 18 37 17 3e
       0.1256015 1.7331703 0.016351119 0.1476711

onnx::Conv_801 f4 [24, 1, 3, 3]
000000 79 12 d5 3c 59 b8 13 3d 5d ce 66 bc c5 ef af bf
       0.026009785 0.03606448 -0.014087287 -1.3745047
000010 2c b6 08 bf e6 04 c4 3f 9c b6 cc bf 78 2d cb be
       -0.5340297 1.5313995 -1.5993228 -0.39683127
000020 39 75 c4 3f 45 f4 ca 3d e2 14 f4 3c 2e fe af 3c
       1.5348274 0.09909872 0.029795114 0.021483507
000030 1b b0 e9 3d 62 7f 54 bc 91 9b 0f 3d 6e dd a6 3d
       0.114105426 -0.012969824 0.03506047 0.08147703
000040 0d 3d 9d 3d 28 fd 1d bd 0b 1c ad 3d 65 ce fb bc
       0.0767766 -0.038571507 0.084526144 -0.030738065
000050 fe 4f fc be e9 94 a3 be 1a 9a 2e bd bd 11 de 3e
       -0.4927978 -0.31949547 -0.04262743 0.43372908
000060 20 1c 3f bf 4e e7 b1 3e a0 43 21 40 f3 13 5b bd
       -0.7465229 0.34746784 2.5197525 -0.053485822
000070 5f db 83 bb 24 c8 99 be fb 54 28 3f 56 96 0d 3f
       -0.004023954 -0.30035508 0.6575467 0.5530752
000080 ad 71 66 be 0f 1f b4 3f 81 d2 f5 3e fc e3 18 bf
       -0.22504301 1.4071978 0.48012164 -0.59722877
000090 55 f9 7b 3c a2 74 d3 3d 87 10 b9 bc f0 fd b0 3d
       0.01537927 0.1032498 -0.022590889 0.08642185
0000a0 36 41 80 3d c7 56 19 be 7c a5 18 3d 99 57 e3 bd
       0.06262438 -0.14974509 0.037267193 -0.11100692
0000b0 f7 6f 8e be 44 4f 8e 3c 01 74 8b 3c 1e 2b cb 3c
       -0.27819797 0.017371781 0.017023088 0.024800833
0000c0 bd d2 08 bf 12 a5 f3 3c 90 2f f9 3e 29 54 35 bf
       -0.5344656 0.029741798 0.486691 -0.70831543
0000d0 a7 66 25 bd 26 f0 26 3f 6b 7c d9 3b a8 6e 83 3d
       -0.0403811 0.6521019 0.006637146 0.064175904
0000e0 b1 03 8a bc a7 0b 2e 3c 2f 9a 92 3d b1 0d e7 bd
       -0.016847463 0.010622895 0.071583144 -0.11281908
0000f0 03 bb 2d 3c 03 27 f1 bd f2 f1 86 be 93 cf 52 be
       0.010603669 -0.11775019 -0.26356465 -0.20586996
000100 c7 a2 ab 3d 9d df 06 3e ce 15 8e be 69 dd 6c 3e
       0.08380657 0.13171239 -0.2775101 0.23131336
000110 09 c2 2b 3f 1c 6a 00 bf 70 34 49 3f 8f aa be 3f
       0.6709295 -0.5016191 0.7859564 1.48958
000120 e9 49 4a bd 09 73 cc bd 18 cd ba 3c 99 a2 e4 bd
       -0.049386892 -0.09982879 0.022802874 -0.111638255
000130 6f 5b fc bc 32 76 ce 3d c6 d5 f0 bb 6f 5f d0 3b
       -0.030805318 0.10081138 -0.0073497025 0.006359033
000140 75 20 8b 3e f0 b2 31 bd db 28 c9 bd ad 7b 6c bd
       0.271732 -0.04338354 -0.09822246 -0.057735134
000150 fe 42 50 bb 5e 65 4a bd 4f ac a6 bd e1 75 44 bd
       -0.0031778212 -0.049413078 -0.08138334 -0.04796398
000160 e6 a6 68 3d 43 cb b3 bd 2d 6d 23 3d 99 5e 14 bc
       0.05679979 -0.087790035 0.03989904 -0.009055757
000170 ee eb 0f 3e 56 ce aa 3d 3e b1 57 be a6 0f d3 be
       0.14054844 0.08340137 -0.21063706 -0.41222876
000180 93 ff 52 3e d5 6e 52 bf 1f ec a0 bf 3f 74 3f aa
       0.20605306 -0.82200366 -1.2572058 -1.7004539e-13
000190 21 c3 7d aa d0 76 91 aa 82 7a 0a aa d4 08 e2 a9
       -2.2538613e-13 -2.5839617e-13 -1.2299366e-13 -1.00379476e-13
0001a0 b8 08 3d 2a 4a 36 43 aa ff e0 71 2a 75 42 87 2a
       1.6789597e-13 -1.7338314e-13 2.1483161e-13 2.402693e-13
0001b0 2c 33 d6 3d 1e ea 05 bd 0a 86 94 bd 23 ae b9 3c
       0.10458979 -0.032693975 -0.072521284 0.022666043
0001c0 47 bf 4f be 54 32 50 be b7 de ab bc 57 d2 08 be
       -0.2028781 -0.20331699 -0.020980222 -0.13361488
0001d0 68 4d 90 be 47 a2 e3 bc 3d 18 a3 3b 17 db 55 bd
       -0.28184056 -0.02778734 0.0049772547 -0.052210893
0001e0 cb 85 31 3b 56 a9 5c be 9f 55 22 be f3 6c 54 bc
       0.0027087803 -0.21548972 -0.15852974 -0.012965429
0001f0 2d a8 56 bd 5a 5b 4f be b4 db ab 3c 09 c6 94 3d
       -0.05240648 -0.20249692 0.020978786 0.07264335
000200 59 f0 3b 3d be b0 95 3c 23 93 12 3d b8 8e ce bd
       0.04588351 0.018272754 0.03578485 -0.10085815
000210 37 99 49 3c 8d 4e 01 bd 79 87 6e be b7 25 a2 2a
       0.012304596 -0.031569052 -0.23293866 2.880315e-13
000220 6d 1b 83 28 de 80 4c aa 04 cf 02 aa 25 66 92 aa
       1.4555816e-14 -1.816355e-13 -1.1618142e-13 -2.6005687e-13
000230 91 cf 2e 28 96 ed be aa 9a 59 74 2a 2f 07 70 a9
       9.703949e-15 -3.3915638e-13 2.170264e-13 -5.3296936e-14
000240 71 ae cb bd f8 87 95 3c db b3 18 3d c0 0d f0 3e
       -0.099453814 0.018253312 0.0372809 0.4688549
000250 1a b9 ae bd 00 f6 6f bf c4 5a 74 3f 2b c4 8a be
       -0.08531399 -0.9373474 0.95451 -0.2710279
000260 d7 fc cd bf 34 af 07 be 89 80 6d 3e f2 6a 60 3e
       -1.6092786 -0.13250428 0.23193564 0.21915796
000270 26 e4 89 bf f5 01 d3 3d 5a 91 e5 3f d5 5b 44 bf
       -1.077275 0.10303108 1.7934983 -0.76702625
000280 5c d1 4b bd 23 f2 da 3f 98 a4 11 be 05 6e 22 3b
       -0.049760208 1.7105144 -0.14222944 0.0024784815
000290 78 69 b1 bd 63 87 8b bd 07 a4 3a be a5 0b 9a be
       -0.08662695 -0.06812932 -0.18226634 -0.3008701
0002a0 d5 02 c4 bd 95 ae 1b be f9 31 62 be 99 7c 1d 3d
       -0.09570853 -0.15203317 -0.22089376 0.038448904
0002b0 08 e1 a8 3d 66 72 64 3d 0b 08 39 3e f2 1c b8 3d
       0.08246046 0.05577316 0.18069474 0.08989896
0002c0 e2 12 30 be 2e a9 d8 3d 4d 22 c5 bd 14 cc c5 be
       -0.17194703 0.105791435 -0.09625683 -0.38632262
0002d0 15 d0 a0 3d 50 9a 61 bb 41 a4 66 bd 25 d3 f3 3d
       0.078521885 -0.0034424253 -0.05630899 0.11905507
0002e0 51 bd b1 3d 83 af 5d bd 22 e1 77 3d 7d 51 a5 bc
       0.08678687 -0.05412246 0.060517438 -0.020180458
0002f0 3f 38 cb 3c 2f 13 1c 3e 25 cd ba bd 82 07 26 bd
       0.024807094 0.15241693 -0.091211595 -0.040534504
000300 db 2a 1e 3f 5c b6 e8 bd 22 d8 19 bf 56 f8 09 3f
       0.6178414 -0.11362907 -0.6009542 0.53894556
000310 1e 6d 9b ba d5 5b 21 bf 2e 1f 9f 3d f9 56 b9 3c
       -0.0011858081 -0.6303075 0.07769619 0.02262448
000320 c8 11 26 3d e3 1d 18 3e 0d 31 83 3d d7 b6 10 be
       0.0405443 0.14855151 0.0640584 -0.14132248
000330 64 ea 82 39 e8 8d 06 bd 59 e8 b0 be 76 19 b7 3b
       0.00024970167 -0.032850176 -0.34552267 0.005587752
000340 91 94 fa 3b 88 be 88 3d fe 12 15 bd 2b 25 e6 3d
       0.007647105 0.06676966 -0.036395065 0.11237558
000350 ca e0 b0 3d 48 b7 e6 3c 4e 14 54 3d 5b 4d f9 3d
       0.08636625 0.028163567 0.051777177 0.121729575

onnx::Conv_802 f4 [24]
000000 36 40 ce 3e f1 d6 66 be 1b 8b 67 bf d0 a1 60 bf
       0.40283364 -0.22542931 -0.90446633 -0.87746906
000010 95 5d cc 3d 91 58 d0 3c 25 e6 05 3e 34 3c 69 bd
       0.09978787 0.025432857 0.13076074 -0.05694218
000020 2a 79 35 bd 0b 76 42 3e ae 8b b4 3e f5 30 a7 33
       -0.044305004 0.18990342 0.35262817 7.785449e-08
000030 3b 2f ec 3d 90 3c c6 3e 07 61 8e 3d 23 88 a4 33
       0.11532446 0.3871808 0.069521 7.661608e-08
000040 61 df 9e 3f 34 65 59 bd 85 11 9a 3e 1b 61 40 3d
       1.241192 -0.05307503 0.3009149 0.046967607
000050 8a 4f b4 bd d9 bb 69 3e c2 36 8d 3d 5f 61 23 be
       -0.08804233 0.22825564 0.0689521 -0.15955113

onnx::Conv_804 f4 [24, 24, 1, 1]
000000 f9 37 42 3b 4a 88 94 3d 8f 0f f2 3c 26 2c 64 3c
       0.0029635413 0.072525576 0.029548435 0.013926541
000010 48 22 4e 3c 14 85 6f 3c 0d 53 31 3b a6 24 dd 3b
       0.0125814155 0.014619131 0.0027057559 0.0067487536
000020 e5 1e 04 bb d9 a3 4b 3c 9c c3 d2 3c 17 cd 29 ab
       -0.0020160016 0.012429201 0.02572804 -6.032548e-13
000030 99 49 78 be 9c f7 a6 bd 3c c9 00 3b db 0f 1b ab
       -0.24246825 -0.081526965 0.0019651195 -5.5089066e-13
000040 a5 52 0a bc 8e 3a 64 3e 6a 35 69 bc e5 47 30 bd
       -0.008442556 0.22287962 -0.014233926 -0.043037314
000050 5b 18 34 3d 44 58 7d bd ce 27 8c 3c bf b7 ba bc
       0.04396854 -0.061851755 0.017108824 -0.022792695
000060 65 cc 0b 3d e8 da 0b 3e 1a 2f ff bd 5d bc 3d 3c
       0.034130473 0.13657725 -0.12460156 0.011580554
000070 1e e2 11 3d c0 bc aa bb c0 d1 e7 bc 1d fe c8 3d
       0.035616033 -0.005210489 -0.028298259 0.09814093
000080 a8 6b 26 3d bb 7a bf bc 30 08 95 3f 89 fc 38 2c
       0.040630013 -0.023373952 1.1643124 2.6288158e-12
000090 76 92 e0 bd af 98 f8 bd 15 20 e3 3c f5 89 8c 2b
       -0.10965435 -0.12138497 0.027725259 9.985889e-13
0000a0 65 97 8d be 23 be 67 3d 4f 79 67 bc fb 25 79 3c
       -0.27654567 0.056577813 -0.014128043 0.015206809
0000b0 ec 46 23 3d 2c c3 26 bd 5b 0d 82 3c 48 53 98 bd
       0.03986256 -0.040713474 0.015875509 -0.0743776
0000c0 23 37 0d 3e c4 64 7a 3d f8 1a d6 3e 97 e0 5b 3c
       0.13790564 0.061131254 0.4181745 0.013420246
0000d0 62 e0 10 3d f9 da 81 bd 3f c2 6b bc 49 d9 1a 3d
       0.035370238 -0.06340594 -0.014389574 0.037804876
0000e0 e4 5b ba 3c 64 fd 29 3d cd 98 72 be e7 22 85 ab
       0.022748895 0.041501418 -0.23691101 -9.459906e-13
0000f0 ac 21 5d 3c 86 50 c5 bc b5 a3 4f 3d 25 93 ea aa
       0.0134967975 -0.024086248 0.050693233 -4.1668852e-13
000100 f9 60 0f bf 7d 38 57 bd 07 6f ac 3c 46 bb a0 3d
       -0.56007344 -0.052544106 0.021049036 0.078482196
000110 c6 c6 ad 3b 95 05 77 3c e2 d2 44 bd d9 d5 8e bd
       0.0053032367 0.015077014 -0.048052676 -0.06974382
000120 c6 1b 5d bd 76 b3 8b be 58 64 75 3c 70 d9 d9 3d
       -0.053981565 -0.27285355 0.014977537 0.10637176
000130 48 91 f5 3b 01 2f fa 3c eb 8c 2d 3e d6 80 79 bb
       0.0074941255 0.030539991 0.16948287 -0.0038071177
000140 55 43 c8 bb 6b bf 3c bd 58 eb 51 b9 4b ea 55 ab
       -0.006111542 -0.046080988 -0.00020019466 -7.599795e-13
000150 d2 ad 23 3e b7 ca a8 3e 90 35 71 bd e8 71 a2 2b
       0.15984276 0.3296716 -0.05888897 1.1542408e-12
000160 9e 23 44 bd 8f 00 ca 3d 4e 76 0a bf e8 13 aa bd
       -0.04788553 0.09863388 -0.5408677 -0.08304578
000170 26 ce ba bc 3b 79 a6 bc 45 7d fd 3d 4c 9a c2 be
       -0.022803377 -0.020321479 0.12377409 -0.38008344
000180 04 c3 18 3e df 5d af bd e2 a3 03 3d 83 03 74 3f
       0.14918143 -0.08562826 0.032138713 0.9531786
000190 76 ec 38 bc 56 09 86 3c e9 b6 87 3c e0 92 44 bb
       -0.011286845 0.016361874 0.01656671 -0.002999477
0001a0 ac 37 16 bd 59 23 99 3b 97 82 07 3e 5e 97 e0 2a
       -0.036674187 0.004673403 0.1323341 3.9895425e-13
0001b0 c0 ad de 3c 09 7c d5 bc dd a7 3a 3d 8f 3c 03 ab
       0.02718246 -0.026060121 0.045570243 -4.662459e-13
0001c0 83 6f 30 bd 3c 48 28 3c 71 ad a0 bc 0b 8d 22 bc
       -0.043075096 0.010271128 -0.019613953 -0.009921323
0001d0 de da 68 bc 39 d2 de bb 89 6c 12 bd 5a cb 18 bd
       -0.014212338 -0.006799963 -0.03574804 -0.037303306
0001e0 ba 1d f9 3d 72 a3 f0 3d 9a 16 00 3e 41 9e 86 bc
       0.12163873 0.11749925 0.12508622 -0.016432883
0001f0 9b d5 cd 3d 13 39 fc 3d cd c2 ac bd 4d 3a f2 3d
       0.10050508 0.123155735 -0.08435593 0.11827526
000200 27 87 b5 bc 07 fa 39 bc 7f 47 b8 3c 78 07 e9 ab
       -0.022159172 -0.011351115 0.02249503 -1.6557719e-12
000210 9c e5 14 be e8 73 84 be 70 42 b2 3d eb bd 5e ab
       -0.14540714 -0.2586968 0.08704078 -7.913381e-13
000220 18 91 77 3d 69 eb af bd 1d 4c 9c 3e d0 7c a8 3c
       0.060441107 -0.08589823 0.3052682 0.020567328
000230 da 0b a2 ba 28 5b 1f 3f 92 7e a5 3b 5f d4 0f 3e
       -0.0012363151 0.6224847 0.0050504887 0.14045857
000240 ff 42 b1 3b 8f 94 a0 3d 8a 54 69 bd ac 8c 04 bd
       0.005409598 0.07840835 -0.05696539 -0.032360718
000250 ae 92 8e 3d 2f b1 1c 3f f0 58 a0 bc ca eb 40 3e
       0.06961571 0.6120786 -0.019573659 0.18839946
000260 0b 5b 40 3d e3 d4 aa bd 6f 9f 41 bd 7b bd 4b ab
       0.046961825 -0.08341386 -0.04727119 -7.2383045e-13
000270 23 78 02 bd e8 61 20 3a 8a a2 a2 3c 65 c1 40 2b
       -0.031852853 0.0006118105 0.019852895 6.848049e-13
000280 33 06 70 bd 99 a5 00 3d 5f d7 7e 3b 33 04 b5 bb
       -0.058599662 0.031407926 0.0038885695 -0.005524182
000290 33 14 a8 be 68 d3 91 3d c9 27 35 bd 07 74 90 bd
       -0.3282791 0.07120401 -0.044227395 -0.070533805
0002a0 93 14 7f bc 03 df f7 3d ef 1e 1e bd 03 2a 59 3d
       -0.01556887 0.12103083 -0.03860372 0.05301858
0002b0 1c e8 36 be 09 cb 9c 3c 5b 93 ab 3d d3 79 b3 bc
       -0.1786198 0.019139783 0.08377715 -0.021908676
0002c0 48 bf f1 3d 63 75 2c 3b 09 c3 bd bd 98 01 22 2b
       0.11804062 0.0026315085 -0.09265716 5.7556173e-13
0002d0 4b 7a dc bd 18 be d0 bd 93 a0 9a 3d b5 24 a3 2b
       -0.10765513 -0.101925075 0.07550158 1.1592035e-12
0002e0 e5 4e 7d bd 96 cd 72 3c c6 94 d3 be 92 80 96 3c
       -0.061842818 0.014819523 -0.41324443 0.018371854
0002f0 3d e5 9d 3d 8a fe 09 bd bd c1 c7 bd b1 85 48 3d
       0.07709739 -0.033690013 -0.097537495 0.048955623
000300 10 09 72 bd d7 0f 54 bd 17 30 07 3f 2c 05 9a bd
       -0.059090674 -0.05177292 0.52807754 -0.07520518
000310 69 db 07 3c f4 d5 50 3c 33 21 b3 3c 14 71 a6 bc
       0.008292058 0.012746323 0.021866417 -0.020317592
000320 81 74 c3 3c b3 52 89 3c 5d de c7 3c ba 87 9e aa
       0.023859264 0.016763067 0.024398023 -2.8160617e-13
000330 ba 0e be bc df c8 fe ba af b9 b9 3b 95 f2 43 ab
       -0.023200382 -0.0019438526 0.005667887 -6.9614567e-13
000340 5f f8 c8 3d 40 72 0d 3c 2d 0b b0 3a e2 fa 2b bd
       0.09812998 0.008633196 0.0013431065 -0.041987307
000350 fb ff 6b bc 0c a0 87 3c 44 b1 b3 bc 9e fb c6 3c
       -0.014404292 0.016555808 -0.021935113 0.024289902
000360 73 59 56 3f 06 ee 4a 3c 59 77 85 bd 04 47 b1 be
       0.8373024 0.012385851 -0.065169044 -0.34624493
000370 45 4f eb 3c fd a3 8b 3d 63 20 06 3c 3b ac 87 bd
       0.028724322 0.06818388 0.0081864325 -0.06624647
000380 e4 2d 2e bb ba 2c 3c bd 99 4b 14 3f 1b 95 1d 2c
       -0.0026577646 -0.045941092 0.5792785 2.2393812e-12
000390 48 d1 4a be bf 70 8b bd 3e 17 ff 3b 28 1f c4 aa
       -0.19806397 -0.06808614 0.007784753 -3.4838213e-13
0003a0 2d e4 7c 3f f2 59 1d 3d 98 79 d9 3d 15 f9 ea bd
       0.9878567 0.038415857 0.10618895 -0.1147329
0003b0 1a 34 31 3d f3 a1 fc 3c ae 75 b9 3c 0d 49 9b 3d
       0.04326258 0.030838942 0.022639122 0.07582293
0003c0 73 e2 8d 3d a5 30 8a 3d f0 41 ff 3c 58 6a ae bc
       0.069279574 0.067475595 0.031159371 -0.021290943
0003d0 e8 a5 af 3d 58 4e 2f 3c 1d d5 bf 3d 9a eb 30 be
       0.08576566 0.010699831 0.0936682 -0.17277375
0003e0 c0 c2 93 3b 65 c6 8d 3d bd 8a 33 3d b1 2b 4c ab
       0.0045093 0.069226064 0.043833483 -7.2535993e-13
0003f0 ac 67 a7 bd 80 dd 8e bd 74 dc a8 bc c2 45 c3 aa
       -0.08174071 -0.069758415 -0.020612933 -3.4687363e-13

onnx::Conv_805 f4 [24]
000000 de db 1f 3e 4d 96 2b be fc 60 04 3e 03 4e b0 3e
       0.15611216 -0.16756554 0.12927622 0.34434518
000010 74 85 07 3e 4b f6 40 3d 5b e3 9f 3b f9 d0 e0 3d
       0.13234502 0.047109883 0.004879398 0.10977358
000020 41 0e 38 3d 29 66 ad bd 5e 89 30 3d 7e 30 08 3d
       0.04493547 -0.08466751 0.043099754 0.03324937
000030 e8 3c 66 3e 8e 1e 13 3e f0 81 38 bd 18 63 e7 3d
       0.22484171 0.14367124 -0.045045793 0.112981975
000040 46 62 bd 3e b2 9d e0 3d 2d b0 12 3e 1f 21 a3 3d
       0.3698904 0.10967578 0.14325018 0.07965302
000050 1d 9c ab 3e 80 81 93 bd d1 4c 26 3d 77 d3 84 3d
       0.33517542 -0.072024345 0.0406006 0.06485646

onnx::Conv_807 f4 [24, 24, 1, 1]
000000 3d f9 3a 3e 4e e0 18 bb 1d 02 56 3e 11 ec 23 3e
       0.1825914 -0.0023327055 0.20899244 0.16008021
000010 f4 82 1c 3c 09 8e 16 3e 7b 21 96 bc b3 d7 f9 3d
       0.009552706 0.1470262 -0.018326512 0.121993445
000020 51 52 9d 3b 3c 5f 3a 39 16 af 04 3d 20 35 18 2b
       0.0048010726 0.0001777382 0.032393537 5.4074974e-13
000030 91 3c ff 3d 89 f4 d8 3c 7e 04 06 3d ae 9b 91 a9
       0.12462724 0.026483791 0.032719128 -6.4663e-14
000040 88 d5 73 3e db 2e 1b 3e dd 90 93 3c 63 d2 07 3c
       0.23811924 0.15154593 0.018013412 0.008289906
000050 b9 9c 19 bb d2 da 11 3e 9f 69 de bb 1a 26 34 bb
       -0.0023439361 0.1424363 -0.0067874934 -0.002748853
000060 83 c4 bd 3d c5 cc bc bd 64 a0 8b 3c 1e 9f 3d 3d
       0.09265997 -0.09218744 0.017044254 0.046294324
000070 55 eb 7f 3e 4b e6 d9 3e fb e8 58 3e 01 45 e8 ba
       0.24992116 0.42558512 0.21182625 -0.001772076
000080 d6 a7 7b be 15 c2 da bd f3 f8 ac 3d 7d c0 91 ab
       -0.24575743 -0.106815495 0.08445921 -1.0356296e-12
000090 af e1 28 bd a3 21 66 3c 2e 99 b7 be d9 14 4c 29
       -0.041230854 0.014046106 -0.35859054 4.5315182e-14
0000a0 03 54 29 3e 66 98 34 3d bf 0e 09 3d 05 e5 b5 be
       0.16535954 0.04409065 0.03346133 -0.3552629
0000b0 7d c6 d1 bd 9c 1b 81 3e 3b 0e 86 3e db c6 80 be
       -0.10242937 0.25216377 0.26182732 -0.25151715
0000c0 0f 16 1d 3d df 67 8d bd d4 c4 ea 3c ab 49 98 3d
       0.038351115 -0.069045775 0.028658308 0.07435926
0000d0 90 06 ee 3d 86 d3 21 be 6d 96 1e bf 70 8f b4 bd
       0.116223454 -0.15803346 -0.6194828 -0.08816421
0000e0 1e e3 2a 3d a8 e5 99 bc 5c 41 3b bc ea 7f 79 2b
       0.041720502 -0.018786266 -0.011429157 8.8640087e-13
0000f0 bb a3 52 bd fc 73 a7 bb 7e ee 68 3c ca ee 35 2a
       -0.051425677 -0.005110262 0.014217017 1.6158876e-13
000100 d5 22 5e 3d cd f6 0a be 62 0d 5f bc 57 42 5d bd
       0.054232437 -0.1357071 -0.013614031 -0.054018345
000110 af 3b 11 3e 3e e4 3c be 57 60 f7 bc 7c f9 ea b8
       0.14182924 -0.18446442 -0.030197306 -0.000112044596
000120 f2 78 1f 3e 6f a2 a9 be ab 0d 12 3d 2c 61 77 3d
       0.1557348 -0.3313174 0.035657566 0.060395405
000130 58 df e6 3c 33 d1 d0 3d 7a f9 ce 3d de be 38 be
       0.02818267 0.101961516 0.10106178 -0.1804156
000140 02 e2 90 3d e1 4b 05 bf 4a 6a d1 bd 23 b7 1e 2b
       0.070743576 -0.5206891 -0.10225351 5.638703e-13
000150 f5 81 60 3d 74 53 6c 3e 07 4e 89 bd bc 5f 41 ab
       0.054811437 0.2307871 -0.06704336 -6.870023e-13
000160 c2 bb 94 3d af c8 99 3b 84 60 80 be c0 69 97 bd
       0.072623745 0.004693113 -0.25073636 -0.07393217
000170 20 14 ca be 88 b1 a3 3e 2f b2 89 3e ec ab ed be
       -0.3946848 0.31971383 0.26893756 -0.46420228
000180 18 b0 94 be 99 35 88 3d 2e 90 31 be fc bf 95 be
       -0.290406 0.06650848 -0.17340156 -0.29248035
000190 f3 df ab be 37 9c e4 bd 5b 47 8c be c7 3e d5 bd
       -0.33569297 -0.11162608 -0.2739819 -0.104123645
0001a0 41 09 13 3e 93 41 17 be ae 70 63 be e4 75 89 2b
       0.14358999 -0.14771108 -0.22210953 9.767157e-13
0001b0 0d 50 15 be 03 af bc bc c7 54 3d 3e c0 ed d0 2b
       -0.14581318 -0.02303267 0.18489371 1.4845278e-12
0001c0 a4 ff 02 bf bb 9c 21 be ea e4 d2 bd 11 85 35 3e
       -0.51171327 -0.15782444 -0.10297568 0.17726542
0001d0 0a 2b 5c 3c ff 34 e7 bd aa a3 70 be 9d 9c ee 3c
       0.013437996 -0.11289405 -0.23499933 0.029127413
0001e0 1f 8e 48 be c7 e7 42 3d af c6 83 be fe 9d 50 be
       -0.19585465 0.04758432 -0.2573752 -0.20372769
0001f0 1f cb f2 bc 04 83 1f be 47 b2 2e bb b7 8e 36 be
       -0.029637871 -0.15577322 -0.0026656555 -0.17827879
000200 5c 32 f3 bb 32 e7 cd 39 30 d2 67 bd 76 98 39 2a
       -0.007421775 0.000392729 -0.056596935 1.6484196e-13
000210 b2 bc 6d be 75 fb 1b bd d2 72 bb bc 7d a9 0e 2a
       -0.23216513 -0.038081605 -0.022881899 1.2670937e-13
000220 00 60 a1 be 95 f3 9b be d7 30 a0 bd 75 d2 a1 3c
       -0.31518555 -0.30459276 -0.078218155 0.019753674
000230 d3 a4 3c bc 82 1b 58 be 61 ab 2b bc 5b c6 5e 3c
       -0.0115139065 -0.21104243 -0.010477872 0.013597096
000240 24 45 7d 3d 52 4a 97 3e e2 7f a0 3d 4c 24 8f 3d
       0.061833516 0.2954889 0.07836892 0.06989345
000250 5f 76 e0 be 51 f9 b2 3e cd fa d5 be b3 1b 9c bd
       -0.4384031 0.34955838 -0.41792908 -0.07622471
000260 30 66 59 be 5d 71 82 3e 3d a6 b3 3d 97 02 12 2b
       -0.21230388 0.25477114 0.08771942 5.1873214e-13
000270 ee 1b 56 bd 0e df e3 be b4 05 fb bd 59 55 ae 2b
       -0.05227273 -0.44506115 -0.12256947 1.2387132e-12
000280 b3 da 0a 3e 8c 89 14 3e aa d5 13 3e e3 83 e3 bd
       0.1355999 0.14505595 0.14436975 -0.1110914
000290 22 5a a0 3e 95 6c 40 3e 2d 9e cd be 73 23 86 3e
       0.31318766 0.18791421 -0.4015974 0.2619892
0002a0 ec c7 3f 3d e0 b6 8e 3e 24 de b0 3d 12 f5 02 3e
       0.04682152 0.27873898 0.0863612 0.127888
0002b0 71 6e 02 bd cc 70 57 bd ac 5e 85 bd 66 33 3b 3e
       -0.031843606 -0.052597806 -0.06512198 0.18281326
0002c0 c9 4e ef be ad 34 85 3e 8d a4 89 bd 1e 9b 82 ab
       -0.46739796 0.2601675 -0.06720839 -9.280109e-13
0002d0 77 a1 28 3e ee 5a 8b be 4a 86 ab be f2 a7 63 2b
       0.16467844 -0.2721781 -0.33500892 8.087967e-13
0002e0 77 be 90 3c e3 b4 5b 3d c0 06 1a 3e 6d 6b ab be
       0.017668946 0.053639304 0.15041637 -0.33480397
0002f0 80 47 98 3e 8f 41 06 3e fc c6 a4 3b 33 55 84 3e
       0.2974205 0.13110946 0.0050286036 0.25846252
000300 31 f3 41 bd 71 5b 9b bd e6 ff df bb 6b 17 d0 bc
       -0.047351066 -0.075858004 -0.0068359254 -0.025401792
000310 51 e3 25 bf 7f e4 30 be 31 de 65 3e 7e c5 9e bd
       -0.6479998 -0.17274664 0.2244804 -0.077525124
000320 00 df c0 bd 68 46 cd bd 4e 93 fe bc f4 28 53 ab
       -0.09417534 -0.100231946 -0.0310761 -7.501909e-13
000330 d2 fd 72 bd 0b aa 06 be 27 87 37 3e 6f 80 ca a7
       -0.059324093 -0.13150804 0.1792265 -5.620551e-15
000340 5b 9c ae 3a ed 4c 0d 3e fe d8 1b 3e 12 72 d2 3c
       0.0013321744 0.13798876 0.15219495 0.025689159
000350 a9 95 da bd df d2 d6 bd c1 f7 a5 bd 72 4f d7 3d
       -0.10673077 -0.10489439 -0.08103896 0.105132
000360 8b 32 17 3d 08 cb 4d 3e de 09 de 3d bf c7 cf 3d
       0.036913436 0.20096982 0.10841726 0.101455204
000370 a3 cf c5 be d9 1f 9d 3d 4d 06 c4 be 78 9d 45 3e
       -0.38634977 0.0767209 -0.38286057 0.19298351
000380 b5 a0 ca 3d cd c2 c1 bb af f5 2e 3d 8d f9 63 ab
       0.09893934 -0.0059131146 0.04271477 -8.099292e-13
000390 a7 d0 ea 3d 97 1c 5e 3d e8 5a 3b 3e 94 79 d4 aa
       0.114655785 0.054226484 0.18296397 -3.7743127e-13
0003a0 8e a2 23 3d dc b0 01 3e 6c c2 d2 bc 67 31 8a 3e
       0.039949946 0.12665123 -0.025727473 0.26990816
0003b0 f6 1f 87 bd 01 56 f9 3d 7d 7c b3 be 3b 61 85 3a
       -0.06597893 0.12174607 -0.35055915 0.0010176072
0003c0 5b 9e 81 3d a1 8c 54 3d 7d c6 f6 bc 73 0b 0b 3c
       0.06329032 0.051891927 -0.030123943 0.008486616
0003d0 69 55 72 3d 53 d7 27 3d ff 53 05 bd d6 96 bb 3c
       0.059163485 0.040976834 -0.032550808 0.022899073
0003e0 6d 3d 34 3e ca d3 3d 3d 89 31 1a bd 6d 27 70 2a
       0.17601557 0.046344556 -0.037644897 2.132996e-13
0003f0 d8 e6 18 3d 80 39 b0 38 f8 c8 94 be 4d 4e 99 ab
       0.037329525 8.403044e-05 -0.29059577 -1.0893037e-12

onnx::Conv_808 f4 [24]
000000 b1 87 39 bf 3f 63 d7 be a6 bb dd 3e a3 45 8d be
       -0.72472674 -0.42067906 0.43307227 -0.2759219
000010 ba cf a3 3f 8c 77 b6 3f 8c 55 92 be c4 ef 80 3d
       1.2797768 1.4255233 -0.28580892 0.06295732
000020 ff 93 07 3f c1 e4 37 be fd 1a 31 be 4d 6e 7a 3e
       0.529602 -0.17958356 -0.17295451 0.24456139
000030 42 44 73 3e dc cf 4f be 95 f4 d0 bf 61 db 0b 40
       0.23756507 -0.20294136 -1.632464 2.1852648
000040 f4 94 15 3e d1 2b 1f be 3e bc ef be 3c 0b 3e 3d
       0.14607602 -0.15544058 -0.46823305 0.046397433
000050 4b 28 69 be c0 ee 30 40 c4 ae b0 3e 21 4c 51 be
       -0.22769277 2.7645721 0.34508336 -0.20439197
