Evaluation/models/NCNN_models/V2/yolo-fastestv2-opt_face.onnx (onnx, 971919 bytes, 152 tensors)

output_reg_layers.weight f4 [12, 72, 1, 1]
000000 9d 56 88 bc e4 07 b6 3d 59 31 b2 3d bf bc da bc
       -0.016642863 0.08888224 0.087008186 -0.02670133
000010 a9 15 13 3d f4 2f 76 3c 77 c9 28 bd 38 9a 71 bd
       0.03590933 0.015026081 -0.041207757 -0.058984965
000020 80 61 ea 39 a5 ac ac bc 42 11 48 3d 03 82 10 3d
       0.000447046 -0.021078417 0.048844583 0.03528024
000030 54 63 be bd 3b 5a bb bd c4 30 08 3d 69 7a 39 bc
       -0.09296289 -0.091480695 0.03324963 -0.011320689
000040 3f f7 d9 3d 4e a3 da bc 0b d9 98 3d 92 9e 94 bd
       0.106428616 -0.026689198 0.07463273 -0.072568074
000050 d9 26 98 3d 1a 4e 10 be 9c 5a 6d bd 4b 8f e8 3d
       0.074292846 -0.14092293 -0.05794774 0.11355456
000060 40 fe bd 3d 62 1f 11 3e 09 f0 e6 bd ea 5a da bc
       0.0927701 0.14172128 -0.11276252 -0.02665468
000070 51 a1 9f bd 36 8c ff bd 67 6a 88 bb db 3a 72 bd
       -0.077944405 -0.12477915 -0.004163075 -0.05913816
000080 8d e4 52 3d 95 fa b9 bd ea fb 96 bd c8 45 71 bd
       0.051487494 -0.09080998 -0.073722675 -0.05890444
000090 84 5d a7 3d 8f 86 be 3d d2 97 d9 bd 15 2e 16 bd
       0.081721336 0.09303009 -0.106246606 -0.03666504
0000a0 ff 93 dd bd fd 2b f3 3d 8e d4 0a 3e 31 ea 4b bc
       -0.10819244 0.118736245 0.13557646 -0.012445972
0000b0 3e fd 6c 3e 95 67 c0 bd d5 05 2d 3d 07 4d 89 3d
       0.23143479 -0.09394757 0.04224189 0.06704145
0000c0 ed a5 31 be 5e 36 78 3c d9 b8 0b be a8 fa 03 3d
       -0.17348452 0.015149681 -0.13644733 0.032221466
0000d0 09 06 40 3d 4f 94 c3 bd 73 4d d3 3d 9b 7d 5a bb
       0.046880756 -0.09549772 0.10317507 -0.0033339027
0000e0 a1 25 63 3d 87 27 05 3e d3 d0 05 bb 1e 27 7c bc
       0.055455808 0.1300336 -0.0020418658 -0.015390186
0000f0 8a 33 91 3d 85 1d 8b bb f7 dd 46 be 44 c8 0e bd
       0.070899084 -0.0042454624 -0.1942061 -0.034858957
000100 e3 63 6a bd 75 02 66 3c 09 5a 16 be 3a 3e af bc
       -0.057224166 0.014038672 -0.14682783 -0.021391977
000110 67 65 cc bc 42 5d 72 3d cc 7f a5 3c 41 c3 2a 3d
       -0.024950696 0.05917097 0.02020254 0.041690115
000120 18 bf 41 3e 10 cb 96 3d f4 64 16 be 7b 1c cd bd
       0.18920553 0.0736295 -0.14686948 -0.10015198
000130 58 1d c9 bc d4 52 84 bd b1 ae e4 3d a0 6d 24 3d
       -0.024550125 -0.06461111 0.11166132 0.04014361
000140 d7 ee 94 bd 2d 36 b1 3d f1 2c c4 3c 2a 4f b8 bb
       -0.072721176 0.08652911 0.023947211 -0.0056246715
000150 80 ce 0a be 91 e8 0c 3d df 73 9f 3d 3d 91 87 bd
       -0.13555336 0.03440148 0.077857725 -0.06619499
000160 1b b3 13 3e e9 10 7d 3d 66 a1 72 3c 02 bc 83 3d
       0.14423792 0.061783705 0.014808988 0.06432344
000170 f7 89 00 3e 3f 1c 46 bd e0 67 97 3d ee d7 a9 3d
       0.1255263 -0.04836678 0.073928595 0.082931384
000180 41 6f 56 3d 69 ef 91 3c 49 5d a4 3d 91 c0 4d bd
       0.052352194 0.017814355 0.08025605 -0.050232474
000190 32 ce 92 3d ac 59 a7 3c 74 31 d5 3c d3 ba 4c 3d
       0.07168235 0.020428501 0.026024558 0.049982857
0001a0 0b 71 34 bd 9d 36 8e bd d6 c7 65 bd 90 52 0b be
       -0.04405312 -0.069440104 -0.05609878 -0.13605714
0001b0 c5 61 d2 bc 54 05 67 bd df 2a d7 3d 2f 9e c5 3d
       -0.025681386 -0.056401566 0.10506224 0.09649312
0001c0 44 86 d3 bc a5 b3 84 bd 49 9a fd 3d e4 f7 94 3d
       -0.025820859 -0.06479577 0.12382943 0.07273844
0001d0 fb af e3 bd 7b f9 74 3e 51 b8 bc 3d 52 a9 ff 3c
       -0.1111755 0.23923294 0.09214843 0.031208668
0001e0 8a 8b 47 be 45 20 92 bd 17 b2 9d 3d be f8 dc bd
       -0.19486824 -0.07135061 0.076999836 -0.10789631
0001f0 6b ff d5 3d ae 32 a8 3c 0e 8c ee bc 82 7e 6c bd
       0.10449108 0.020531978 -0.029119518 -0.057737835
000200 c2 51 76 3e 6a 1e 97 3b 19 c5 f3 bd f2 01 f9 39
       0.24054626 0.00461178 -0.11902828 0.0004749443
000210 32 3d d5 3d ca 47 0e 3e 4e 0f cc 3d 1d ed 08 3d
       0.10412063 0.13894573 0.09963857 0.033429254
000220 62 f5 52 bd c9 99 77 3c d0 dd bf bc d6 b9 ca 3c
       -0.051503547 0.015112349 -0.023421198 0.024746817
000230 79 58 10 3e 82 f8 e7 bd 23 a5 db 3d ab a7 e3 3d
       0.1409625 -0.11326696 0.10724857 0.111159645
000240 b0 f5 f8 3c a8 a0 e7 3b f6 f6 f0 3b 0e 44 11 bd
       0.03039059 0.0070687123 0.007353659 -0.035465293
000250 f0 bd d5 3d be 11 0f be 92 e6 a7 bd 1e 0e cf bd
       0.10436618 -0.13971612 -0.08198275 -0.101101145
000260 89 f0 55 3d 0e cc 70 bd 71 e4 40 bd c2 c8 e7 bd
       0.052231345 -0.05878835 -0.04709286 -0.113175884
000270 51 92 74 3c b5 55 62 bc cf f6 52 bc c8 44 a6 ba
       0.014927463 -0.013814379 -0.012876227 -0.0012685293
000280 bc 3a d6 bb 6e f7 0f bd 1c 38 72 3d 89 33 6a 3c
       -0.0065377634 -0.035148077 0.05913554 0.0142945135
000290 b5 d4 6c 3d a2 87 2b bd f2 8f 59 3c 60 4d 47 bc
       0.05782004 -0.041877396 0.013278948 -0.012164444
0002a0 7e b7 7f 3c 6b de 8a 3d a8 e3 a2 bd 4d b4 8f bc
       0.015607713 0.06780704 -0.07953578 -0.017542029
0002b0 43 aa 92 bb c7 e6 35 bd 14 be bb bb ca 1e 33 bd
       -0.004475863 -0.04440954 -0.005729446 -0.043730535
0002c0 d2 5f d4 3d d1 e4 37 3c 19 78 96 3d 83 e2 8c 3d
       0.10369839 0.011223988 0.073471256 0.06879141
0002d0 e1 f7 c2 3c fc 49 e3 bd 89 71 98 3c 73 f8 5d 3d
       0.023799838 -0.11098096 0.018608825 0.054192018
0002e0 ca d4 a3 3c 3f 1d 08 bd d7 c6 f8 bc 54 64 19 3e
       0.019998927 -0.033231016 -0.030368252 0.14979678
0002f0 4b db 20 3c 5a f1 9b 3b 5f 2d 19 be c9 a7 1f bc
       0.0098179085 0.004758996 -0.14958714 -0.009744593
000300 8c 32 c9 bc b7 47 92 bd a0 d0 b4 3c 15 6d 78 bd
       -0.024560235 -0.07142585 0.022072136 -0.060650904
000310 dc 6d 8a be f1 e3 54 bc 8f 12 91 bc 1a ac b7 bd
       -0.2703694 -0.012993799 -0.017709045 -0.08968373
000320 30 be b5 3c 19 ad f2 bd 68 32 c1 3d 71 9d b3 3d
       0.022185415 -0.11849422 0.09433442 0.08770264
000330 1a 21 93 bd 08 b6 6a 3d ab 9c 96 bc 62 6f 89 3d
       -0.07184048 0.057302505 -0.018385252 0.06710698
000340 a1 82 04 bd b1 ef a1 3d f2 88 53 3d 29 1b 1a bd
       -0.03235114 0.07907046 0.051644273 -0.03762356
000350 71 1d 30 3d a1 70 12 bc 86 58 d4 3d cd cf 07 bb
       0.042996828 -0.008937986 0.10368447 -0.0020723224
000360 31 24 68 3d 83 50 12 bd 44 29 52 3b 7c f8 33 bd
       0.05667514 -0.035721313 0.0032068053 -0.043938145
000370 37 4a 5c 3e 73 97 3b bd 8f 59 48 be b9 4b 28 bd
       0.21512686 -0.04579873 -0.19565414 -0.04108784
000380 c0 09 c4 3d 2a 5c 60 bd 1f ba 04 be 04 56 97 3d
       0.09572172 -0.054775394 -0.12961625 0.07389453
000390 60 89 92 bc 6d 99 16 be 1d 90 0b 3d a2 02 e0 bb
       -0.017887771 -0.14706965 0.034072984 -0.0068362514
0003a0 02 b4 c3 3b 3a a1 57 bd f4 89 90 bd 80 fc bb 3c
       0.0059723863 -0.052643992 -0.070575625 0.02294755
0003b0 a3 34 f1 3c 8e f5 0c bc b0 5c 87 ba 60 eb 85 3d
       0.029444044 -0.008603467 -0.0010327306 0.06539035
0003c0 4a 18 2f bd cc a2 92 3d c8 7b 76 3d b8 ed 2b bd
       -0.042747773 0.07159957 0.06017664 -0.041974753
0003d0 1c 45 c7 3c 13 89 2d bc 95 50 81 bc 05 bd 95 3c
       0.024324946 -0.010591763 -0.015785495 0.018278608
0003e0 94 a4 65 3d 29 88 84 bc 41 a4 d3 3b 03 e3 af 3d
       0.056065157 -0.016178207 0.0064587896 0.08588221
0003f0 87 c1 6d bd 1e d5 cb bd 58 75 61 3d 5c 1d b2 bc
       -0.05804589 -0.09952758 0.05504355 -0.021742515

output_reg_layers.bias f4 [12]
000000 dc 09 1a 3d a9 f2 24 bd 86 99 32 3e ec 9a 25 3e
       0.03760706 -0.04027048 0.17441377 0.1617238
000010 25 6f 19 3d 92 e3 1b bd 3c 3f 06 be 29 5d 04 be
       0.03745951 -0.038058825 -0.1311006 -0.12926163
000020 62 1a 6b 3c 4c 49 aa 3b 77 54 28 be 0f 35 8d be
       0.014349552 0.005196726 -0.16438471 -0.27579543

output_obj_layers.weight f4 [3, 72, 1, 1]
000000 f4 ff 28 be bb 3e 96 bd f4 2e 50 3e 21 56 84 be
       -0.16503888 -0.07336184 0.20330411 -0.2584696
000010 3d 67 13 3f a8 6d c8 be 9a 89 1b be 50 e4 da 3e
       0.57579404 -0.3914616 -0.1518921 0.42752314
000020 46 36 86 3d 14 5a 4b bf 33 ac 9d bc 63 f1 31 be
       0.065533206 -0.79434323 -0.01924715 -0.17377238
000030 7e 77 d0 3e 20 7d a4 3e c2 be 15 3f 44 df 8a 3e
       0.40716165 0.32126713 0.584942 0.27123463
000040 00 a2 a7 be 2e 80 f7 bd 0f 9e 9b be 91 6a 2c bd
       -0.32740784 -0.12084995 -0.30394027 -0.042093817
000050 8a f2 70 be e4 9f 17 bf 4a 09 27 3e b4 f8 fb 3e
       -0.23530021 -0.5922835 0.16312137 0.49213183
000060 b1 ce cf be 95 9e 05 3c 3c a8 44 be 42 c9 4e 3e
       -0.4058738 0.008155485 -0.19204801 0.20193961
000070 e7 fc 1f 3e dd 31 7a be 35 44 07 bf 81 cf f0 3b
       0.15623818 -0.24433084 -0.5283845 0.007348955
000080 bd d7 44 bd 10 ef 31 be 64 e2 86 bc ae b1 8f 3e
       -0.048057307 -0.17376351 -0.016465373 0.28065246
000090 4d 67 03 bd 1b 8b 87 be 1d ca d1 bc 48 6c 68 3f
       -0.032080937 -0.26473317 -0.02560907 0.90790224
0000a0 34 d8 24 3f 3a e3 08 3d 75 ef 4a be 3b 72 75 3c
       0.643924 0.033419825 -0.19817908 0.014980848
0000b0 0b d4 23 3e df 94 b1 be 7f 02 90 3d 2e 6e cd be
       0.15998857 -0.34683892 0.07031726 -0.40123123
0000c0 b5 2c 27 be 24 ce f2 3d 6b 91 55 3e fc aa 29 3f
       -0.16325648 0.118557245 0.20856254 0.66276526
0000d0 05 9e a3 be ff 05 6b 3d 5d 2d 44 be 28 e8 46 be
       -0.31956497 0.057378765 -0.1915793 -0.19424498
0000e0 e8 68 f3 3e dd 73 52 bc 77 36 17 3f 1c 80 25 3d
       0.47540975 -0.012845007 0.5906748 0.040405378
0000f0 ce df 75 bd 29 62 25 3c 88 df 55 3d a1 c3 c2 3c
       -0.06002789 0.010094204 0.05221513 0.023774924
000100 5e c7 4a be 5a 77 d6 3d d4 ec 13 bf 62 b9 6a bd
       -0.19802615 0.10471983 -0.57783246 -0.0573057
000110 cc 0c 22 3f 5d 1b 50 3d e3 33 4a be 1e 9a 10 bf
       0.63300776 0.050807346 -0.19746356 -0.56485164
000120 9c 38 c5 be 01 55 13 be ff d5 7b 3e 0e 29 fb be
       -0.38519752 -0.14387895 0.24593352 -0.4905476
000130 64 e2 1b 3f 3b db 06 be 1b ec a0 3d 3a d1 bf 3e
       0.6089232 -0.13169567 0.078575335 0.37464315
000140 92 77 7c 3e e0 74 51 bf a0 89 85 3e 91 a1 80 be
       0.24654987 -0.8181896 0.26081562 -0.25123265
000150 a3 45 29 3e cc c5 b0 3d 72 89 ac 3e 56 8c f0 3e
       0.1653047 0.08631477 0.33698612 0.46982068
000160 35 8f 44 3d e8 bd 3f 3e 9d e1 05 bf 4c 33 38 be
       0.047988135 0.18724787 -0.52297384 -0.17988318
000170 b4 a4 e1 3d 38 55 fc be cf c9 95 3d 64 9f 1d 3f
       0.11017743 -0.49283767 0.073138826 0.61571336
000180 96 9d c7 be 70 24 21 3d 82 98 da 3d ef 57 34 3d
       -0.38987416 0.03934139 0.1067362 0.044029173
000190 86 b6 fb bc 87 c7 da bd 19 7d d6 be 6f 67 9b 3d
       -0.030726682 -0.10682588 -0.41892317 0.07588088
0001a0 80 f0 62 be d1 cf 23 be e8 f3 7c 3e e3 2f 51 3e
       -0.22162056 -0.15997244 0.24702418 0.20428424
0001b0 ad 7e 0c 3c f5 26 b9 bd 57 d0 03 3e b1 b1 7b 3f
       0.008575124 -0.090406336 0.12872444 0.9831801
0001c0 f1 0b 1e 3f 66 03 5a 3e ac e5 9d be 36 dc 2e be
       0.6173697 0.21290359 -0.30839288 -0.17076191
0001d0 72 f2 4c bd 73 73 b8 be 44 be 0e 3c 48 5e b1 be
       -0.0500359 -0.3602558 0.008712355 -0.34642243
0001e0 6a 90 bd be 01 27 61 3e 8f dd db 3d f4 da 1a 3f
       -0.37024242 0.21987535 0.10735618 0.60490346
0001f0 14 2b 86 be 3d 7b 40 be 08 e1 b3 be 75 1a 32 3e
       -0.2620474 -0.18797012 -0.35132623 0.17392905
000200 69 46 d5 3e 35 0d d1 3d 60 22 2e 3f cd 62 e1 bc
       0.4165528 0.10207597 0.680212 -0.027512932
000210 52 24 b8 be 41 e1 35 3e 17 ff 81 3e 91 5e c5 3c
       -0.3596521 0.17761709 0.2538993 0.024092944
000220 47 b0 68 3e e4 2b 3d 3d 8d bf c6 be 0f 10 02 be
       0.22723494 0.046184435 -0.38818017 -0.12701438
000230 22 e7 26 3f b6 ff 45 be 69 bf 80 3e 04 5c 0b bf
       0.6519643 -0.19335827 0.25146034 -0.5443728
000240 5a fd 03 bf db 1c 8d be 0b 51 01 3d cf 8c 9c be
       -0.5155846 -0.27561077 0.03157143 -0.30576178
000250 ef 6f e6 3e 54 1b 99 be 77 cc 69 be ad 2d ec 3e
       0.45007274 -0.29903662 -0.22831903 0.46128598
000260 c0 da c9 3e d8 a5 40 bf d7 0b 92 3e 12 23 98 be
       0.39424706 -0.7525306 0.28524658 -0.29714257
000270 e6 2c 5b 3e a0 25 eb bc ba 24 fa 3e 5b 59 bb 3e
       0.21403846 -0.028704464 0.48856145 0.3659161
000280 ec 16 ed 3c e7 2f 3c 3e 16 c2 d8 be 0f 29 3f be
       0.028941594 0.18377648 -0.42335576 -0.18668006
000290 61 f4 2d 3e 75 69 1e bf 11 1b ba 3d 74 77 da 3e
       0.16987754 -0.61879665 0.09087194 0.4266926
0002a0 df 15 3d bf 7d 78 86 3c af e2 7d 3e 8d fb 60 3d
       -0.738615 0.016414875 0.24793504 0.054927398
0002b0 de 51 da bd 3d 1d f7 3d 9b 45 07 bf 3d fd e5 3b
       -0.10660146 0.12066124 -0.52840585 0.0070187137
0002c0 28 08 5c be c0 96 ea 3c ec 30 d5 3e 91 fa 8b 3e
       -0.21487486 0.028636336 0.41638887 0.27339604
0002d0 c8 11 0d 3e ea a0 59 be f5 00 7e be 50 75 80 3f
       0.13776314 -0.2125279 -0.24805053 1.0035801
0002e0 8c 09 30 3f 17 91 92 bd 9a d1 40 3e 3d ec 8b be
       0.6876457 -0.0715658 0.18829957 -0.27328673
0002f0 a3 7e 96 bd 3f 56 bf be fd 1e 25 be f3 f5 f1 be
       -0.07348373 -0.37370488 -0.16125102 -0.47257957
000300 97 a3 1d be b3 c6 2c bd a8 6d 0a 3e 2e d2 35 3f
       -0.15394436 -0.04218168 0.13518393 0.71023834
000310 22 8a ce be 4f 56 5d 3e 26 b8 8a bd ea 9a 2d 3e
       -0.40339762 0.21614955 -0.06773405 0.16953626
000320 b4 18 bd 3e aa ee ae 3d 29 49 c3 3e 65 ca 09 be
       0.3693291 0.08541615 0.38141754 -0.13456114
000330 cd f1 e3 be e8 05 81 3e da a5 f3 3d ad 9f 50 be
       -0.44520417 0.2519982 0.11896868 -0.20373411
000340 0c 1e 0f 3e cc 1f a6 3e 14 df ce be 39 ec 3a 3e
       0.13976306 0.32446134 -0.4040457 0.18254174
000350 41 ff 12 3f 3a 3d 14 3e 77 d1 61 bd 8f 7b b1 be
       0.57420737 0.14476481 -0.055131402 -0.3466458

output_obj_layers.bias f4 [3]
000000 38 2f f5 bf 10 cc f6 bf fd 96 00 c0
       -1.9155035 -1.9281025 -2.0092156

output_cls_layers.weight f4 [1, 72, 1, 1]
000000 fa a8 53 3d a8 5a 66 bc 66 cb 42 bd 9e c6 09 bd
       0.05167482 -0.0140597 -0.047557257 -0.03363668
000010 7c 72 b1 bc 18 52 64 bd 48 20 06 bc 90 9a a6 bb
       -0.021661036 -0.055742353 -0.008186407 -0.0050843433
000020 85 01 6d bd a5 59 a5 3d 58 1a df bc b8 8f 2f 3c
       -0.057862777 0.08073739 -0.027234241 0.010715418
000030 a1 a7 b9 bd 40 6a b9 ba a1 23 81 3d 2c dc 93 bd
       -0.09065176 -0.0014146045 0.06305624 -0.07219729
000040 d4 5b d1 bd d2 97 76 3d 98 67 26 3c 35 19 84 3d
       -0.10222593 0.06020338 0.010156535 0.0645012
000050 1c 5c 62 bd b4 1e d3 bd 4f a4 71 bd 93 e8 d9 3d
       -0.055263624 -0.103085905 -0.058994588 0.10640063
000060 d0 17 35 bc f6 18 60 bd 10 6d ec 3b 2c 6c f7 3c
       -0.011053041 -0.054711305 0.0072151497 0.030202948
000070 18 42 aa bc 80 f2 b7 3a 11 29 d0 3d 90 15 e7 bc
       -0.02078347 0.0014034063 0.10164083 -0.028208524
000080 4a 54 b3 bd d6 4b d6 bd 83 69 e0 3d ba 08 30 bd
       -0.08756311 -0.10463683 0.10957625 -0.042977072
000090 47 57 ed bd 1d 40 e7 bd 02 98 f0 bd eb ac da 3d
       -0.115889125 -0.112915255 -0.11747743 0.10677513
0000a0 4e ec bc bd 74 5d 9f bd b7 e6 bf bd 10 a3 f5 bc
       -0.09224759 -0.07781497 -0.09370177 -0.02998498
0000b0 38 83 1b bd 0c d8 a3 bc 02 51 df bd ee 19 bc bd
       -0.037966937 -0.02000048 -0.10904123 -0.09184633
0000c0 cf df b9 bd 5a 62 60 3d 73 c6 91 3d 0a 47 2e 3d
       -0.09075891 0.054781295 0.07117929 0.042548217
0000d0 be d3 08 3d b6 10 1c 3d fe df 6f 3d 94 62 c8 3c
       0.033405058 0.038101874 0.058563225 0.024461068
0000e0 4c 40 71 bd 56 dd 08 bd a2 ea 69 3d 22 d0 1c bd
       -0.05889921 -0.033414207 0.05710853 -0.03828443
0000f0 af 3a 88 bd 23 42 83 3d 32 d9 12 3d 0c 2b b8 bc
       -0.06651818 0.06409099 0.035851665 -0.022481464
000100 f0 99 b5 3b 01 87 ae 3d e8 f9 10 bc 60 3d 0f bc
       0.0055420324 0.08521844 -0.008848645 -0.00874266
000110 fd 61 c4 bd 38 4a 9e bd fa 19 45 3d 9f 82 b7 bd
       -0.09589002 -0.07729 0.048120476 -0.08960461

onnx::Conv_798 f4 [24, 3, 3, 3]
000000 59 b7 0e 3d b2 56 1d 3d 7b 48 c2 3b f4 86 42 3d
       0.034842823 0.038412757 0.0059290505 0.047491983
000010 6a c9 22 3d e1 e4 31 3d 33 f4 37 3d 23 c1 1d 3d
       0.039742865 0.043431167 0.04491062 0.038514268
000020 8a 76 35 3d c5 d5 72 be de 43 1d be cf eb 49 be
       0.0443025 -0.23714359 -0.1535792 -0.1971886
000030 c1 0c 3e be a4 a6 35 be b9 65 3c be 1b 8e 2f be
       -0.18559553 -0.1773935 -0.18398179 -0.17144053
000040 17 15 18 be 7d 6c 0f be 34 ab 2c 3e a3 51 e7 3d
       -0.14851795 -0.14006229 0.16862184 0.11294868
000050 f9 3f 33 3e 60 f1 25 3e 0b 29 0b 3e ad ad 18 3e
       0.17504872 0.16205359 0.13589875 0.14910002
000060 40 be 00 3e 13 4d 04 3e 5a ec e4 3d 0d 72 8d 3e
       0.12572575 0.12920026 0.11177893 0.27626076
000070 98 19 94 be 55 87 be bd 80 f4 7f be 04 f5 1c bf
       -0.28925776 -0.09303156 -0.24995613 -0.61311364
000080 d8 97 2d 3e cd a0 cd bd ab 9f 18 3e fd 6f eb 3e
       0.16952455 -0.10040436 0.14904658 0.45983878
000090 91 66 25 3f 9a f7 65 be 0a 63 00 be 62 c0 ea bd
       0.6460963 -0.22457734 -0.1253778 -0.11462475
0000a0 95 4a 79 bf 8a 9b fa bd a7 f5 0d be 6c 92 06 3d
       -0.9737943 -0.12236698 -0.1386324 0.032854483
0000b0 db 6a 4f 3f e5 63 60 3f 30 7b 70 3e d1 ca ab bd
       0.81022424 0.87652427 0.23484492 -0.083882935
0000c0 09 4e 79 3d ae b1 5d bf 59 5c f6 be 2b ec 16 be
       0.060865436 -0.8659924 -0.4811733 -0.14738528
0000d0 ac b9 90 be c8 22 06 3f 6f e0 31 3e 39 d2 0d 3e
       -0.28266656 0.5239682 0.17370771 0.13849725
0000e0 d8 bf d6 3d 65 d2 7c 3d 20 da 80 3c e9 00 e8 3d
       0.1048581 0.061724085 0.01572901 0.113282986
0000f0 67 96 48 3e d8 f7 b3 3d d6 cb be 3d 38 7a 1c be
       0.19588624 0.08787507 0.09316222 -0.15280998
000100 0e 7e 86 be 5d ce 26 be 04 2f a7 be 67 1d d9 be
       -0.26268047 -0.16289659 -0.32653058 -0.42405245
000110 c7 e3 38 be 49 e5 24 be 4c 69 5a be 06 77 56 bd
       -0.1805564 -0.1610309 -0.2132923 -0.052359603
000120 e6 a3 0c bd 77 80 20 3e 1f 87 aa 3c 54 65 28 3e
       -0.034335993 0.15674005 0.020816384 0.16444904
000130 ba 66 be 3e e7 f4 63 3d 9e 54 d9 bc ea 5f 95 3d
       0.3718775 0.05565348 -0.026529606 0.07293685
000140 c4 12 28 bd f4 a6 2b be 01 34 89 be 7e ec 11 be
       -0.04103352 -0.16762906 -0.26797488 -0.14250371
000150 d5 c8 5e be 36 79 86 be cc 5f 47 be ca ec 66 bd
       -0.21756299 -0.26264352 -0.19470137 -0.056378163
000160 4f 8e 16 be 6c 40 d2 bc ac 31 64 3e 47 50 42 3e
       -0.14702724 -0.025665484 0.22284573 0.18975936
000170 67 e2 36 3e 0d 58 1e 3e ba 45 5c 3e 22 e7 1d 3e
       0.17859803 0.15463276 0.21510974 0.15420201
000180 fc 54 0b 3e 20 39 c7 3d 32 59 0e 3e e5 d8 b1 bc
       0.13606638 0.097276926 0.13901213 -0.021709869
000190 a4 e3 91 bc b8 d8 0b bd 0e e2 02 bb 39 3c dd 3d
       -0.017808743 -0.034142226 -0.0019971165 0.10802502
0001a0 e1 bd 4c bc a9 aa 13 bd 79 49 24 bd df 19 5b bd
       -0.0124964425 -0.036051426 -0.04010913 -0.05349147
0001b0 e7 7b a8 3e 00 d9 b4 be 6f 6a 19 be 8b 4f a4 3e
       0.3290703 -0.35321808 -0.14982007 0.32091936
0001c0 f5 6a da bd ab 6c 67 be 2c f2 6e 3e 7c 89 1b 3c
       -0.10664932 -0.22600047 0.23334569 0.009493228
0001d0 46 d2 c1 bd 21 dc 24 3f d6 52 cf be 38 39 bc be
       -0.094639346 0.6439839 -0.40492886 -0.36762404
0001e0 09 ae 13 3f f4 e1 20 be 40 ef db be 86 2b e9 3e
       0.5768743 -0.15711194 -0.4295597 0.45541018
0001f0 b0 1b 07 3d 3b 6d 9d be 59 ed 36 3f 2e 86 02 bf
       0.03298539 -0.307474 0.71455914 -0.5098599
000200 42 63 0c bf e0 e5 40 3f c4 6b 47 be 79 73 11 bf
       -0.54838955 0.7535076 -0.19474703 -0.5681682
000210 3d 8a 4d 3f bd d6 a8 3d 81 72 0a bf 6e d7 0c bd
       0.8028906 0.08244083 -0.5408097 -0.034385137
000220 20 16 34 3d 3a 01 11 bc 02 60 6b 3d e6 43 cc 3d
       0.043966413 -0.00885039 0.057464607 0.09973888
000230 d7 e5 9d 3d 4f 58 b9 3d ca 36 df 3d 55 12 9a 3d
       0.07709854 0.09050047 0.10899122 0.07523028
000240 1f 5e 25 3d a5 ca 4e 3d 4e 94 75 3d dc 8a 17 3d
       0.040372964 0.050486226 0.059955887 0.03699766
000250 92 c0 1c 3d 48 16 22 3d ad f5 3b 3c f2 ec 17 3d
       0.038269587 0.03957203 0.011472148 0.037091203
000260 45 dd b1 3c 7f 87 bd 3d 29 ec 13 3e 02 42 0b 3e
       0.021711955 0.092543595 0.14445557 0.13599399
000270 ce 43 ad 3d 13 8e e4 3d 9f 9e aa 3d e0 fb 85 bb
       0.08460198 0.11159911 0.08331036 -0.0040888637
000280 9e f3 6e 3d 12 e5 cd bb 96 53 6a be 0b c0 72 3d
       0.0583378 -0.006283411 -0.22883448 0.059265178
000290 8f b7 ac 3e 3c 5c d6 be ff 15 96 bd a3 e4 f5 3e
       0.33733794 -0.41867244 -0.07328414 0.48025998
0002a0 6d e3 8f be f9 97 b3 be dd b4 d4 3e a7 6d a8 be
       -0.281032 -0.35076883 0.41544238 -0.32896158
0002b0 5b 36 4f 3d cd f9 f4 3e cb 9d fa be 07 4e 37 be
       0.050588947 0.47846833 -0.4894851 -0.17900859
0002c0 13 3f 32 3f 80 48 a9 be 6a 6f e6 be 23 e2 14 3f
       0.69627494 -0.33063126 -0.45006877 0.5815756
0002d0 66 44 8a be e6 38 25 3d c6 a9 e6 3e 4a d6 b8 be
       -0.2700531 0.040337466 0.45051402 -0.3610099
0002e0 9c d8 54 be 5a c8 0b 3f bf 2f 81 be 6b 82 0c bf
       -0.20785755 0.5460259 -0.2523174 -0.548865
0002f0 0e 10 f4 3e 6c 13 a8 bd 59 2d ab bd a6 92 cc 3d
       0.476685 -0.082068294 -0.08358259 0.099889085
000300 6b ee e0 bd 1d 88 98 bd 07 8f d3 3c 30 e4 03 3e
       -0.109829746 -0.074478365 0.025825037 0.12880015
000310 2f 0d 36 3c 86 20 61 bd fc f1 db be 53 fb 69 3d
       0.011111542 -0.054962657 -0.42958057 0.057124447
000320 50 b8 6f 3e 1d f3 82 bd cc f4 19 3d 3b ea 1c 3e
       0.23410153 -0.063940264 0.037586972 0.15323727
000330 78 2a 81 3e 05 de 45 3e ae bb 73 3e 06 09 fd 3e
       0.25227714 0.19322975 0.23802063 0.49420947
000340 51 3f 2e 3e 11 bd 76 bc 9e f1 ac 3e b7 a8 c0 3a
       0.17016341 -0.015059725 0.3377809 0.0014698718
000350 91 74 f0 bd 57 f5 06 bd 5a 13 9d bd 69 88 95 3d
       -0.11740983 -0.032948818 -0.07669707 0.07301409
000360 09 aa bb 3c f6 2f 11 be 4b 05 38 bc ca 3e 6f bd
       0.022908228 -0.14178452 -0.011231731 -0.05840949
000370 79 ee 12 be 03 c2 cd be 77 43 e0 3d 46 db a7 3e
       -0.14348783 -0.40187082 0.10950368 0.3278448
000380 41 25 57 3e c4 59 03 be 42 5d fb be 37 fe bf be
       0.21010305 -0.12827212 -0.49094588 -0.37498638
000390 3a a1 d1 3c f9 75 09 be a5 1b 04 bf 7d 9e f9 3e
       0.025589574 -0.13423909 -0.5160468 0.4875373
0003a0 b9 27 25 3f 80 0b cf 3e 7b 36 d1 be 5c c1 58 bf
       0.64513737 0.4043846 -0.40861878 -0.84670043
0003b0 f4 fe 44 bf 2a 0e 75 3e 23 bf 3c be 3c 0d 25 bf
       -0.7695153 0.23931184 -0.18432288 -0.6447332
0003c0 1a 81 7b 3f 19 38 81 3f d9 b3 37 3f 8b f9 0f bf
       0.9824387 1.0095245 0.717588 -0.5624015
0003d0 97 09 91 3d 4e 11 74 3e 6f 34 d3 bc 77 5b 27 3f
       0.07081907 0.23834726 -0.025781838 0.6537394
0003e0 8e b6 91 3d 3d b5 22 3c a3 e1 20 3e 6d 84 d1 be
       0.07114898 0.009930906 0.15711074 -0.40921345
0003f0 a5 c9 38 bf 3c 27 0c 3e 9d 55 46 3e 7c 90 fb 3d
       -0.72182685 0.13686842 0.19368596 0.122834176

onnx::Conv_799 f4 [24]
000000 3a 9f 9f 3e 3a 42 1f 3f 98 48 d3 3e 98 bb bf 3e
       0.31176168 0.6221043 0.41266322 0.3744781
000010 dc 3d 14 3d 18 63 00 3e e8 db 25 3e a4 4a a0 bf
       0.036191806 0.12537801 0.16197169 -1.2522779
000020 95 62 33 3e a0 02 5a 3c 10 61 1a 3d c6 e4 2e ba
       0.17518075 0.01330629 0.037690222 -0.0006671663
000030 35 6e c1 3e eb af 2a 3f 3a ab 61 3d 04 2c bd ba
       0.37779394 0.6667468 0.055094935 -0.0014432673
000040 18 bc 4b 3f 62 6a 71 3e 15 ee 1c 3e 80 07 bb 3c
       0.79583883 0.23575738 0.15325196 0.022830725
000050 41 13 6c 3e b8 14 c6 3f 90 52 30 3c 65 6f 08 3e
       0.2305422 1.5475073 0.010761872 0.13323744

onnx::Conv_801 f4 [24, 1, 3, 3]
000000 f6 73 d8 3c 0e 97 88 bd ee 8e a4 bd 5d b6 da bf
       0.026422482 -0.066694364 -0.08035074 -1.7086903
000010 a5 29 1e be 7b 9c 02 40 23 f0 89 bf 52 b3 ff be
       -0.15445574 2.0408008 -1.0776409 -0.49941498
000020 2e 9f a5 3f 70 1b 1b bd 0a 12 18 bd 00 d3 23 3d
       1.2939203 -0.037867963 -0.03712658 0.039996147
000030 67 1e 31 3e d7 2b fb 3d 95 30 7a bd 14 5f 4f 3e
       0.17296754 0.12264221 -0.061081488 0.20251113
000040 49 26 91 bc e7 2a 2d 3d 1b 02 4c 3d e1 65 b2 bd
       -0.017718451 0.042277243 0.049806695 -0.08710838
000050 3a 5a 42 be 71 b2 bb be 79 b6 9e 3d fc af 5d 3f
       -0.18979731 -0.36659577 0.07749648 0.86596656
000060 44 6d c7 be f0 8c 8c 3e 89 1a ed 3f 41 b7 fa bd
       -0.3895055 0.27451277 1.8523723 -0.12241984
000070 e6 30 88 bc a7 38 80 bb e3 f2 f4 3e 0b a5 32 bd
       -0.01662488 -0.0039130035 0.47841558 -0.04361443
000080 d1 db 46 bd a9 4b af 3f b1 9f d2 3e 01 9f 7a be
       -0.048549477 1.3694965 0.4113746 -0.24474718
000090 53 16 b1 bc d1 84 8c 3d 63 59 bd bc 11 aa a2 3d
       -0.02161709 0.0686127 -0.023113912 0.07942594
0000a0 6b f1 22 3d d1 cf ee bd 68 50 8f bc 04 4e 49 bd
       0.039781015 -0.116607316 -0.017494395 -0.049146667
0000b0 e7 4f 74 be 05 0f 5f bd 2c e8 a0 bc cb ee 94 3c
       -0.23858605 -0.054457683 -0.019641958 0.018180272
0000c0 96 73 02 bf 11 24 5c 3d a1 5d d2 3e 41 b4 15 bf
       -0.5095762 0.053745333 0.41087058 -0.5847817
0000d0 01 3c 26 3d 2b e0 12 3f 06 d4 56 3d f6 3e 3f 3d
       0.040584568 0.57373303 0.052448295 0.046690904
0000e0 d5 d6 e4 bc 16 6d cc bb 70 89 33 3c 9b a7 14 be
       -0.027934471 -0.00623859 0.010958061 -0.14517061
0000f0 17 b9 17 3d dd 65 70 bd f9 96 80 be 98 9b 9b 3e
       0.03704175 -0.058690894 -0.25115183 0.30392146
000100 42 ee 9c 3e b7 75 82 3e c7 13 ac 3d b7 05 35 3f
       0.30650526 0.25480434 0.0840221 0.70711845
000110 d4 1a 34 3f 18 c7 b9 3e 42 b2 18 3f 24 a7 19 3f
       0.70353436 0.3628471 0.59647 0.6002066
000120 e4 f9 dc 3c 4d e1 8a bd 34 3c 34 3d 29 37 fe bc
       0.026974626 -0.06781254 0.044002727 -0.031032162
000130 d3 3c 85 bd bc df 43 3e 02 ee da b8 f1 71 5c 3d
       -0.06505742 0.19128317 -0.000104393825 0.0538196
000140 fc 0d a1 3e 89 19 9b bd bc c6 f6 bd 6f 95 1d bd
       0.31455982 -0.0757323 -0.12049624 -0.03847259
000150 13 39 2a bd 45 39 2e bd 24 d0 70 3c a0 3a 53 bd
       -0.041558336 -0.042535085 0.014698062 -0.05156958
000160 bc 83 14 be 2c 72 af bc 27 ce 89 bc ee 5d 11 3d
       -0.14503378 -0.021416746 -0.016821934 0.03548997
000170 84 2d d5 3d 87 68 35 3e c4 7f a0 be 7c 82 d7 be
       0.10409072 0.17715655 -0.31347477 -0.4209174
000180 a8 36 c8 3d 32 86 50 bf 4a 2e 70 bf dc 79 f2 a9
       0.0977605 -0.81454766 -0.9382063 -1.0768098e-13
000190 1c b9 20 aa 51 2d 38 aa 8d 84 af a9 42 16 8f a9
       -1.4275077e-13 -1.6358205e-13 -7.794555e-14 -6.354337e-14
0001a0 63 5d ef 29 9e 5a f7 a9 c9 2b 19 2a 81 46 2b 2a
       1.0629932e-13 -1.0984723e-13 1.3604321e-13 1.5212312e-13
0001b0 ba bc 23 3c 60 ad 8c bd 10 57 2c 3d 4a bf f3 bd
       0.009993726 -0.06869006 0.042075217 -0.1190172
0001c0 07 c1 6f be b9 ef 58 be c6 6b d6 3c ef 9d 27 be
       -0.23413478 -0.21185197 0.026174437 -0.1636884
0001d0 83 0d 9d be 60 e4 1c bd 89 7f b0 bd 25 a8 96 bd
       -0.3067437 -0.038303733 -0.086180754 -0.0735629
0001e0 77 d0 47 bd ad c1 e3 bd 17 e0 2e be aa b6 fb 3b
       -0.048782792 -0.11120925 -0.17077671 0.0076816874
0001f0 49 33 7f bc a8 16 1a be aa 12 87 3c fc dd 5d 3d
       -0.015576192 -0.15047705 0.016488392 0.05416678
000200 96 c3 ec bc fe 45 2d 3d 89 4b ce 3d 0c 22 cc bd
       -0.028901856 0.042303078 0.10073001 -0.099674314
000210 da 3d c1 bb 18 52 82 bb 7a 55 a0 be 1f 47 4d 2a
       -0.005897266 -0.0039770715 -0.31315213 1.8232333e-13
000220 b3 ff 25 28 d1 6a 01 aa 96 9d a5 a9 f8 71 39 aa
       9.214786e-15 -1.1494561e-13 -7.354809e-14 -1.6470842e-13
000230 f4 64 dd 27 f8 f3 71 aa 80 b6 1a 2a 37 de 17 a9
       6.1449276e-15 -2.1489744e-13 1.3741265e-13 -3.3721476e-14
000240 a2 2f 3c be 8d e9 cd 3d 47 ee b3 3d 22 1b 93 3e
       -0.18377545 0.10054312 0.08785682 0.28731638
000250 6a 30 8d be c3 c3 13 bf ab 77 58 3e 2c 51 bc be
       -0.27576 -0.57720584 0.211394 -0.3678068
000260 57 98 3f bf ee e4 9e bd ac 9b 06 3d 9b 30 0d be
       -0.7484183 -0.077585086 0.032863304 -0.13788073
000270 bb dd 04 bf 73 f7 fc 3e e0 b5 af 3f b2 07 20 bf
       -0.51900834 0.4940754 1.3727379 -0.6251174
000280 a3 ae a5 bd 30 6c 1b 3f de 6e ef bc 70 a8 94 bd
       -0.0808995 0.60711956 -0.02922767 -0.072586894
000290 0b f1 ea bd f1 3f 74 bd ad eb 3f be 59 e8 1d be
       -0.114717565 -0.05963129 -0.18742247 -0.15420665
0002a0 19 4a 4c bd a7 55 26 be 5c 81 00 be 85 0d 20 bc
       -0.049875353 -0.16243611 -0.12549347 -0.009768848
0002b0 57 b3 c4 3d 35 77 71 3d 8d 4d 01 3e 47 0a 19 3e
       0.09604519 0.058951575 0.1262724 0.14945327
0002c0 0d 2b 72 be 81 86 96 3d 5a 92 a7 3d 98 76 04 bf
       -0.23649235 0.07349873 0.08182211 -0.5174346
0002d0 e0 d0 80 bc b1 c7 5a 3a de b0 e8 3c b2 fd 51 3d
       -0.0157246 0.00083457964 0.02840465 0.051267333
0002e0 cf b3 70 3c 17 7e 18 3d df 86 8a 3d 87 79 19 3e
       0.014691307 0.037229624 0.06764006 0.14987765
0002f0 c8 5f 27 3e 7e 64 ed 3d 83 ca d8 3c fa 69 ac bd
       0.16345131 0.11591433 0.026463753 -0.08418651
000300 57 ea 00 3f 30 3c 01 be db 78 19 bf 48 f1 01 3f
       0.50357574 -0.12620616 -0.59950036 0.5075879
000310 14 b0 ca 3c 51 5a 10 bf e4 cc 94 3c ae af d0 3d
       0.024742164 -0.5638781 0.018164106 0.10189758
000320 d7 17 37 3c fe 23 45 3c 0d 57 1c 3d 65 28 c4 bd
       0.011175117 0.012032507 0.038168956 -0.09578017
000330 b8 77 43 3d 08 bd dd bb db c6 ce be f3 d0 b0 bb
       0.047721595 -0.006766919 -0.4038609 -0.0053960024
000340 0d 4c 13 3d 70 89 9c 3c 69 40 cf 3c 91 58 b9 3d
       0.0359612 0.019108504 0.025299268 0.09050096
000350 dd a4 84 3d 50 60 3e 3d 68 96 48 3e 85 86 13 3e
       0.06476758 0.04647857 0.19588625 0.14406784

onnx::Conv_802 f4 [24]
000000 52 77 83 3d 10 6e 63 be df 06 47 bf e2 e4 31 bf
       0.06419243 -0.22209954 -0.7774486 -0.6948987
000010 db 54 a4 3d f7 7c 18 3d 71 5f ea 3d f6 34 7e bd
       0.080239974 0.03722855 0.11443985 -0.062062226
000020 94 bc 3c be 83 b2 5b 3e 54 f5 85 3e 6e 20 85 33
       -0.18431312 0.21454816 0.26163733 6.199194e-08
000030 4a de 27 3e c6 8e bc 3e 4f ed 8b 3d 88 fb 82 33
       0.1639339 0.36827677 0.068323724 6.09935e-08
000040 c8 5e 8f 3f 8c 6e 35 bd a6 52 83 3e 26 ce 8f 3d
       1.12008 -0.04429488 0.25648993 0.070217416
000050 93 9d 47 be 58 bd 71 3e 30 1e d3 3d 8f e9 5d be
       -0.19493704 0.23607385 0.10308492 -0.21671127

onnx::Conv_804 f4 [24, 24, 1, 1]
000000 2f 72 4b 3c c7 20 60 3d b4 66 2f 3c e0 ad 3c 3c
       0.01241736 0.05471876 0.010705639 0.011516064
000010 8d 9c 84 3d 9a 38 6c bd b9 f3 39 3d 02 ef 79 bc
       0.06475172 -0.057671167 0.045398448 -0.015254738
000020 aa 3e 9d 39 8d 92 f2 3d af 59 3b 3d 6e 00 66 ab
       0.00029992062 0.118443586 0.045739826 -8.171301e-13
000030 d7 3f 9d be c4 a0 9f bd 19 e1 14 bd e6 f5 53 ab
       -0.30712768 -0.077943355 -0.036347482 -7.530351e-13
000040 59 aa ad 3c eb 79 a8 3e b9 73 b9 bc b1 ed d5 3c
       0.021199392 0.32905516 -0.022638189 0.026114317
000050 4f ec 8c 3d 7f a6 95 bd a9 97 9d ba 13 91 05 bd
       0.0688101 -0.07307147 -0.0012023348 -0.032609057
000060 c7 5c b4 3c 4f 5f 0b 3e de 8c 56 3d 4b aa 2f bc
       0.022016896 0.13610576 0.052380435 -0.010721753
000070 cb b8 0b be f3 16 48 3c 5b 6c 1d 3c b6 f2 80 be
       -0.13644712 0.012212503 0.0096083535 -0.25185174
000080 41 ad f2 bb 91 43 26 be 6e 9b b7 3f 61 ff 32 2c
       -0.0074059074 -0.16236712 1.4344308 2.5437085e-12
000090 59 69 f9 3d 53 bd 03 be ea af bc bc 84 5f a3 2b
       0.121782966 -0.1286519 -0.023033101 1.1608358e-12
0000a0 a9 db 30 bd b0 90 0a bd ae 93 1c bd 10 68 c9 bc
       -0.043178234 -0.03382939 -0.038226776 -0.024585754
0000b0 1c 10 bd 3d 40 30 8b 3a ce aa 20 bd 1c d2 c0 bc
       0.09231588 0.0010619238 -0.039225392 -0.023537688
0000c0 ec bb e7 bd 9a de bd bd d7 1b 46 3f 96 2b c0 3c
       -0.1131514 -0.092709735 0.7738623 0.023458283
0000d0 ae 24 bc bd 47 82 51 bc d6 4c 07 3b ad 0e 94 bd
       -0.091866836 -0.012787408 0.0020645163 -0.07229362
0000e0 c9 66 96 bd 4e 4b e7 3d ea a7 5d bd 3f 44 85 ab
       -0.073438235 0.1129366 -0.054115213 -9.46916e-13
0000f0 d7 1e 0c 3e 20 4f 0b be bc dc 1a bd 32 45 0e ab
       0.1368364 -0.13604403 -0.037808165 -5.054456e-13
000100 e5 c9 0d bf 48 aa 46 3c 2f 8e a9 3c 11 36 3b bd
       -0.5538619 0.012125559 0.020697681 -0.04570586
000110 c6 10 57 3b 1b 98 ea 3d f4 63 ec 3b 9b 40 4c 3d
       0.0032816394 0.11454793 0.007214064 0.0498663
000120 50 ba 28 bd 63 62 17 be c1 02 75 be 08 15 e3 3c
       -0.041193306 -0.14783625 -0.23926832 0.02771999
000130 34 72 b9 3d e6 08 d7 3d 0e 52 66 3e 18 91 ce 3c
       0.09054986 0.10499744 0.22492239 0.02521567
000140 83 ad a6 3d 7c e2 a8 bd 7e d8 57 bd ce 7f 93 ab
       0.081385635 -0.082463235 -0.052696697 -1.0480451e-12
000150 bf 0b e0 3d d3 8b 33 3f b4 89 e9 bd f8 b8 cd 2b
       0.109397404 0.7013523 -0.11403218 1.4617465e-12
000160 b5 9b f8 3d 82 c8 10 3d b1 8c 5e bf e7 04 70 bc
       0.12139074 0.03534747 -0.8693343 -0.014649606
000170 b4 5a 55 3e c7 0e ed bd 9d 6d 6d 3d 87 0d 44 bf
       0.20835382 -0.11575084 0.057965863 -0.7658314
000180 f3 17 d4 3d a5 dc 4d bd 55 c9 b1 bc 8d 76 66 3f
       0.103561305 -0.05025925 -0.021702448 0.90024644
000190 c3 14 c7 3c d7 93 35 bc 8d 99 14 bc 14 e6 82 bd
       0.024301892 -0.011082611 -0.0090698125 -0.0639154
0001a0 54 95 e6 3c 54 f7 25 bd 8d df 34 3e a1 ef a7 2a
       0.028147377 -0.040519074 0.17663403 2.9831435e-13
0001b0 6c 82 30 3d 75 cc 90 3b 11 3c 51 3d d6 30 f5 aa
       0.04309313 0.0044189044 0.051082674 -4.355463e-13
0001c0 8f a3 12 bd 7e d3 56 39 05 62 8f 3c 30 e3 21 bc
       -0.035800513 0.00020487417 0.017502794 -0.009880826
0001d0 e4 b0 86 3d 6c 9f f0 3a 4e 15 1e bc 52 89 58 bd
       0.06576708 0.0018358058 -0.009648634 -0.052865334
0001e0 6d f5 32 3e f1 68 2a 3e ca b4 18 be 36 fc c8 bd
       0.17476435 0.16641594 -0.14912716 -0.098137304
0001f0 c2 84 45 3e 91 0b 99 3e db 20 98 be 51 41 c9 3d
       0.19288924 0.29891637 -0.29712567 0.09826911
000200 a4 2b 55 3d ee c2 4e 3d ad e6 a8 3c d6 65 ec ab
       0.052043572 0.05047887 0.020617807 -1.6797074e-12
000210 ee 92 2e be c4 49 ea bd e0 fe f1 3c 52 9c 5c ab
       -0.17048237 -0.11439851 0.02954048 -7.837664e-13
000220 69 bf da 3d c7 66 c8 bd 83 f4 cd 3e d2 e2 a4 3d
       0.1068104 -0.09785228 0.4022561 0.08051075
000230 f3 27 03 be a5 44 0a 3f 1d 41 d6 bd 6d d2 3d 3e
       -0.12808208 0.54010993 -0.10461638 0.18537302
000240 fc 4f e0 bc a5 f9 27 bd 54 f8 09 bb 99 e0 c9 3c
       -0.02738189 -0.041009564 -0.0021052556 0.02464323
000250 b3 5c 94 bd 00 45 2f 3f 2d 90 04 3b fa 0f b0 bc
       -0.072442435 0.6846466 0.0020227537 -0.021491993
000260 86 60 48 bd aa 49 df 3b 1c d8 8b 3c 61 6f 3e ab
       -0.048920177 0.0068142014 0.017070822 -6.765613e-13
000270 b8 d9 b2 3c c5 7f 14 3d 64 78 88 bd 00 cc 38 2b
       0.021832332 0.036254663 -0.06663588 6.565304e-13
000280 d2 0b e3 bc b1 c7 1d bd 31 5a 1b 3c f0 2a b4 bd
       -0.027715597 -0.03852052 0.0094819525 -0.08797252
000290 c1 dc aa be fe 5c 82 3d 86 9c a5 bd ae d2 3f 3d
       -0.33371547 0.06365393 -0.08086495 0.04683178
0002a0 13 b3 09 3d 4b 22 09 3e be 2f c6 bd 35 26 a2 bc
       0.033618044 0.13391988 -0.09677075 -0.01979361
0002b0 71 b8 1d be e0 a9 33 3d 11 b3 6d 3d 34 8c 87 bd
       -0.1540239 0.043863177 0.0580321 -0.066185385
0002c0 69 97 a1 3d 36 48 66 bd 1b 49 7a be 1d 58 2b 2b
       0.07890207 -0.05622121 -0.2444195 6.0873686e-13
0002d0 98 c7 8d be 54 ac 05 be e0 c0 da 3d db 2b a7 2b
       -0.2769134 -0.13054019 0.10681319 1.1878236e-12
0002e0 40 f2 75 bd 56 cd a0 3b f1 af b2 be 33 bc 41 3c
       -0.06004548 0.0049072905 -0.34899858 0.011824655
0002f0 f2 3a 2e 3d db 49 17 be 92 96 c3 bd 8a ac 30 bc
       0.042536683 -0.14774267 -0.095502034 -0.010783324
000300 1f e5 a3 3c 39 e1 92 bc cd c8 ef 3e 20 5e be 3a
       0.020006714 -0.01792966 0.46832886 0.0014523901
000310 2d 7e 53 bc 47 13 3b 3c 0b f8 5f 3c 55 50 68 3d
       -0.012908501 0.01141817 0.013669978 0.056717236
000320 bc 2f bb bc aa 9d 79 3c ec cb 1f 3d de 55 9b aa
       -0.02284991 0.015235344 0.039012834 -2.7593113e-13
000330 fb 1f 68 3d 7f 5f 38 3c cd bb de bb 22 c4 34 ab
       0.056671124 0.011253237 -0.00679729 -6.4221035e-13
000340 71 f4 f5 3d e2 94 a6 3c 4e 15 1f 3d ad ba d9 bc
       0.12009514 0.020334665 0.038838677 -0.026578272
000350 90 b3 04 bc 72 94 6d 3d 59 a2 41 bd 2a 0f 42 3c
       -0.008099452 0.058002897 -0.047273967 0.011844436
000360 22 5d 3d 3f 5f 56 6c 3e 5a 11 24 bd 3d 22 90 be
       0.73970234 0.23079823 -0.04005561 -0.28151122
000370 a3 cc 95 3d a4 69 a7 bd 1d eb e4 bd 63 9f cc be
       0.07314422 -0.08174446 -0.11177657 -0.39965352
000380 75 dd c7 3d 95 a2 af bd 64 c4 1c 3f a0 49 e7 2b
       0.097590365 -0.08575932 0.6123717 1.6433972e-12
000390 ef 57 47 3d 18 ec ae 3d 46 fb a6 bd 49 a9 17 ab
       0.048667844 0.08541125 -0.08153395 -5.3880907e-13
0003a0 7a 09 58 3f d7 cc 7b bd 1a 61 2c bc 79 74 32 bd
       0.8438946 -0.061474647 -0.010521198 -0.04356811
0003b0 e9 db 13 3e 02 ba fb bd 33 e8 8b 3d 80 38 5f bb
       0.14439358 -0.122913375 0.06831398 -0.0034060776
0003c0 3f ad 45 bd 5f 30 08 3e 31 38 3a 3e 30 2f 0b 3e
       -0.048260923 0.13299702 0.18185498 0.1359222
0003d0 fc a0 ae 3d cb 33 61 bd 6e 38 1d 3e 68 80 f7 bc
       0.08526799 -0.054981034 0.15353557 -0.030212596
0003e0 c1 45 af bd 1f 51 40 3e 14 45 82 3d 04 5b 50 ab
       -0.085582264 0.18780945 0.06360832 -7.4022754e-13
0003f0 cd d5 31 bd a4 31 15 be b3 b1 0e be df 2a b3 aa
       -0.043416787 -0.14569718 -0.13934974 -3.1826535e-13

onnx::Conv_805 f4 [24]
000000 29 d7 4c 3e ae 75 3a bd ac 54 a9 3d 71 cb 4c 3e
       0.20003952 -0.045522384 0.08268103 0.19999482
000010 a3 bd 8d 3d e7 16 76 3c 74 a1 1e 3a 83 c4 b9 3d
       0.06920936 0.015020109 0.000605128 0.09070685
000020 70 8d 97 3b 47 64 cf 3c f0 64 d5 bb 90 9a bf 3c
       0.004625015 0.02531637 -0.006512277 0.02338913
000030 ae ca 0a 3e e4 fe 24 3e dd ee b4 bc b4 a6 c2 3d
       0.13553879 0.16112858 -0.022086555 0.09504452
000040 2f 92 91 3e 23 e2 d7 3d 0f b1 b2 3d 38 bf 4b 3d
       0.28431842 0.10541179 0.087251775 0.049742907
000050 3b 98 bb 3e d4 d0 9c bd da b7 7e 3d af cf fb 3d
       0.3663958 -0.07657018 0.062187053 0.12295472

onnx::Conv_807 f4 [24, 24, 1, 1]
000000 0c c8 d5 3d 82 3d 4e 3c fb a8 ad 3d 01 b9 fb 3d
       0.104385465 0.012587907 0.08479496 0.12291146
000010 f7 8e b1 3c 49 e9 9d 3d f7 50 bf bb dd e8 b2 3d
       0.021674616 0.07710511 -0.005838509 0.087358214
000020 81 73 a2 bb be 3b f0 3b ec 93 98 3a e5 a1 d0 2a
       -0.004957617 0.0073313406 0.0011640764 3.706056e-13
000030 90 dc ad 3d 09 ab 21 3c c2 51 59 3c b6 69 47 a9
       0.084893346 0.009867438 0.0132641215 -4.4278566e-14
000040 55 36 4d 3e 71 01 ea 3d a8 1c 28 3d 7f 17 10 3c
       0.20040257 0.11426056 0.041042954 0.008794664
000050 f6 bf b5 3a c0 6c 6a 3d fc e5 ef 3c bb d7 b0 bb
       0.0013866413 0.05723262 0.02928447 -0.005396811
000060 b2 5f 41 b9 c2 74 74 bd 6d d9 a0 bc 92 c4 2e 3d
       -0.00018441564 -0.05968166 -0.019634927 0.042667933
000070 e9 67 44 3e a7 f1 de 3e 87 ad 1e 3e 8d 4d f7 bd
       0.19180264 0.4354374 0.15495883 -0.120753385
000080 3b ce 9e be 62 4e e9 3c 50 c1 cb 3d db 7b 60 ab
       -0.31016716 0.028479759 0.09948981 -7.975267e-13
000090 7f d6 cf bd b9 a9 9b 3d 96 21 a8 be 06 33 1d 29
       -0.10148334 0.076007314 -0.32838124 3.490526e-14
0000a0 7b b3 93 3d ce 62 9d bd 79 57 12 3c ec 42 92 be
       0.072119676 -0.07684861 0.008931988 -0.28566682
0000b0 ab e4 d3 bd 51 a6 80 3e 42 ab ef 3d 04 1f 4d be
       -0.10346349 0.2512689 0.11702587 -0.20031363
0000c0 5a 9a 1f 3d 52 7e 68 bc 3f 02 ee bb 45 44 54 3d
       0.03896556 -0.014190273 -0.0072634513 0.05182292
0000d0 c7 ae b0 3d f7 7a 08 be 2e aa 1f bf d8 f9 8e bd
       0.08627086 -0.13328157 -0.6236905 -0.06981248
0000e0 94 20 21 3d 7b 77 c8 bd 7d f3 c6 3d ae 89 56 2b
       0.03933771 -0.09788414 0.097144105 7.621914e-13
0000f0 79 04 a5 bd 24 f6 94 bd cc 9d 96 bb e4 72 1c 2a
       -0.08057494 -0.0727351 -0.0045964476 1.3895444e-13
000100 62 d0 3b 3d 0b c7 bf bd 79 07 ea 3c f1 b6 c2 3d
       0.045853026 -0.09364136 0.028568016 0.095075496
000110 6f 1f 39 3d a8 0e d0 bd f4 58 d9 bd d1 c0 3c bb
       0.045195993 -0.101590455 -0.106126696 -0.002880145
000120 75 bc 33 3e 05 10 c8 be 0a 93 17 bc a9 7e 4f 3d
       0.1755236 -0.39074722 -0.009251365 0.050657902
000130 5a e7 9f 3d 45 75 f6 3d 3b bb db 3d 28 4f 3b be
       0.07807799 0.12034086 0.10729071 -0.18291914
000140 70 d9 c1 3c 6f fe 05 bf c3 da 3e bd 49 9c ff 2a
       0.023663253 -0.5234136 -0.046595346 4.5405544e-13
000150 8d 2f f5 3b 2b fc 3e 3e d0 b7 4a bd 02 ad 1b ab
       0.007482475 0.18650882 -0.049491704 -5.530716e-13
000160 fe fd 57 3d f3 5b e7 3a dd 7e 87 be 41 1a d8 bd
       0.05273246 0.0017651304 -0.26463977 -0.105518825
000170 2b 5d d1 be 65 61 70 3e 37 d1 29 3e cd a3 b3 be
       -0.40891394 0.23474653 0.16583715 -0.35085908
000180 7f a5 16 be 54 20 92 39 4f c5 02 be 8b 34 44 be
       -0.14711569 0.00027871376 -0.1277058 -0.19160669
000190 1d 00 87 be a0 f6 48 3d 7b 4d 52 be ab 2f ad bd
       -0.26367274 0.049063325 -0.20537369 -0.084563576
0001a0 86 c3 8b 3d 37 47 a0 bd f4 57 b2 bd 99 70 42 2b
       0.068244025 -0.07826083 -0.08708182 6.9078906e-13
0001b0 bc 47 0d be bd 11 72 bd c2 dc ed 3d 8b d6 93 2b
       -0.13796896 -0.059098948 0.11614372 1.0504526e-12
0001c0 7f 4b d6 be 1f 98 e6 bd 7b a4 a2 bd 6b f8 e9 3d
       -0.41854474 -0.112594835 -0.079415284 0.11424335
0001d0 4d 24 48 bd 6f ba 76 3d 94 27 98 be fc b6 51 bc
       -0.048862744 0.06023639 -0.29717696 -0.0127999745
0001e0 74 11 a7 bd fb 49 ee bb 6a e2 6c be 70 c8 7b be
       -0.08157626 -0.0072720028 -0.23133245 -0.2458818
0001f0 31 9c 19 bd 4e cc 5b 3c ce eb 04 bd 03 5b 01 bd
       -0.03750247 0.013415409 -0.032451443 -0.031580936
000200 13 ae 13 3c 71 8e 20 bc 9e 32 df 3b 8a 56 0f 2a
       0.0090136705 -0.009799586 0.006811454 1.2730976e-13
000210 75 99 16 be d4 f9 2e bd fa 44 05 3c ab 5d dc 29
       -0.14706977 -0.042718723 0.008134121 9.7862114e-14
000220 72 f2 98 be 86 5e 95 be 68 68 b1 bb 4d e4 2b ba
       -0.2987247 -0.29173678 -0.0054140575 -0.0006557152
000230 25 dc d7 bb 17 31 d2 bd c3 24 26 bd ba fb cd 3a
       -0.0065875226 -0.102632694 -0.040562402 0.0015715279
000240 ae 18 49 3c 56 88 34 3e 55 fa 4a 3d 86 4e 01 3e
       0.0122739505 0.17630133 0.04955514 0.1262761
000250 46 36 a8 be fa c5 b1 3e 54 38 b9 be c6 a4 c1 bd
       -0.32853907 0.34721357 -0.36175787 -0.09455256
000260 99 0d a8 be 1a c1 98 3e 71 f2 66 3d 47 ba f7 2a
       -0.32822874 0.29834825 0.056383554 4.400527e-13
000270 48 f1 61 be 53 ae e8 be 63 ec 12 be b2 e3 93 2b
       -0.22064698 -0.454455 -0.14347987 1.0508176e-12
000280 25 5c 8b 3d c0 ca ad b9 46 7d 78 3e d8 75 c3 bd
       0.068046845 -0.00033148192 0.24266538 -0.09543961
000290 83 a6 99 3e c4 d9 92 3e f2 97 c1 be 7e 3c 6d 3e
       0.3000985 0.28681767 -0.37811238 0.23167607
0002a0 96 e5 d6 3d c0 48 67 3e 56 6a a3 3d 4b 28 cb 3d
       0.10493009 0.22586346 0.07979266 0.09919795
0002b0 81 df be bd 35 ea dc bb 99 d1 b2 bd 29 15 56 3e
       -0.09319974 -0.006741787 -0.08731384 0.2090651
0002c0 93 d6 b7 be 27 cf 61 3e 50 8b 3e 3c 40 38 59 ab
       -0.35905895 0.22051679 0.011629894 -7.717195e-13
0002d0 fa f3 a3 3d f2 86 80 be 68 c5 a8 be 81 6d 3d 2b
       0.08005519 -0.25102955 -0.3296311 6.7298256e-13
0002e0 ee 90 cc 3d ad ad 8d 3d 95 bd 3c 3e 2e fd b4 be
       0.09988581 0.06917892 0.18431695 -0.3534941
0002f0 5d 6f c7 3e 42 0a 4b 3d 57 15 30 bd 59 e6 f6 3d
       0.3895215 0.04957033 -0.0429891 0.12055654
000300 94 b6 05 3d 86 9a 28 bc b1 13 db 3c d9 72 bf 3c
       0.032644823 -0.0102907475 0.026742788 0.023370193
000310 d4 75 1e bf 83 e4 0c be 3f b3 03 3e 7d 68 89 bd
       -0.6189854 -0.13759045 0.12861346 -0.06709383
000320 19 4d b4 bb 1d f8 b4 bd 21 e1 bd 3c 6d 48 29 ab
       -0.005502355 -0.08836386 0.023178639 -6.014137e-13
000330 71 3d f2 bd 2c 86 d2 bd b0 78 0b 3e c4 56 a2 a7
       -0.11828125 -0.102794975 0.13620257 -4.5058104e-15
000340 39 a7 0e bd 0c c0 1d 3d 3d c2 3e 3e a7 01 37 3d
       -0.034827445 0.03851323 0.18628784 0.04467931
000350 f8 b8 99 bd 10 3d 07 be de aa cb bc ba 89 a1 3c
       -0.07505983 -0.13206887 -0.02486175 0.019718993
000360 d9 80 76 3d a8 bb f4 3d cc d5 ef 3d 75 d0 f9 3d
       0.060181472 0.11949855 0.117107004 0.12197963
000370 c3 97 bf be 9f 26 25 3e ff c5 9d be 84 fb 1d 3e
       -0.37420473 0.16128014 -0.30815122 0.15427977
000380 29 ed 30 3e 36 13 48 bd 9c 40 00 3d c0 2f 2e ab
       0.1727797 -0.048846446 0.031311616 -6.1883484e-13
000390 a6 f4 ce 3d 13 9a be 3c b9 69 1f 3e e4 82 a2 aa
       0.10105257 0.023266828 0.15567674 -2.8867804e-13
0003a0 41 ba 8e 3d 35 16 99 3c c9 27 f7 bd 97 62 11 3e
       0.06969119 0.018687347 -0.12068135 0.14197765
0003b0 bf dc 97 bd e6 99 f0 3d d3 c8 95 be 5e 38 5d bc
       -0.07415151 0.11748104 -0.2925478 -0.0135022085
0003c0 4e 0c f9 3d 38 54 87 3c aa 1c 0e 3e e0 d9 d9 3d
       0.1216055 0.01651965 0.13878122 0.106372595
0003d0 bc 05 9d bd c9 7c 18 be a3 84 96 bc 5b cb a6 bd
       -0.07667109 -0.14891352 -0.018373793 -0.08144256
0003e0 75 7c aa 3e 48 c3 b1 3b 20 8b 43 3c fd 44 71 2a
       0.33298078 0.0054248907 0.011935025 2.1429035e-13
0003f0 68 cd 20 bd 31 1b 88 3d 6f 7d 83 be 10 1d 9a ab
       -0.03925839 0.06645811 -0.25681636 -1.0950425e-12

onnx::Conv_808 f4 [24]
000000 be 51 c4 be dc 9c a3 be 64 cc a3 3e d8 d2 2d bd
       -0.38343614 -0.31955612 0.31991875 -0.042437404
000010 66 d8 2e 3f d5 d8 6c 3f ca ef 96 be 00 ef 06 3a
       0.6829895 0.9251836 -0.2947982 0.0005147308
000020 3b cb ba 3e f2 c2 46 be ed 89 c7 be 19 9c 02 3e
       0.36483178 -0.19410303 -0.38972417 0.12754859
000030 28 2f 82 3d ee 03 62 be 1b ff a4 bf 89 35 82 3f
       0.063566506 -0.22071812 -1.2890352 1.0172588
000040 a2 78 33 3e 72 2d 04 be 30 54 9f be 00 0a 03 3b
       0.17526487 -0.12907961 -0.31118917 0.0019994974
000050 89 05 ad bd 25 cf 13 40 49 e8 b3 3e 72 78 6b be
       -0.08448321 2.309518 0.35138157 -0.22995165
